dqn_learning/pressure/models/modelstatedict_2.pth (torch, 292191 bytes, 6 tensors)

net.0.weight f4 [256, 21]
000000 e5 d4 02 bd 85 e8 fe 3d db 02 c7 bd 93 c5 2e 3e
       -0.031941313 0.12446693 -0.097173415 0.17067556
000010 f7 10 02 3e 87 bc 4d be 13 34 df 3d 1e cc db 3d
       0.12701784 -0.20091449 0.10898604 0.10732292
000020 75 dd c5 3d c9 75 f6 bd b1 61 98 bd 1f ae 52 3e
       0.0966138 -0.120341845 -0.07440508 0.20574234
000030 d7 15 de bd fb ae 15 3e 52 24 1c bd a3 fe a3 bd
       -0.10844009 0.14617531 -0.038120575 -0.080075525
000040 51 55 b2 3d 77 42 20 3e 48 31 89 3d f1 2b 4e be
       0.08707679 0.15650354 0.06698853 -0.2013395
000050 52 a9 62 bd 50 03 6b bc 18 7b 0e bd 97 55 13 3e
       -0.055337258 -0.0143440515 -0.03478536 0.14388119
000060 65 3b 1c 3e 54 3e 74 bc 19 c8 85 bd 9a f1 ae bd
       0.15257032 -0.014907438 -0.06532306 -0.085421756
000070 e2 3a 37 3e fb f8 16 be 8a 99 de bd dc df 84 bc
       0.17893556 -0.14743416 -0.10869129 -0.016220026
000080 ea 6e 3c be e2 a1 08 3e 02 22 d8 3c a5 7c 33 be
       -0.18401685 0.13343003 0.026383404 -0.17528017
000090 1c 4f 40 be bc ea ac 3d b5 14 e3 bd e5 ed 26 be
       -0.18780178 0.084432095 -0.11087934 -0.16301687
0000a0 7c cb 85 bd 46 a0 1a 3e ba 55 59 be b0 bc 16 3e
       -0.06532952 0.15100202 -0.21224108 0.14720416
0000b0 c2 ff bd bd d4 69 91 3c 9f 43 3b 3e 83 47 0b 3e
       -0.092772976 0.017750658 0.18287514 0.13601498
0000c0 41 d6 f8 bd d0 85 59 be 87 e2 30 3e 80 06 4d be
       -0.12150241 -0.21242452 0.17273913 -0.20022011
0000d0 27 bb 4e be 74 53 1b be d1 9f b4 3d f1 2c f2 3d
       -0.2018858 -0.15168554 0.08819545 0.11824978
0000e0 15 81 22 bd b8 18 c0 bd 98 08 66 3d 81 61 10 3e
       -0.039673883 -0.09379715 0.05616054 0.14099695
0000f0 1b e5 a1 3d e6 f1 3a 3e 9b 08 c8 3d 4f 35 11 3e
       0.079050265 0.1825634 0.09767266 0.14180492
000100 f2 e3 bb bd 60 a6 10 bc 4d 9a 4b 3e 80 a0 b2 bd
       -0.091743365 -0.008828729 0.1988308 -0.08722019
000110 d1 3f 99 3d 9a 12 55 be 10 01 33 3d 25 17 57 3d
       0.07482875 -0.20807877 0.043702185 0.052512307
000120 0c 13 e4 bd a0 26 c4 3d b5 15 c9 3d 4d d1 e1 3c
       -0.111364454 0.0957768 0.098185934 0.027565623
000130 57 02 cc bd 05 b1 ce bb 9e 9f a0 3c 69 10 07 be
       -0.09961384 -0.0063077235 0.019607361 -0.13189854
000140 26 63 57 bd f2 13 3a be 82 6e 16 be ce fa 7c bd
       -0.05258479 -0.18171671 -0.14690593 -0.061762623
000150 61 fc a6 bd ee 75 2a 3e de 20 02 3e 23 ce 3f be
       -0.08153606 0.16646549 0.1270785 -0.18730979
000160 5d c1 10 3e 5c ee ed bd e5 78 57 3e 9c 92 03 3e
       0.14136262 -0.11617729 0.21042211 0.12848896
000170 03 bb 07 3e e0 33 47 bc f9 1d fc 3d 7a a0 5b 3c
       0.13254933 -0.012158364 0.12310404 0.01340496
000180 68 b5 8b bc 0d d2 72 bd 3e c9 23 3e 22 0b 3f 3e
       -0.017054275 -0.05928235 0.15994737 0.1865659
000190 df 56 1d bc 26 73 e3 3d d2 96 b5 bd 87 8c 06 be
       -0.009603231 0.11105947 -0.08866657 -0.13139544
0001a0 c0 87 15 be 98 a8 ec 3c ec de 14 3d 6e 4e fb 3d
       -0.14602566 0.028888986 0.036345407 0.12270819
0001b0 44 10 d3 bd e2 9a 48 be bc bd fa bd d6 32 e8 3d
       -0.10305837 -0.19590333 -0.1224322 0.11337821
0001c0 00 04 9c bc 7e 84 ad 3d 78 be 20 bd 5e a5 b6 bd
       -0.019044876 0.084725365 -0.039244145 -0.0891826
0001d0 e1 42 18 be 6b d5 2e 3e 80 28 25 3c 8e 94 c8 3d
       -0.14869262 0.170736 0.010080457 0.097939596
0001e0 a4 95 c5 bd d4 f7 13 be 9b 41 09 3e 90 aa 72 bd
       -0.09647682 -0.14450008 0.13403933 -0.059244692
0001f0 20 36 04 3c 00 f6 a9 39 b8 87 b1 bd 56 52 92 3d
       0.008069545 0.00032417476 -0.086684644 0.071446106
000200 2c d5 5a be c0 1a 96 bd 24 c9 4d bc 78 21 fe bb
       -0.21370381 -0.07329321 -0.012560163 -0.0077554546
000210 c8 63 44 bd ab fe e3 bd a4 1b 8f 3b 81 4e 59 be
       -0.04794672 -0.111325584 0.0043673087 -0.21221353
000220 a5 a0 e6 bd 12 62 8f 3d 24 eb 75 bd f7 1c 4e be
       -0.11261109 0.07001127 -0.0600387 -0.20128237
000230 fe 24 4e be b6 d8 87 bd 59 62 97 bc d1 3a 4f 3e
       -0.20131299 -0.06633131 -0.018479513 0.2023728
000240 9c ab 17 be 23 ab 38 3e 76 48 27 3e 57 14 13 bd
       -0.14811558 0.18034033 0.16336235 -0.03590807
000250 67 b6 53 3e 15 57 33 3e c7 43 91 3d 5a 2c fd 3c
       0.2067505 0.17513688 0.070930056 0.030904938
000260 b6 ae 51 be 35 c1 3e 3e 4f 47 0a be dd 3a c1 3d
       -0.20476803 0.1862839 -0.13503765 0.094350554
000270 c2 61 04 be 89 b8 0c 3d 29 96 60 3e 07 40 ec 3d
       -0.12927917 0.034355674 0.21932282 0.1153565
000280 66 ef 11 3e 1d d2 31 bd 33 0f ab bd 28 71 f0 bc
       0.1425148 -0.04341327 -0.083525084 -0.029350832
000290 9a b0 46 3e de c2 88 3c ba ea ad 3d 78 8e c8 3d
       0.19403306 0.016694482 0.08492036 0.09792799
0002a0 5f 06 3c be 72 09 3b 3d d6 bb 1c 3e b1 20 0b bd
       -0.18361805 0.045663305 0.15306029 -0.033966724
0002b0 61 23 d0 ba 82 5e 0d 3e c8 38 18 3e b9 16 a4 3d
       -0.0015879684 0.13805583 0.1486541 0.080121465
0002c0 30 89 1c be f3 b0 4c be dd e4 84 3d 61 d4 dc bd
       -0.15286708 -0.19989376 0.06488965 -0.107826956
0002d0 42 74 24 be ac a0 3d 3d 57 fd d8 3d 59 10 50 3e
       -0.16059974 0.046295807 0.10595196 0.20318736
0002e0 17 fb e2 bd e6 70 e3 bd 38 01 44 bb d7 8d d3 3d
       -0.11083048 -0.11105518 -0.0029907953 0.10329788
0002f0 a8 59 1e 3d a2 2b 86 bd 32 bd 36 3e 0a 34 3e 3e
       0.03865972 -0.06551291 0.1784561 0.18574539
000300 a5 2f 1f 3e eb c2 e1 bd 4d 90 09 be a5 96 6a 3d
       0.15545519 -0.11023506 -0.13433953 0.057272572
000310 80 93 9d 3d 81 60 26 be 1a 0a 57 be 4c db 67 3d
       0.07694149 -0.16247751 -0.20999947 0.056605622
000320 e8 54 bd 3d e7 c9 03 3e af 9a a0 bc 51 d6 51 3e
       0.0924471 0.12869988 -0.019605009 0.20491911
000330 45 f2 24 be 04 b6 2c 3d 25 d7 46 bd 1d 02 41 be
       -0.16108043 0.04216577 -0.04854502 -0.18848462
000340 41 e4 52 3e 9c 12 51 be ac 38 9f bd 07 75 10 be
       0.20594884 -0.20417255 -0.07774481 -0.14107142
000350 0e 94 13 3c 0c d1 4e bd 6f e6 1a 3e b1 a7 d2 3d
       0.009007467 -0.05049233 0.15126966 0.10285891
000360 07 3f 42 3e 3b c6 3d bb e0 bd 7e 3d 65 55 a1 bd
       0.18969356 -0.0028957266 0.062192798 -0.07877616
000370 dd 61 12 bd 97 8e 86 3d c5 1d 1c bd c6 e7 3b be
       -0.03573786 0.065701656 -0.038114328 -0.18350133
000380 7d ea 44 be 4d 39 3d 3e 26 0b 5a bd 94 d5 14 3d
       -0.19230075 0.1847889 -0.05323329 0.036336496
000390 8d d5 5f 3d bf 78 26 3d a9 d7 b4 bd 87 9f 3d 3e
       0.054647017 0.040642496 -0.088301964 0.18517886
0003a0 ef 28 08 bd ac bb 73 3d 47 a4 12 3d b0 29 02 3e
       -0.033242162 0.05950515 0.0358012 0.12711215
0003b0 4e 1e 71 bc 02 ee 85 3d c4 5d 01 bc ad 19 44 3e
       -0.014716698 0.06539537 -0.007895891 0.1915042
0003c0 c1 0c af bd 5d 0e e9 3d 04 d0 ac 3d fd 9d f0 bd
       -0.085473545 0.11379693 0.08438113 -0.11748884
0003d0 5c 86 46 be f3 19 e9 bd 86 bf 94 bd 08 28 3b be
       -0.19387192 -0.113819025 -0.07263093 -0.1827699
0003e0 2c 0c ae 3d 8a d2 48 3e bd bc de bd 9d ad 93 3d
       0.08498415 0.19611564 -0.10875843 0.072108485
0003f0 e5 5e 8e 3c b0 b3 3b 3e 9a 7d 70 bc 48 c7 41 be
       0.017379234 0.18330264 -0.014678383 -0.18923676

net.0.bias f4 [256]
000000 0c d2 9a bd 79 d8 dc bc f0 1f ed bd 70 76 56 bc
       -0.075595945 -0.026958691 -0.11578357 -0.013089761
000010 0c ad 44 be 56 13 30 be c8 ea 92 bd d2 eb 25 bd
       -0.19206637 -0.17194876 -0.07173687 -0.0405081
000020 30 51 34 3d 86 f9 dd bd 6d 3b f6 bd f2 0c b0 bc
       0.04402274 -0.108386084 -0.12023053 -0.021490548
000030 70 db 34 3e 79 8a ad 3c 4d 75 20 3e 25 35 3a be
       0.17661834 0.021184193 0.15669747 -0.18184336
000040 88 5f b9 bc cc b9 8c 3d 76 8e 58 bc 23 62 36 bc
       -0.02262856 0.068713754 -0.013217559 -0.011131796
000050 6b 6a 50 3e 67 46 17 3e f5 9b 44 3e 27 88 0c be
       0.20353095 0.1477295 0.19200118 -0.13723813
000060 6e 21 d6 bd 1c b4 4d 3c fa 65 2f bd 13 39 c0 bd
       -0.10455595 0.012555148 -0.04282186 -0.09385886
000070 59 97 50 3e 67 58 03 be ae 32 35 be 35 ea 4b be
       0.20370235 -0.12826692 -0.17695114 -0.19913562
000080 42 49 1d be ed d3 b4 bc 38 73 b8 3d 82 7a f5 bd
       -0.15359977 -0.02207371 0.09006351 -0.11986257
000090 11 9e 14 3e 69 6b a1 bd 5d 9b 1b bd 09 03 fd bd
       0.14513423 -0.07881815 -0.037989963 -0.123540945
0000a0 b1 19 86 bd b2 5e 71 3b 2d 6d 27 be e2 12 a8 3b
       -0.06547869 0.0036830124 -0.16350241 0.005129204
0000b0 7b bb f0 bd 28 6c 7f bd 28 28 ef 3c 90 07 30 3e
       -0.11754509 -0.062359005 0.029193953 0.17190385
0000c0 7f e5 1c be 68 7c 17 3d 79 53 97 bd cc 9a ce bc
       -0.15321921 0.036983877 -0.07388968 -0.025220297
0000d0 76 37 cf 3d f5 ac 30 bd 2e b1 bb bd 90 a4 90 3d
       0.10118 -0.043133695 -0.09164654 0.07062638
0000e0 cf b9 c3 bd ee f3 3a be 5d bd 15 3e 59 e2 a0 3d
       -0.095569246 -0.18257114 0.14623018 0.078556724
0000f0 c3 81 0c 3e c8 b1 1c 3e 12 5a 85 3d 22 dc 19 3e
       0.13721375 0.15302193 0.0651132 0.1502538
000100 52 25 ac bd 7d af fd 3c 88 ee 8d bd 27 17 12 3e
       -0.08405556 0.030967468 -0.06930262 0.14266644
000110 2e 6f 1e be ce b5 b9 bd 06 94 f4 3d c1 cd 16 3e
       -0.15472099 -0.090678796 0.11942296 0.14726926
000120 03 35 93 3d e8 83 a8 bd 8a 67 74 3c 93 79 5b bd
       0.071878456 -0.08228284 0.014917264 -0.05358274
000130 d8 22 87 bc 83 fb c5 3c 16 85 4f be a2 95 95 bd
       -0.016496107 0.024167782 -0.20265612 -0.07303931
000140 e2 fd ba bd 59 dd 86 bd ab c5 1d be 6c 38 28 be
       -0.091304556 -0.065851875 -0.15407436 -0.16427773
000150 2f e5 26 be 15 28 32 3e ae 01 3b be ca 87 2e 3e
       -0.16298364 0.17398103 -0.1826236 0.17043987
000160 ef a1 58 3d 85 0b 0b 3c 9d 61 6d bd c0 65 dc bd
       0.052888807 0.008486633 -0.05795442 -0.10761595
000170 99 b4 52 bd 67 87 fb bd 2a 97 25 be e6 05 18 3e
       -0.051441763 -0.12281685 -0.16170946 0.14846
000180 af 5a 60 bd 37 cc 82 bd 15 b8 4f be 37 36 56 3e
       -0.054773983 -0.06386607 -0.20285065 0.20919119
000190 a0 a2 e4 3d 8e 28 1e be 8d 63 18 be af 46 9e bd
       0.11163831 -0.15445158 -0.14881726 -0.077283256
0001a0 24 b7 10 be 4b 36 9f 3d 32 d7 06 3e 91 a8 b8 3d
       -0.14132363 0.077740274 0.13168028 0.090165265
0001b0 9d 5d 04 bc 47 47 84 3d 9e 71 47 bc 98 05 b1 bd
       -0.00807896 0.064589076 -0.012173085 -0.08643645
0001c0 83 e6 bc 3d ae 1c 66 3d 5f aa 24 3b ef f1 ac 3d
       0.09223654 0.056179695 0.0025125963 0.08444583
0001d0 bb 56 e5 bc 77 8c 96 3d ac 9d 22 3e 62 cc a0 3d
       -0.027995458 0.0735101 0.1588046 0.07851483
0001e0 bc fd ad bc 8d 89 48 3e b3 fe f1 3d a4 cf 8b bd
       -0.021239154 0.19583721 0.11816158 -0.06826714
0001f0 9b de b7 bd 8c 1e 84 bd fc 67 1d be 89 fb 49 3e
       -0.089780055 -0.06451139 -0.15371698 0.1972486
000200 2c a9 23 3e f2 48 bf 3d 38 f5 81 3d 52 33 3d 3e
       0.15982503 0.09340085 0.063456 0.18476608
000210 ae 71 a6 bd b6 f8 25 3d ed 7c 20 3e 64 94 9c 3d
       -0.081271514 0.040520392 0.15672655 0.07645491
000220 14 31 1e 3e 16 4d a2 3d e7 73 06 be 3f 54 54 be
       0.1544841 0.07924859 -0.1313015 -0.20735262
000230 ec 7f 63 3d 24 a8 16 be 5c 8d 33 3d cd ee 33 3e
       0.055541918 -0.14712578 0.043835983 0.17571564
000240 ef 34 1c 3e 34 08 10 bd 90 e1 d9 bc 8b 49 f1 3d
       0.15254568 -0.035164073 -0.026596814 0.11781605
000250 b0 4c 44 be c8 0a 90 3d 74 f1 00 bd ce 75 07 3e
       -0.19169879 0.07033306 -0.031480268 0.13228533
000260 6b ed 55 be 6f 30 59 bc cb 52 c3 3a 37 21 24 be
       -0.20891349 -0.013256176 0.0014901994 -0.16028295
000270 e5 2f d6 3d 39 81 14 3e ae bc 92 3c ea eb b2 39
       0.10458354 0.1450242 0.017912235 0.00034126575
000280 5f cf 22 be 0a 9b 88 bd 5a 90 04 be aa 6c 1f 3d
       -0.15899418 -0.06670196 -0.12945691 0.03892199
000290 64 e9 68 bd 6c 00 0d be 78 f0 01 bd ef 75 0f 3e
       -0.056863204 -0.13769692 -0.03172347 0.14009832
0002a0 3e 1d 3b 3c c2 4c e9 bd 54 af 6a 3c d7 a5 47 3e
       0.011420546 -0.113915935 0.014324028 0.19496857
0002b0 99 df 96 bd 60 f0 4c bd ab 7e 92 3d f7 14 51 3e
       -0.073668666 -0.050033927 0.07153066 0.20418154
0002c0 b2 25 f3 3d fa 9c 57 3e 9f 09 c0 bd c3 c5 55 3d
       0.11872424 0.21055976 -0.09376835 0.052190553
0002d0 2d 41 65 3d 01 78 6e bc 1a 4a 1e bd 80 b5 55 3e
       0.05597036 -0.014554978 -0.038644888 0.20870018
0002e0 88 ad a7 3c 9c cd 28 bd a3 41 ed bd a7 86 51 be
       0.020468488 -0.04121171 -0.11584785 -0.20461522
0002f0 fc 5f 1c be 64 78 53 be 52 b4 1a 3e 3e a2 45 3c
       -0.1527099 -0.20651394 0.15107849 0.012062607
000300 39 e7 dc 3c bb d2 db 38 01 61 19 3d c8 b5 f2 bd
       0.026965724 0.000104819854 0.037446026 -0.11851078
000310 3c b1 a9 bd fe 16 ff bc c4 85 42 be 9e 25 27 3e
       -0.08285758 -0.031138893 -0.1899634 0.16322944
000320 44 95 49 3a 0c 65 44 be 78 26 57 bd 23 1d 87 bd
       0.0007689784 -0.19179171 -0.05252692 -0.06597354
000330 44 09 3e 3e c6 ab 07 3e 5b 30 09 3e ad a5 e8 bd
       0.18558222 0.1324912 0.13397352 -0.11359725
000340 29 a5 50 3e b5 82 d9 bd 9e 9e 01 be e4 79 d7 3b
       0.20375504 -0.106206335 -0.12658164 0.00657581
000350 5c 9d d0 3d 02 0f 90 bd 80 8f a5 3c 9f b9 2b be
       0.10186264 -0.070341125 0.020210028 -0.16770028
000360 73 db 25 bd 4d 44 a3 bd 17 6c 22 3d c4 d1 7f 3c
       -0.040492486 -0.07972012 0.039653864 0.015613977
000370 c9 53 59 be d5 af 79 bd d7 18 81 bc 46 8e aa bc
       -0.21223368 -0.060958702 -0.015758915 -0.020819794
000380 9a 9a 8d bd 45 79 c6 3d f0 a4 05 3e 4a 98 2f be
       -0.069142535 0.09691099 0.130512 -0.17147937
000390 32 7f 25 3c 37 66 25 3d d6 ff 1e 3e b1 3b 2c 3e
       0.0101011265 0.040380683 0.15527281 0.16819645
0003a0 42 bf 95 3d da d1 1d 3d 2d 20 54 bd e1 1b 6c bd
       0.0731187 0.03853021 -0.051788498 -0.057643775
0003b0 b3 fc 32 be 24 8f 49 be 25 4e ee bb e7 d0 c7 bd
       -0.1747921 -0.1968351 -0.007272499 -0.09756642
0003c0 e0 30 55 3e 64 59 4d 3e 23 ef bd bd 85 e5 36 be
       0.20819426 0.20053631 -0.09274127 -0.17860992
0003d0 86 02 0d 3e 9a ca 43 be be 2d c8 bb 9f 31 02 3e
       0.13770494 -0.19120255 -0.0061089685 0.12714241
0003e0 07 70 d1 bd 15 e0 4d 3e 93 65 26 3e d7 a6 ba 3d
       -0.10226446 0.20105012 0.16249685 0.091138534
0003f0 d8 75 4b be 88 d0 eb bd dd 2b 37 3d d2 4b 24 bd
       -0.19869173 -0.115143836 0.044719566 -0.04011137

net.2.weight f4 [256, 256]
000000 90 a6 5d bd 62 87 6e bd bc df b5 3c aa 56 10 bd
       -0.054113925 -0.05823458 0.022201411 -0.0352389
000010 64 11 63 bd 56 a8 74 bd 5f ac ae bc 57 27 a4 bb
       -0.055436507 -0.05973085 -0.021322427 -0.0050095725
000020 43 f8 9e 3c fc d0 73 3d 3c 9a 54 bd fb 1b 6c bd
       0.01940549 0.059525475 -0.0519049 -0.05764387
000030 f3 e4 46 3d 44 7e 6f ba 80 0f bd 3b af 70 74 3d
       0.048558187 -0.00091359415 0.00576967 0.059677776
000040 ba ac d3 3b 3e 80 77 3d 04 1b 0b bc bd a5 3a bd
       0.0064597996 0.060425036 -0.008490328 -0.045568217
000050 4d 58 ed bc f2 53 83 3c 33 6f c4 bc 74 9d 3b bd
       -0.02897277 0.01603124 -0.023978805 -0.045804456
000060 03 89 fc 3c 50 0b 20 bd a3 21 a7 3c d8 9a d7 3c
       0.030827051 -0.03907329 0.020401781 0.026318952
000070 5b 51 03 bd 12 98 a1 bb 38 a7 ae 3c 28 26 05 3c
       -0.03206001 -0.0049314583 0.02131997 0.008126773
000080 8f f9 79 3d e0 eb 4a bd a2 ad 8e 3b 40 db 73 3d
       0.061029013 -0.049541354 0.0043541947 0.059535265
000090 64 49 df bc 8d a9 51 bc bc 7a 71 bc d5 95 39 bd
       -0.027256675 -0.012796772 -0.014738735 -0.045308907
0000a0 04 08 4a 3d ee 28 4e 3d c0 95 86 bc 54 49 8e 3b
       0.04932405 0.050332002 -0.016428828 0.0043422375
0000b0 dd e0 99 3a 7c ec b8 3c 07 d6 42 bb ea d8 12 3c
       0.0011739988 0.022573702 -0.002972962 0.008962849
0000c0 cb 38 0b bd 66 16 22 bc d2 b3 67 3d 5a f5 15 3d
       -0.03398971 -0.0098930355 0.056567974 0.03661094
0000d0 99 4d b7 bc df 01 34 3c ae c7 69 bd e4 8b 84 bc
       -0.022375869 0.010986774 -0.057075195 -0.016179986
0000e0 f3 e1 7d 3d d1 4a a4 3c eb 0d b1 bc 55 d9 b5 bc
       0.06198306 0.020055206 -0.021613082 -0.022198359
0000f0 48 55 47 bd 14 3e 5b bd 5b 3a 09 ba ea f4 0d bd
       -0.048665315 -0.053526 -0.0005234831 -0.034657396
000100 84 10 43 3d 5b 56 b5 bb 72 a2 f6 3c 00 2a a8 bc
       0.047623172 -0.005533976 0.030106757 -0.02052784
000110 e0 18 90 3c 50 c1 54 3d 16 83 93 3c 41 aa 25 3d
       0.017589986 0.05194217 0.018006843 0.04044557
000120 60 a8 b3 bb d0 ab 07 bc 19 0a 51 bd b6 2a b6 bc
       -0.0054827183 -0.008280709 -0.05103502 -0.022237163
000130 b9 60 84 3d 04 c3 75 3d 22 bc 4c 3d 03 fd 46 bd
       0.06463761 0.060000435 0.049984105 -0.048581135
000140 36 c7 c1 bc 55 da d9 bc 3c 81 6a 3d e2 06 13 bd
       -0.023654561 -0.026593367 0.057252154 -0.035895236
000150 8f d1 13 bc b1 3a 7e 3d b4 56 4b bd d4 d1 69 bd
       -0.009022131 0.06206769 -0.049643233 -0.057084873
000160 19 06 9b bc 53 f5 6e bd 82 e2 a3 bc d4 34 15 bd
       -0.018923806 -0.05833943 -0.020005468 -0.036427334
000170 06 0d 57 3d 65 0a 58 3d e8 b5 45 3c 02 83 8e 3b
       0.052502654 0.052744288 0.012067296 0.0043491134
000180 97 d7 0c bd ab 04 7a 3d 1f 5f 7e 3d cd 62 ce bb
       -0.03438529 0.061039608 0.062102433 -0.006298399
000190 81 c1 c3 3c 92 11 5e 3c 8a e6 30 3d d5 65 69 3d
       0.02389598 0.013553994 0.04318861 0.05698188
0001a0 b8 ac fe 3c 2c 9b 9f 3c 15 fb f4 3c 38 25 3e 3d
       0.031088218 0.019483171 0.029904881 0.046422213
0001b0 bb 18 c3 3c 2e 3b ca bb 18 3f 2f bd 30 ae 02 bd
       0.023815503 -0.0061716055 -0.04278478 -0.0319044
0001c0 8a 76 57 bd 68 51 f9 3c a3 66 ed 3c 75 58 a8 3c
       -0.052603282 0.030434325 0.028979605 0.020549992
0001d0 31 d4 e2 bc 0c 7c 70 bd 20 f2 44 bd f1 74 e9 bc
       -0.027689071 -0.05871205 -0.04808247 -0.028498145
0001e0 67 db 83 3d 9a ca 2f bd 86 8c e2 3c aa 1d 4f 3d
       0.06438332 -0.042917825 0.027654897 0.0505654
0001f0 d3 c2 c8 3c f8 82 59 3c 10 94 47 bc ab 5f 07 bd
       0.024506962 0.013275854 -0.012181297 -0.03305022
000200 1c 02 db bc 89 90 9f 3c 61 c6 33 bd 4f e6 ee bc
       -0.026734404 0.0194781 -0.04389036 -0.029162554
000210 06 19 30 3d 76 e5 df 3b 0d 26 52 bd 82 52 af bb
       0.042992614 0.006832774 -0.05130582 -0.005350412
000220 08 06 59 3d 7e b3 7c 3d a7 73 2a bd 29 9d b2 3a
       0.052984267 0.061694615 -0.0416142 0.001362716
000230 00 c3 dd bc de ad 07 3d af 1d 21 3d e8 3e 43 3d
       -0.027070522 0.033124797 0.03933495 0.047667414
000240 ab 9c 5d 3d a1 ac 39 bd 8c 66 82 3c 04 6e 74 bd
       0.05410449 -0.045330647 0.015918039 -0.05967523
000250 e3 49 3f 3d 10 5f 81 3a 07 4b 6b bd 4b 11 46 bd
       0.046701323 0.000987025 -0.0574446 -0.048356336
000260 79 f3 5a 3d 6e f7 20 bd b7 b4 7d 3d df da 4a bc
       0.05345485 -0.039298467 0.06193992 -0.0123812845
000270 e3 d0 20 bd 6c bd 36 3d 2c c5 47 3d 0c 71 18 bd
       -0.03926171 0.04461424 0.048772022 -0.037217185
000280 c8 47 52 bd 14 e2 0d bd 42 da 65 bd 21 cd dd bb
       -0.051337987 -0.034639433 -0.05611635 -0.006768838
000290 28 79 7a bc cb eb da bc dd e0 28 3d 80 19 c9 bb
       -0.015287675 -0.026723763 0.04123007 -0.006137073
0002a0 ca c9 83 3d 3b e2 30 3d bf 6f 11 3d 57 2f 5f 3d
       0.064349726 0.0431845 0.03550696 0.054488506
0002b0 84 e9 68 bc 02 30 4b 3d d7 17 3b 3d ac 71 9e 3c
       -0.014215831 0.04960633 0.045677032 0.019341312
0002c0 8b 5f 52 3d 81 22 68 bc 39 0e e0 bc f0 91 b6 3c
       0.051360648 -0.014168383 -0.027350532 0.022286385
0002d0 e2 a6 20 3d 8d d5 98 bb 55 bb 4c bd e1 dc 37 3d
       0.03922165 -0.004664129 -0.04998334 0.04488838
0002e0 ca 47 6b 3d 2b c5 e6 3c 48 37 38 3d 26 d6 6a bd
       0.05744151 0.028170189 0.044974595 -0.057333134
0002f0 ac 71 e8 3a 8c fd 2f bd a1 90 1a 3d 8b a6 28 bd
       0.0017734072 -0.04296641 0.037735585 -0.041174453
000300 b6 0d 52 bd dc c0 e7 bc c0 0f 0e bd 02 b2 20 3d
       -0.051282607 -0.028290205 -0.03468299 0.03923226
000310 f4 7c 08 bc 6b e5 66 bd c9 f3 f2 b9 29 3f 83 3d
       -0.008330572 -0.056371134 -0.0004633947 0.06408531
000320 dd 11 44 3d 00 be 58 b9 71 80 ed 3b 72 e6 4f 3d
       0.0478686 -0.00020670146 0.0072479774 0.05075688
000330 52 14 69 3d 91 39 dd bc 33 0f 4e bd c4 1f 6b 3d
       0.056904145 -0.027004989 -0.050307464 0.05740334
000340 a4 96 66 bd a6 90 92 bb fb 92 2e 3d 17 bb 0d 3d
       -0.056296006 -0.00447281 0.04262064 0.03460225
000350 14 64 9e bc 63 f3 10 3d f8 e2 98 bb 04 31 45 bd
       -0.01933483 0.03538836 -0.0046657287 -0.048142448
000360 fc 81 ce bc e9 cc 07 3d 54 6f 96 bc e5 01 82 bc
       -0.025208466 0.033154402 -0.018363632 -0.015870044
000370 c8 49 23 bc 27 64 25 bd b3 ee c5 3c 92 e0 17 3d
       -0.009966321 -0.040378716 0.024161672 0.0370794
000380 01 59 a9 3c ea 5b 3c 3d c8 3d ef bc 37 49 26 bd
       0.020672323 0.045986094 -0.029204264 -0.040597167
000390 45 79 36 bd 06 0c 3d 3d df c6 19 3d e8 71 63 3d
       -0.044549245 0.046154045 0.037543174 0.05552855
0003a0 7d d6 8a 3c da 60 06 3d 23 7a 28 3d 5c eb d0 3b
       0.01694798 0.03280721 0.041132104 0.0063757133
0003b0 40 8c 9c ba 66 61 03 3d c5 0b a8 3b 0b 13 e0 3c
       -0.0011943653 0.03207531 0.005128356 0.02735283
0003c0 4a 25 51 3d bf 40 c4 ba 05 33 1f bd 60 0d ba 3c
       0.051060952 -0.0014972909 -0.038867015 0.022711456
0003d0 ba 71 47 bd ee 75 cf 3c 4e af 51 bd e2 a7 60 3d
       -0.048692442 0.025324788 -0.051192574 0.054847606
0003e0 3d e3 39 bd 83 39 63 3d 29 c8 11 bd d1 d9 13 3d
       -0.045382727 0.05547477 -0.03559128 0.036096398
0003f0 67 7f 82 3d 1c ea 4c 3d f3 dd 18 bd e7 60 0e 3c
       0.06371956 0.05002795 -0.037321042 0.0086900955

net.2.bias f4 [256]
000000 23 98 74 3d 05 7b 45 3c 3a c4 5a bd 3c fe 59 3d
       0.0597154 0.012053256 -0.053409792 0.053220972
000010 8f af 5f 3d 80 69 00 bd 4b 63 4c bd 51 a6 47 bd
       0.054610785 -0.031350613 -0.04989938 -0.048742596
000020 e9 6d 46 3d 7f bf 4d bc ac b4 53 bd ff 10 5f 3d
       0.048444662 -0.012557863 -0.051685974 0.054459568
000030 68 13 f7 3c b4 d0 26 3d 4e f3 88 3c 74 29 83 bc
       0.03016062 0.04072638 0.01671758 -0.016010977
000040 ef f8 79 bb 64 e8 54 bd 5f 9a 46 bb 3a 0b bf 3c
       -0.003814276 -0.051979437 -0.0030304415 0.023320783
000050 d8 ce d4 bc 3b 4d 77 3d 17 2e f3 bc c4 82 52 bd
       -0.025977537 0.060376387 -0.029685063 -0.05139424
000060 ab 2a 7f 3c 2d 6b 19 bd b7 7b ec 3c 82 5e 62 bd
       0.015574138 -0.037455726 0.028867586 -0.05526591
000070 89 94 1b 3d 2e bd 43 bd d8 a6 5e 3d ce 07 3c 3d
       0.03798345 -0.047787838 0.054358333 0.04590588
000080 68 dd 72 bd 6c 1a 5c 3d a3 cb 11 bb dd 6e d5 3c
       -0.05929318 0.053736135 -0.002224662 0.02605384
000090 3d 24 a0 bc f8 96 6e bd 1e 2f 47 3d 72 0e 79 bd
       -0.01954853 -0.058249444 0.04862892 -0.06080479
0000a0 f6 e7 30 3d 40 ea 73 3c 5e 6a 75 3d 01 19 47 bd
       0.043189965 0.0148873925 0.059915893 -0.04860783
0000b0 35 21 6a 3d 40 07 09 3d 34 68 f5 3c 23 50 fa bc
       0.057160575 0.03345418 0.029956914 -0.03055579
0000c0 1b bc 05 3b 2b ce d9 3c 17 d3 ea 3c d8 68 25 3c
       0.002040631 0.026587566 0.028665109 0.0100957975
0000d0 5a ad f0 3c 70 da bf bc a4 8c c2 3b be 3c 70 bd
       0.029379535 -0.023419589 0.005937176 -0.05865168
0000e0 26 92 89 3d de 86 3c bd e9 d0 c4 3c 8d 27 5d bd
       0.06717329 -0.046027057 0.024025397 -0.053992797
0000f0 36 e9 ad bb 28 3e 0b bb fe 2f 04 3c b9 5a ee 3b
       -0.005307342 -0.0021246765 0.008068083 0.0072739986
000100 24 e8 54 3d 73 26 b9 bc 96 2c 64 bd ef d3 a0 3c
       0.0519792 -0.022601342 -0.055706583 0.019632308
000110 ac 4b 67 bd 8f 10 6f 3b 16 ec 82 3d 8c 46 73 3d
       -0.05646865 0.0036478376 0.06392686 0.05939345
000120 f3 57 9c 3b c5 1b 19 3d 19 50 1b bd 34 5b 23 bc
       0.0047712266 0.03738 -0.037918184 -0.009970475
000130 48 97 72 3c 0f fd b7 bc 93 5c b5 bb b3 62 31 3d
       0.014806576 -0.022459535 -0.0055347173 0.043307018
000140 e4 ea 44 bd 6a fe a6 3c 56 05 2c 3c 84 a3 37 3d
       -0.04807557 0.020384986 0.010499319 0.044833675
000150 ab 89 52 bc cd 3a 9c bc 0c 29 29 3d c0 a0 1a 3b
       -0.012850205 -0.019071007 0.04129891 0.002359435
000160 25 32 19 bd ec fe 15 bd 0b f4 df bb ef 68 46 3c
       -0.037401337 -0.036620066 -0.006834512 0.012109979
000170 ae 8d 91 3c d0 3b ca bc 52 cd 80 3c 5a 51 5f bd
       0.017767753 -0.024686724 0.015722904 -0.054520942
000180 c7 65 4f bd 5e ef 06 bd 6a 19 6e 3d 40 74 b6 3c
       -0.05063417 -0.032943122 0.058129705 0.02227223
000190 5c 9e f5 bb 74 10 77 bd df 0a d3 bc 2d 08 f4 3c
       -0.0074956845 -0.060318425 -0.02576202 0.029789055
0001a0 38 2e e6 bc 4c 44 08 3d b0 7f 38 3c ba 30 49 bb
       -0.02809821 0.033268258 0.011260912 -0.003069921
0001b0 de ea b2 bc d8 1f 2b bd 21 03 10 3d 41 4e 66 3d
       -0.021840509 -0.041778415 0.035159234 0.056226972
0001c0 1a ff 5d bd 50 97 fb bb 25 35 0c bd 7d 06 80 3d
       -0.054198362 -0.00767795 -0.03423037 0.062512375
0001d0 3f da 2c bd 3c ed 18 bd 98 8a 52 3d b4 3a 59 3d
       -0.042200323 -0.03733562 0.051401705 0.0530345
0001e0 7c 06 2b bc 37 89 bd 3b 37 57 4c bd 62 97 88 bc
       -0.010438558 0.0057841795 -0.049887862 -0.016673747
0001f0 74 d1 e2 bc e8 92 2f 3c 01 6f d5 bc e8 6f 06 3d
       -0.027687766 0.0107161775 -0.026053907 0.032821566
000200 58 a9 2f 3d d0 37 a1 bc 92 e3 3b bb 69 93 7b 3d
       0.04288611 -0.019679934 -0.0028669578 0.06141988
000210 9e 53 77 3b 68 00 57 bc e9 47 43 3d 89 80 39 bc
       0.0037739049 -0.013122655 0.047676 -0.011322149
000220 27 89 6f 3d 9a 72 6c 3c 7e 6a 1f bd 98 74 f1 3b
       0.058480408 0.01443162 -0.03891992 0.0073686354
000230 21 18 0d 3d 58 e6 f5 bc 36 b9 10 3d 76 3f c8 3b
       0.03444684 -0.030017063 0.03533288 0.0061110808
000240 e8 49 21 3d 55 6c e3 3c 7b 47 39 bb 3e cb 82 3c
       0.039377123 0.027761618 -0.0028271365 0.015966054
000250 90 25 0b bc e0 50 4f 3d bd a1 3e bb 5f ea 1c 3d
       -0.008492842 0.050614238 -0.0029088103 0.03830945
000260 0f af c5 bc 52 b9 50 3d f2 c8 ef 3c 79 e4 10 bd
       -0.024131326 0.050957985 0.029270623 -0.03537414
000270 94 da 53 3d ab ff a2 3c 81 b4 91 bc 8d 98 f4 bc
       0.051722124 0.019897303 -0.017786266 -0.029857898
000280 00 53 b4 bc db e8 51 3d 58 e7 8a bc f4 8e 1b 3b
       -0.022012234 0.05124746 -0.016956016 0.002373633
000290 b8 a4 a4 3c 19 f3 22 3d 00 3d e7 bc b4 f3 f0 3c
       0.020098075 0.039782617 -0.02822733 0.029413082
0002a0 94 18 41 bd e8 69 3c bc e6 7a b4 3c f0 33 a1 3c
       -0.04714258 -0.011499859 0.022031259 0.019678086
0002b0 cc a0 90 bc 8c 2a 22 bd 47 02 48 3d 55 84 1d bd
       -0.017654799 -0.039591357 0.048830297 -0.03845628
0002c0 a5 1a 79 3b df 1f 7b bd 0a ea 24 3c dd 5e 23 3c
       0.0038010266 -0.06130969 0.010065565 0.009971348
0002d0 fb 0e 27 bd e0 73 38 bd 5d 61 f8 bc ba b8 8b bc
       -0.04078577 -0.045032382 -0.030319864 -0.017055858
0002e0 9a db 82 3c d8 5f 52 bc be 65 e0 3c e0 8b 66 bd
       0.015973855 -0.012840234 0.027392264 -0.05628574
0002f0 d6 56 2a bd e5 e1 1e 3d c5 4b 24 3c b0 95 8d bc
       -0.04158672 0.03878965 0.0100278305 -0.01728329
000300 2b 55 34 bd 61 ed d0 3c b7 d3 4c bd 00 4b 1e bd
       -0.044026535 0.025503816 -0.050006595 -0.038645744
000310 12 08 02 bd 8b 14 31 bd 61 c8 47 bd 36 3f 1b 3c
       -0.031745978 -0.043232482 -0.04877508 0.00947552
000320 04 d7 b5 bc be 01 5b 3d 65 ad 06 bd e3 b3 c3 3c
       -0.022197254 0.05346846 -0.032880206 0.023889488
000330 42 4b 80 bd 4c d9 d8 bc bd c2 96 3c 69 f1 09 bc
       -0.06264354 -0.026470803 0.018403405 -0.008419373
000340 ff 52 c4 3c 54 7c 3d 3d 63 67 20 3d 21 64 98 bb
       0.023965357 0.046261147 0.039161097 -0.004650608
000350 76 e2 69 bd 32 90 1d bd b0 7e 69 bd fc 83 08 3d
       -0.057100736 -0.038467593 -0.057005584 0.033328995
000360 aa 92 4a 3c 7c de 0c 3d 93 5d 52 3d 82 26 7a bd
       0.012364069 0.034391865 0.05135877 -0.06107188
000370 6d c5 5c bd 1d c0 84 bc 86 bd 5c 3d eb 63 77 3d
       -0.053899217 -0.016204888 0.05389168 0.060398024
000380 49 2e b3 3b f1 b3 c1 bb 70 ed 84 3c 76 e6 2b 3d
       0.005468164 -0.0059113433 0.0162265 0.04196783
000390 ba a0 fe 3c 9d fd 3a 3b b0 a3 c7 bb 8f b9 e8 3c
       0.0310825 0.0028532513 -0.006092511 0.028408794
0003a0 66 67 fa 3c 61 9b e3 3c 9d f8 47 3d 12 f2 c5 bb
       0.030566882 0.027784051 0.04882108 -0.00604082
0003b0 3d 15 f4 bc 36 58 e9 3c 42 02 c4 bc 86 4c b8 bc
       -0.029795283 0.028484445 -0.023926858 -0.022497427
0003c0 d5 3e 6c 3d d0 39 23 3d 0c 7b 74 bb 54 f6 b5 3c
       0.05767711 0.039850056 -0.0037304787 0.022212185
0003d0 e7 2b 38 bd ba a8 5a bd 4c 79 15 bd af 0b 3c ba
       -0.044963744 -0.053383566 -0.03649263 -0.0007173372
0003e0 ec 43 65 3d 2b a1 f9 bc 30 bc 56 bd b5 ef be 39
       0.05597298 -0.030472359 -0.052425563 0.0003641822
0003f0 7f ac c1 3b 9a 42 c8 bc 7a 91 64 bd b7 f0 77 bc
       0.0059104557 -0.02444582 -0.0558028 -0.0151330745

net.4.weight f4 [4, 256]
000000 b1 27 e9 3c 62 7a 13 3c 4e 76 09 bd 66 1c 7b 3d
       0.02846131 0.009001346 -0.03356009 0.06130638
000010 13 52 ab bc 06 8d c2 3b ef bd 08 bc 40 af cb 3b
       -0.02091316 0.0059372215 -0.008346065 0.00621596
000020 db 05 4d 3d 2a 2a c1 3c 3e 11 d2 3c 36 fa 68 bd
       0.050054412 0.023579676 0.025642987 -0.056879245
000030 85 82 39 bd ba 78 a3 3c 30 b7 f0 3b fa 06 7f 3d
       -0.04529049 0.019955028 0.0073460564 0.062262513
000040 fc 17 38 3d b2 53 79 bd d9 fa f3 3c 44 7c db bc
       0.04494475 -0.060870834 0.0297827 -0.026792653
000050 d0 61 9c bc d9 66 7a 3c a0 10 c9 bc ac c3 37 3d
       -0.01908961 0.01528331 -0.02454406 0.04486434
000060 f6 9c 1d 3d 26 27 67 3d 38 20 75 3c 66 22 70 3d
       0.038479768 0.05643382 0.014961295 0.058626555
000070 8b 55 27 bd 5c 07 da 3c 1d 6c 0e bd 9b 1b 63 3b
       -0.040853065 0.026614837 -0.034771074 0.0034653905
000080 14 8c 3a 3d 9f f9 57 bd a8 e6 02 bd 92 c2 3d 3d
       0.045543745 -0.05272829 -0.031958252 0.046328135
000090 94 09 3b 3d 4e 35 d0 3c 1a 91 fc 3c 70 cc 21 3d
       0.04566343 0.025416043 0.030830909 0.039501607
0000a0 e0 fa 69 bc 00 96 af ba f8 8a 91 3c 51 dd ff bc
       -0.014281005 -0.0013396144 0.01776646 -0.031233462
0000b0 7c bd 62 3d 0e 6e f3 bc 56 18 4f 3d c4 fb d8 3c
       0.055356488 -0.029715564 0.050560318 0.026487239
0000c0 06 8e 14 bc 25 2a 6d 3d e4 59 58 3a 64 60 11 3d
       -0.009067064 0.05790152 0.0008253141 0.035492316
0000d0 ce 15 7f 3d 16 89 14 3d 63 33 cb bc f4 80 a6 3a
       0.062276654 0.036263548 -0.024804777 0.0012703226
0000e0 b4 74 14 3d ba 42 62 3d d1 bb e2 3c fc 6e 7c bc
       0.03624411 0.055239417 0.027677448 -0.01540732
0000f0 e5 44 a5 bc e8 76 58 3d 20 e4 26 3b f6 48 45 bd
       -0.020174453 0.052847773 0.0025465563 -0.048165284
000100 6c fe 76 bd d5 40 9d 3c 85 d5 38 bd cd a1 f3 bc
       -0.06030123 0.019195953 -0.045125503 -0.029740239
000110 c5 98 a6 3b 82 09 7d 3c b1 46 01 bc 8f 9d 35 3b
       0.0050841295 0.015444161 -0.007890389 0.002771232
000120 13 4d f3 3c e1 84 2a bd f2 c3 a5 bb 82 a6 46 bc
       0.029699838 -0.04163063 -0.005058759 -0.0121246595
000130 ba 41 31 bd 9b cd df bb 85 92 23 3d 35 0d 12 3d
       -0.043275572 -0.00682993 0.039934654 0.035657126
000140 d4 91 0c 3d c1 8b ef 3b b5 80 07 bd ce e7 98 3c
       0.03431876 0.007310361 -0.03308173 0.01866522
000150 fa b8 5e 3b f6 46 3f bd e8 f1 79 3d 80 53 60 bb
       0.0033984766 -0.046698533 0.061021715 -0.0034229457
000160 94 d6 35 3d 18 63 a9 3c ba 4f 07 3b 10 76 32 3d
       0.04439409 0.020677134 0.0020646886 0.043569624
000170 58 be 25 3d 18 3a 10 3c 22 14 98 3c 88 d5 5b bc
       0.04046473 0.008802913 0.018564288 -0.013417609
000180 13 45 79 bd d3 bd 36 3b 23 a5 b3 3c 60 2b cc 3c
       -0.06085689 0.002788414 0.02192933 0.024923027
000190 65 fe 53 bd e5 cd d7 bc f4 32 46 bd 7c 0a 63 3d
       -0.05175628 -0.026343295 -0.048388436 0.05542992
0001a0 5c 99 0c bd 5e 13 96 3c 50 04 c3 bc 26 c8 41 bd
       -0.034325942 0.018319782 -0.023805767 -0.047310017
0001b0 40 78 09 bd 5c 9a 0b 3d 41 57 0f bd 4e a5 3a 3d
       -0.033561945 0.034082755 -0.03499532 0.045567803
0001c0 e8 13 57 bc 8c 43 2f 3d b2 57 7b bd 1f 9a e8 3b
       -0.013127305 0.042789027 -0.06136293 0.007098451
0001d0 b1 ca bb bc 88 a3 24 bc e9 2b e2 bc 9c bc cb 3c
       -0.0229238 -0.0100487545 -0.027608829 0.02487021
0001e0 09 8f 1a 3c 04 4e 3e 3d de 9b a3 b9 42 22 6b bd
       0.009433516 0.04646112 -0.00031205913 -0.057405718
0001f0 b5 d5 e3 bc 8e ce fd bb 0c 13 48 bd de ea 98 bc
       -0.027811864 -0.0077455705 -0.04884629 -0.01866668
000200 3e 59 28 bd 40 59 20 3d be 86 b8 bc 96 f6 0d 3d
       -0.041100733 0.039147615 -0.022525188 0.03465899
000210 5d aa 64 3d 44 d7 81 3b e2 aa 0e bd 63 78 81 3b
       0.055826534 0.0039624292 -0.034830935 0.003951119
000220 0c 55 b4 3c 1b 43 33 bd 40 0a 2a bb 54 dd b8 bc
       0.02201321 -0.04376517 -0.002594605 -0.022566475
000230 e5 1d 0c bd 53 d4 52 bc b7 9b da 3c 3c 53 71 3d
       -0.034208197 -0.012868005 0.026685579 0.05891727
000240 d7 11 24 3b 83 26 a7 bc db bf d4 3c 6e ff 23 bd
       0.0025035047 -0.020404106 0.02597039 -0.04003852
000250 80 9b 98 ba 02 08 cf ba 36 71 47 3d 36 8c 64 3d
       -0.0011643022 -0.0015795233 0.04869195 0.055797778
000260 a8 59 29 bd 46 b4 e0 bc 5d e9 99 bc 4d 44 8e 3a
       -0.04134527 -0.027429711 -0.018788034 0.0010854095
000270 77 a7 4f bc 34 64 33 bc 8b ec 49 3d dd 52 5d 3d
       -0.012674204 -0.010949183 0.04929785 0.054034103
000280 28 15 7f bd 3d e7 d0 3c c6 35 07 bd 48 05 ef bb
       -0.062276036 0.025500888 -0.033010267 -0.0072943307
000290 51 15 45 3d fb f1 bf 3c e0 53 22 3d 06 be 86 3c
       0.048116032 0.023430815 0.03963077 0.016448032
0002a0 dc 2d af 3c d6 f4 97 bc 14 76 4f 3d c1 60 9f bc
       0.021384172 -0.018549364 0.050649717 -0.019455316
0002b0 a4 87 ba bc 2d 12 6c bd 68 28 99 3b aa 18 49 ba
       -0.022769757 -0.05763452 0.0046740063 -0.0007671217
0002c0 0a d7 12 3d d7 ea ca bc c9 72 97 3b cf 3a 85 bc
       0.03584961 -0.024770183 0.0046218378 -0.016263394
0002d0 70 f0 90 bc 18 30 69 bd 36 f5 50 bd 98 6b 68 3c
       -0.017692775 -0.05693063 -0.0510151 0.014185809
0002e0 72 3e 17 bd f0 74 57 3c 60 e5 04 bc de 6d 67 3d
       -0.036924787 0.013150439 -0.008111328 0.056501262
0002f0 f8 db 5f 3d 95 f9 d9 ba 2b eb af 3c a0 c7 ef 3b
       0.054653138 -0.0016630167 0.021474442 0.0073174983
000300 94 53 eb 3c 86 5e db 3c 5c ea bf 3c 44 a8 86 3c
       0.028726377 0.02677847 0.023427181 0.016437657
000310 f1 fd 16 3b 4c eb c3 bc a2 63 1b 3d 5e 23 4f bd
       0.0023039544 -0.02391591 0.037936814 -0.05057084
000320 50 1c 08 3c c3 60 5e 3d 81 d4 6c 3d 83 e8 33 3d
       0.0083075315 0.054291498 0.057819847 0.043922912
000330 0e f0 49 3d c8 a5 01 bd 7f 0f 9f 3c 1c 75 6b bc
       0.0493012 -0.031652242 0.019416569 -0.014371183
000340 24 88 85 bc 91 fd e7 bc 83 d4 30 3d 0f 29 46 bc
       -0.016300268 -0.028319152 0.043171417 -0.01209475
000350 bc 3a aa 3c 7a e4 24 3d ae 74 5d 3d 74 12 12 3c
       0.02077996 0.040256955 0.054066353 0.008915532
000360 33 40 72 3d de 07 e7 bc 33 5e 4f bd 0b 16 21 bd
       0.059143256 -0.028201994 -0.050626945 -0.039327662
000370 5d d1 f0 bb cc e3 3c 3c a1 42 6a bd 17 60 ba 3c
       -0.007349177 0.01152892 -0.05719245 0.022750897
000380 68 40 19 bd da 90 32 bd 7b 4c ea 3a 48 7f f4 bb
       -0.03741494 -0.043595172 0.0017875576 -0.007461462
000390 be 0e 7a bc 4a 02 87 3c 12 78 63 3d 40 1b f7 3a
       -0.015262304 0.016480584 0.05553443 0.0018852726
0003a0 b3 f5 8d 3a 7c b3 23 bd 8e ac bc bc 38 9f 18 bd
       0.001083067 -0.03996609 -0.0230315 -0.037261218
0003b0 b8 1e 6d bd 03 ec 54 3c 3f 70 ac ba d1 92 00 bd
       -0.057890624 0.012995723 -0.001315601 -0.031390015
0003c0 76 58 ea bc 45 3e 34 bb 3c 55 e2 3c 71 81 17 bd
       -0.028606635 -0.0027502936 0.027628534 -0.03698868
0003d0 b0 9e ef bb 4a 99 00 3d 78 4c 5e bd 47 0b 98 3c
       -0.007312618 0.031396188 -0.054272145 0.018560065
0003e0 92 70 05 bd 38 ab 0a bc ec a3 19 3d 7e 5b 18 3d
       -0.03257806 -0.008463673 0.037509844 0.03719663
0003f0 7c 41 ff 3c 5e 5c 2c bd 38 13 30 3c 61 cf bb 3c
       0.031159155 -0.042080276 0.01074677 0.022926034

net.4.bias f4 [4]
000000 72 26 d5 bc 7b 56 9c 3c 4a 48 64 bd b4 a0 87 3d
       -0.026019309 0.019084206 -0.055733003 0.066224486
