dqn_learning/pressure/models/model_1.pth (torch, 293015 bytes, 6 tensors)

weight f4 [256, 21]
0	0xbd074e8a	-0.033033885
1	0x3dfd4d8f	0.12368309
2	0xbdc94624	-0.098278314
3	0x3e2d4d80	0.16924095
4	0x3e00474c	0.12527198
5	0xbe4f5920	-0.20248842
6	0x3dda6d60	0.10665393
7	0x3dd79a6f	0.10527503
8	0x3dc1e381	0.09467221
9	0xbdf9aef8	-0.12191576
10	0xbd9d1e60	-0.07671809
11	0x3e509397	0.20368801
12	0xbde20c52	-0.11037506
13	0x3e148a0e	0.14505789
14	0xbd250d14	-0.040295675
15	0xbda7dce4	-0.081964284
16	0x3dafe1fa	0.085880235
17	0x3e1f1d8a	0.15538612
18	0x3d84d346	0.0648561
19	0xbe5020e0	-0.20325041
20	0xbd681600	-0.056661606
21	0xbc6b0350	-0.0143440515
22	0xbd0e7b18	-0.03478536
23	0x3e133187	0.14374362
24	0x3e1d6620	0.15370989
25	0xbc67dfaf	-0.014152451
26	0xbd83a639	-0.06428189
27	0xbdaddf97	-0.08489912
28	0x3e3823c5	0.17982395
29	0xbe164459	-0.1467451
30	0xbddc77aa	-0.107650116
31	0xbc805883	-0.015667206
32	0xbe3b8639	-0.1831292
33	0x3e095e20	0.13414812
34	0x3ce167a3	0.027515238
35	0xbe32f5ad	-0.1747653
36	0xbe3f1f1d	-0.18664213
37	0x3dadc21d	0.0848429
38	0xbde0c350	-0.10974753
39	0xbe266880	-0.16250801
40	0xbd8362ff	-0.064153664
41	0x3e1b30f8	0.15155399
42	0xbe5955ba	-0.21224108
43	0x3e163bd8	0.14671266
44	0xbdbdffc2	-0.092772976
45	0x3c9b3dcc	0.018950365
46	0x3e3ba5ee	0.18325016
47	0x3e0b8673	0.13625507
48	0xbdf74087	-0.120728545
49	0xbe599b13	-0.21250562
50	0x3e30dbde	0.17271373
51	0xbe4cc790	-0.19998002
52	0xbe4dd162	-0.20099404
53	0xbe1b68b7	-0.15176664
54	0x3db47a9c	0.088124484
55	0x3df38730	0.11891019
56	0xbd1e3fec	-0.03863518
57	0xbdc09dce	-0.09405099
58	0x3d6438c7	0.05571821
59	0x3e110e9f	0.14165734
60	0x3da405ae	0.08008896
61	0x3e3aab9d	0.18229528
62	0x3dc72b58	0.09725064
63	0x3e0fa0b8	0.14026153
64	0xbdbbe3f2	-0.091743365
65	0xbc10a660	-0.008828729
66	0x3e4a4ce0	0.19755888
67	0xbdb5917b	-0.08865639
68	0x3d954878	0.07289213
69	0xbe56efe1	-0.20989944
70	0x3d2be930	0.04197043
71	0x3d4ee19a	0.05050812
72	0xbde80a65	-0.113301076
73	0x3dc06c10	0.09395611
74	0x3dc589c3	0.096454166
75	0x3cd13497	0.025537772
76	0xbdce6cef	-0.10079371
77	0xbc03c18a	-0.008041749
78	0x3c94b9c1	0.01815498
79	0xbe08e4e8	-0.13368571
80	0xbd5c3854	-0.053764656
81	0xbe3bda80	-0.1834507
82	0xbe17efc6	-0.1483756
83	0xbd822d35	-0.06356279
84	0xbda9706d	-0.08273397
85	0x3e2b2886	0.16714677
86	0x3e021a27	0.12705289
87	0xbe3fce23	-0.18730979
88	0x3e1059e6	0.14096794
89	0xbded83b4	-0.11597386
90	0x3e5740da	0.21020833
91	0x3e03e37d	0.12879749
92	0x3e07f4a7	0.13276921
93	0xbc43de92	-0.01195492
94	0x3dfbc644	0.122936755
95	0x3c6081c5	0.0137028145
96	0xbc89ba5f	-0.016812501
97	0xbd70244d	-0.05862837
98	0x3e2326b8	0.15932739
99	0x3e3f5504	0.18684775
100	0xbc164d4d	-0.009173703
101	0x3de4ca09	0.11171348
102	0xbdb71735	-0.08939973
103	0xbe064717	-0.13113056
104	0xbe151a52	-0.14560822
105	0x3ceca898	0.028888986
106	0x3d14deec	0.036345407
107	0x3dfb4e6e	0.12270819
108	0xbdd31044	-0.10305837
109	0xbe489ae2	-0.19590333
110	0xbdfabdbc	-0.1224322
111	0x3de832d6	0.11337821
112	0xbc9c0400	-0.019044876
113	0x3dad847e	0.084725365
114	0xbd20be78	-0.039244145
115	0xbdb6a55e	-0.0891826
116	0xbe1842e1	-0.14869262
117	0x3e2ed56b	0.170736
118	0x3c252880	0.010080457
119	0x3dc8948e	0.097939596
120	0xbdc595a4	-0.09647682
121	0xbe13f7d4	-0.14450008
122	0x3e09419b	0.13403933
123	0xbd72aa90	-0.059244692
124	0x3c043620	0.008069545
125	0x39a9f600	0.00032417476
126	0xbdb187b8	-0.086684644
127	0x3d910646	0.07081275
128	0xbe5ad52c	-0.21370381
129	0xbd961ac0	-0.07329321
130	0xbc443c30	-0.01197724
131	0xbc097120	-0.0083887875
132	0xbd46fc58	-0.048580498
133	0xbde54abb	-0.11195894
134	0x3b74b740	0.003734067
135	0xbe59f487	-0.21284686
136	0xbde7ecee	-0.113244876
137	0x3d8e1602	0.069377914
138	0xbd788328	-0.060671955
139	0xbe4e1cf7	-0.20128237
140	0xbe4e24fe	-0.20131299
141	0xbd8924c6	-0.06696467
142	0xbc92aea8	-0.017905548
143	0x3e4f3ad1	0.2023728
144	0xbe17ab9c	-0.14811558
145	0x3e38051b	0.17970698
146	0x3e26a2c9	0.16273035
147	0xbd197b5c	-0.03747116
148	0x3e52803d	0.20556732
149	0x3e31b647	0.1735469
150	0x3d8d8b19	0.069112964
151	0x3ceaac21	0.02864653
152	0xbe5496ae	-0.20760605
153	0x3e3b841e	0.18312117
154	0xbe0cb0b0	-0.13739276
155	0x3dbc3e21	0.09191538
156	0xbe0749ba	-0.13211718
157	0x3d0003ea	0.031253733
158	0x3e5e2b2e	0.21696159
159	0x3de76623	0.11298778
160	0x3e0fa182	0.14026454
161	0xbd3d4e9c	-0.046217546
162	0xbdaec783	-0.085341476
163	0xbcfd5df8	-0.030928597
164	0x3e4462b6	0.1917828
165	0x3c645b29	0.01393775
166	0x3daa2e6c	0.083096355
167	0x3dc56359	0.0963809
168	0xbe3d0dd5	-0.18462308
169	0x3d384bc2	0.044994123
170	0x3e1cccd9	0.15312518
171	0xbd10120c	-0.03517346
172	0xbb2bc21d	-0.002620823
173	0x3e0c5212	0.13703182
174	0x3e172a6f	0.14762281
175	0x3da12b02	0.07869531
176	0xbe1e0095	-0.1542991
177	0xbe4dbd63	-0.20091777
178	0x3d82cc33	0.06386604
179	0xbddfb72c	-0.10923609
180	0xbe25eaff	-0.16202925
181	0x3d394841	0.045234922
182	0x3dd83292	0.105565205
183	0x3e4e9ca9	0.20176949
184	0xbde5745f	-0.11203837
185	0xbde59d1e	-0.11211608
186	0xbb5b26d1	-0.0033439884
187	0x3dd0a890	0.10188401
188	0x3d1a0c0e	0.037609152
189	0xbd862ba2	-0.06551291
190	0x3e356779	0.17715253
191	0x3e3e857a	0.18605605
192	0x3e1e46ad	0.15456648
193	0xbde102eb	-0.10986885
194	0xbe0ab0b0	-0.13543963
195	0x3d685414	0.05672081
196	0x3d9bfd27	0.07616644
197	0xbe276478	-0.1634692
198	0xbe582a7d	-0.21109958
199	0x3d65c204	0.05609323
200	0x3dbbc59f	0.091685526
201	0x3e02c7c7	0.12771522
202	0xbcaa73c9	-0.020807164
203	0x3e51a1e9	0.2047192
204	0xbe25b58f	-0.1618254
205	0x3d29f229	0.041490708
206	0xbd4bc3b5	-0.049747188
207	0xbe412585	-0.18861969
208	0x3e5221de	0.20520732
209	0xbe51b244	-0.20478159
210	0xbda17159	-0.078829475
211	0xbe114708	-0.14187253
212	0x3bf8cacf	0.007592536
213	0xbd50e9ac	-0.051004097
214	0x3e194b62	0.14970163
215	0x3dcf8030	0.10131872
216	0x3e404225	0.18775232
217	0xbb9d7f4e	-0.0048064357
218	0x3d76ffd0	0.060302556
219	0xbda47ce6	-0.08031635
220	0xbd1a535a	-0.037677146
221	0x3d82a130	0.063784
222	0xbd23f44a	-0.040027894
223	0xbe3cfa4e	-0.18454859
224	0xbe46a94f	-0.19400524
225	0x3e3b6f9c	0.18304294
226	0xbd5fb31e	-0.05461418
227	0x3d108b77	0.035289254
228	0x3d58d3a5	0.052936215
229	0x3d1f7269	0.03892747
230	0xbdb7e280	-0.08978748
231	0x3e3eaf0d	0.18621464
232	0xbd0a9aaa	-0.033838905
233	0x3d73e3de	0.059543483
234	0x3d16e0f5	0.03683563
235	0x3e0371c5	0.12836368
236	0xbc6078b4	-0.013700653
237	0x3d887be6	0.06664257
238	0xbbd2d687	-0.006434265
239	0x3e4594a4	0.19294983
240	0xbdacf811	-0.084457524
241	0x3deba0fa	0.11505313
242	0x3dafcc03	0.08583834
243	0xbded9b57	-0.11601894
244	0xbe459b65	-0.1929756
245	0xbde75199	-0.112948604
246	0xbd91ebba	-0.071250394
247	0xbe3a0570	-0.18166137
248	0x3dafe21d	0.085880496
249	0x3e49b1bb	0.19696705
250	0xbddc004e	-0.107422456
251	0x3d96044a	0.07325037
252	0x3c945b36	0.018109899
253	0x3e3bb429	0.18330444
254	0xbc6fc9ea	-0.014635542
255	0xbe402c51	-0.18766905

bias f4 [256]
0	0xbd9ef947	-0.0776239
1	0xbcd68ef4	-0.026191212
2	0xbdec5b51	-0.11540855
3	0xbc766796	-0.015039345
4	0xbe448f9d	-0.19195409
5	0xbe301356	-0.17194876
6	0xbd9436d8	-0.07237023
7	0xbd31e266	-0.0434288
8	0x3d2eb1ad	0.042649914
9	0xbddfd6b3	-0.109296225
10	0xbdfa362f	-0.12217366
11	0xbca59cce	-0.020216372
12	0x3e360769	0.17776264
13	0x3cad1225	0.021126816
14	0x3e1dd185	0.15411957
15	0xbe39fad0	-0.18162084
16	0xbcb893d5	-0.02253143
17	0x3d8917c4	0.06693986
18	0xbc6e7850	-0.014555052
19	0xbc4ef04b	-0.0126305325
20	0x3e4e186e	0.20126507
21	0x3e165b07	0.14683162
22	0x3e459348	0.19294465
23	0xbe0c2740	-0.13686848
24	0xbdd5e517	-0.10444086
25	0x3c561e11	0.013068692
26	0xbd36a966	-0.044595145
27	0xbdc3eefa	-0.095670655
28	0x3e50c57b	0.20387833
29	0xbe01f91f	-0.12692688
30	0xbe3429bd	-0.17594047
31	0xbe4bea35	-0.19913562
32	0xbe1d6498	-0.15370405
33	0xbcb12e0a	-0.021628398
34	0x3dbab084	0.09115699
35	0xbdf53f50	-0.119749665
36	0x3e1288a2	0.14309934
37	0xbda1f6b0	-0.0790838
38	0xbd1db1fe	-0.038499825
39	0xbdfd9cd2	-0.12383427
40	0xbd896d10	-0.06710255
41	0x3af17d2e	0.0018424147
42	0xbe27ec96	-0.16398844
43	0x3b8fe56c	0.004391363
44	0xbdf26780	-0.11836147
45	0xbd7f9e96	-0.0624071
46	0x3ce2cde1	0.027686061
47	0x3e2fb05b	0.17157118
48	0xbe1cde99	-0.1531929
49	0x3d0f454c	0.034978196
50	0xbd9757e8	-0.07389814
51	0xbcd710b3	-0.02625308
52	0x3dcfcf5a	0.10146971
53	0xbd2e146b	-0.04249994
54	0xbdbafc27	-0.091301255
55	0x3d8d3b11	0.06896032
56	0xbdc57e92	-0.09643282
57	0xbe3c3861	-0.18380882
58	0x3e1435cf	0.14473651
59	0x3da2c52f	0.07947766
60	0x3e0bcbd5	0.13651974
61	0x3e1b09c2	0.15140441
62	0x3d82e16f	0.06390654
63	0x3e180e88	0.14849293
64	0xbda837f6	-0.08213799
65	0x3ceb1481	0.0286963
66	0xbd8cf9e7	-0.068836026
67	0x3e11fe4c	0.14257163
68	0xbe1e6f2e	-0.15472099
69	0xbdbb5a16	-0.09148042
70	0x3df4f80f	0.11961376
71	0x3e17a334	0.14808351
72	0x3d94f201	0.07272721
73	0xbda883e8	-0.08228284
74	0x3c6ec18b	0.014572511
75	0xbd5e8b4d	-0.054332066
76	0xbc87ea94	-0.016591348
77	0x3cc8ab34	0.024495699
78	0xbe4e3b8c	-0.20139903
79	0xbd92fb18	-0.071767986
80	0xbdb89733	-0.09013214
81	0xbd898b45	-0.06716017
82	0xbe1df724	-0.15426308
83	0xbe28386c	-0.16427773
84	0xbe26e564	-0.16298443
85	0x3e31c13f	0.17358874
86	0xbe3b01ae	-0.1826236
87	0x3e2b73e1	0.16743423
88	0x3d5ab20c	0.053392455
89	0x3bbdbd7e	0.0057904115
90	0xbd6a1615	-0.057149965
91	0xbddc65c0	-0.10761595
92	0xbd5c4673	-0.053778123
93	0xbdfda4a2	-0.12384917
94	0xbe25e67d	-0.16201206
95	0x3e183e2b	0.14867465
96	0xbd66efbc	-0.056380972
97	0xbd867b37	-0.0656647
98	0xbe51875c	-0.20461792
99	0x3e54892a	0.20755449
100	0x3de4b389	0.11167056
101	0xbe1e7b19	-0.15476646
102	0xbe184379	-0.14869489
103	0xbd9e20de	-0.07721113
104	0xbe115c2e	-0.1419532
105	0x3da189de	0.07887624
106	0x3e0394cb	0.12849729
107	0x3db35c11	0.08757795
108	0xbc15e733	-0.0091493605
109	0x3d833865	0.06407241
110	0xbc676256	-0.014122566
111	0xbdb10598	-0.08643645
112	0x3dbf0623	0.09327342
113	0x3d5cbbff	0.053890225
114	0x3a7a30ba	0.0009544004
115	0x3daa63c7	0.08319812
116	0xbcebf890	-0.028805047
117	0x3d927b8f	0.07152473
118	0x3e2367d0	0.1595757
119	0x3d9c8891	0.076432355
120	0xbcb320b3	-0.021866178
121	0x3e460b65	0.19340284
122	0x3dec313f	0.115328304
123	0xbd8b7a5f	-0.0681045
124	0xbdbae1fd	-0.09125135
125	0xbd841e8c	-0.06451139
126	0xbe1d67fc	-0.15371698
127	0x3e4b4690	0.19851136
128	0x3e25460a	0.16139999
129	0x3dc055e7	0.093913846
130	0x3d797481	0.060902122
131	0x3e3ddf52	0.18542221
132	0xbda671ae	-0.081271514
133	0x3d256c9e	0.04038679
134	0x3e1ef346	0.15522489
135	0x3d9a9c4e	0.07549344
136	0x3e1df76c	0.15426415
137	0x3d9ebb18	0.07750529
138	0xbe06472a	-0.13113084
139	0xbe534388	-0.2063123
140	0x3d61c8c8	0.05512312
141	0xbe1723b5	-0.14759715
142	0x3d3343a1	0.043765668
143	0x3e3432b7	0.17597471
144	0x3e1ad388	0.15119755
145	0xbd0efa10	-0.034906447
146	0xbcda7b44	-0.026670106
147	0x3def570d	0.116865255
148	0xbe44a958	-0.19205225
149	0x3d8f6a60	0.07002711
150	0xbd03f25b	-0.03221355
151	0x3e086886	0.13321123
152	0xbe56dbaa	-0.20982233
153	0xbc76c805	-0.015062337
154	0xb8aeb69f	-8.3309824e-05
155	0xbe250d0d	-0.1611826
156	0x3dd6c411	0.104866154
157	0x3e11e2d7	0.14246689
158	0x3c883f01	0.016631605
159	0xbad939b2	-0.0016572981
160	0xbe221165	-0.15826948
161	0xbd8e65d7	-0.06953018
162	0xbe04905a	-0.12945691
163	0x3d1e0b3e	0.03858494
164	0xbd68e964	-0.056863204
165	0xbe0f2231	-0.13977887
166	0xbcfd4aee	-0.030919518
167	0x3e0e358a	0.13887611
168	0x3c0ee110	0.008720651
169	0xbde8545e	-0.11344217
170	0x3c5b483d	0.013383922
171	0x3e443f41	0.19164754
172	0xbd98aa7d	-0.07454393
173	0xbd539b03	-0.051661503
174	0x3d8bce2b	0.06826433
175	0x3e51a062	0.20471337
176	0x3decc73c	0.115614384
177	0x3e57336e	0.21015713
178	0xbdc2d354	-0.09512964
179	0x3d4ea5fe	0.05045127
180	0x3d67d45a	0.056599
181	0xbc64cb73	-0.013964522
182	0xbd1ccee1	-0.038283233
183	0x3e545681	0.20736124
184	0x3c9de439	0.019273864
185	0xbd31ee84	-0.043440357
186	0xbdefa033	-0.117004775
187	0xbe518f5b	-0.20464842
188	0xbe1d8ed9	-0.15386523
189	0xbe537864	-0.20651394
190	0x3e18bd63	0.14915995
191	0x3c160175	0.009155621
192	0x3ccb1524	0.024790354
193	0xba73ed16	-0.0009305043
194	0x3d14a43c	0.03628944
195	0xbdf2b5c8	-0.11851078
196	0xbdac3107	-0.08407789
197	0xbcf79da6	-0.03022654
198	0xbe436c97	-0.19084392
199	0x3e260c7e	0.16215703
200	0x386724f1	5.5109096e-05
201	0xbe44650c	-0.19179171
202	0xbd51dee8	-0.05123797
203	0xbd8504a2	-0.06495024
204	0x3e3b3592	0.18282154
205	0x3e08dd71	0.13365723
206	0x3e0896e4	0.1333881
207	0xbdeb6838	-0.114944875
208	0x3e4f224f	0.20227931
209	0xbdd7977e	-0.10526942
210	0xbe0112f8	-0.12604892
211	0x3baaba33	0.005210185
212	0x3dd13355	0.10214869
213	0xbd8e0751	-0.06934989
214	0x3c9d27e1	0.019184055
215	0xbe2bf59a	-0.16792908
216	0xbd297a78	-0.04137656
217	0xbda63a2a	-0.08116563
218	0x3d2790fd	0.040909756
219	0x3c5f4f1f	0.013629704
220	0xbe5953c9	-0.21223368
221	0xbd7f2797	-0.062293615
222	0xbc88733a	-0.016656507
223	0xbcb8c5ef	-0.02255532
224	0xbd90b5f5	-0.070659555
225	0x3dc20d49	0.0947519
226	0x3e055dd0	0.13024068
227	0xbe303ce6	-0.17210731
228	0x3bfcad2c	0.0077110734
229	0x3d25edd2	0.040510006
230	0x3e1da6bd	0.15395637
231	0x3e2a3753	0.16622667
232	0x3d9385c3	0.072032474
233	0x3d13cd15	0.036084253
234	0xbd55281c	-0.052040204
235	0xbd68b218	-0.05681047
236	0xbe32fcb3	-0.1747921
237	0xbe498f24	-0.1968351
238	0xbbe5a13d	-0.0070077465
239	0xbdc98bdc	-0.09841129
240	0x3e536c2d	0.20646735
241	0x3e4f1377	0.20222269
242	0xbdbc849b	-0.0920498
243	0xbe36419c	-0.17798465
244	0x3e0e0be2	0.1387172
245	0xbe44c266	-0.19214782
246	0xbbca9ff9	-0.006183621
247	0x3e00a8fc	0.12564462
248	0xbdce8b15	-0.100851215
249	0x3e4c3a25	0.19944055
250	0x3e27da2b	0.16391818
251	0x3dbd3b89	0.09239871
252	0xbe4b8d19	-0.19878043
253	0xbdebdc06	-0.115165755
254	0x3d3a2501	0.045445446
255	0xbd1da99d	-0.038491834

weight f4 [256, 256]
0	0xbd640c32	-0.055675693
1	0xbd708120	-0.058716893
2	0x3cafdd77	0.021467907
3	0xbd156b4a	-0.036479272
4	0xbd6a7083	-0.057236206
5	0xbd74a856	-0.05973085
6	0xbcb6a538	-0.02229558
7	0xbbe2d70f	-0.0069226096
8	0x3c90f7f4	0.017696358
9	0x3d6dd6e1	0.058066253
10	0xbd5a41f5	-0.053285558
11	0xbd6fb141	-0.058518652
12	0x3d410fbe	0.047134154
13	0xbb122bf1	-0.0022304023
14	0x3b969940	0.0045959055
15	0x3d710844	0.058845773
16	0x3bb336da	0.0054691853
17	0x3d70bba5	0.0587727
18	0xbc193a01	-0.009352208
19	0xbd3cfc69	-0.046139155
20	0xbcf84bb5	-0.030309537
21	0x3c774990	0.015093222
22	0xbcd0a050	-0.025467068
23	0xbd3e0448	-0.0463908
24	0x3cf4d6cf	0.029887585
25	0xbd25b585	-0.040456314
26	0x3c9a3c49	0.018827574
27	0x3cca1f12	0.024673019
28	0xbd07ee75	-0.033186395
29	0xbbb749cb	-0.0055935136
30	0x3ca36dda	0.019949842
31	0x3c052628	0.008126773
32	0x3d742634	0.059606746
33	0xbd4fd7ea	-0.05074302
34	0x3b3843fd	0.0028116696
35	0x3d70a00e	0.05874639
36	0xbcec7a4f	-0.028866915
37	0xbc610fb7	-0.013736657
38	0xbc7f10b7	-0.01556795
39	0xbd3f1588	-0.046651393
40	0x3d470f09	0.048598323
41	0x3d49f898	0.049309343
42	0xbc948768	-0.018130973
43	0x3b398d4a	0.0028312975
44	0x3a21b5a9	0.0006168732
45	0x3caa5398	0.020791814
46	0xbb941f43	-0.0045203282
47	0x3bed44c5	0.007240864
48	0xbd0d9fb4	-0.034576133
49	0xbc3c856b	-0.011506419
50	0x3d65a97e	0.056069843
51	0x3d139363	0.03602923
52	0xbcbb065e	-0.022830185
53	0x3c1d4e63	0.009601208
54	0xbd6dfa6c	-0.05810015
55	0xbc91ab9b	-0.017782023
56	0x3d75db86	0.060023807
57	0x3c9b3e62	0.018950645
58	0xbcc088bd	-0.023502702
59	0xbcbb852f	-0.022890655
60	0xbd4ea98e	-0.05045467
61	0xbd5d82cb	-0.054079812
62	0xbab4d0dd	-0.0013795156
63	0xbd143274	-0.03618093
64	0x3d3e1962	0.046410926
65	0xbbeb686b	-0.0071840785
66	0x3ceb7308	0.028741375
67	0xbcb55569	-0.022135453
68	0x3c9018e0	0.017589986
69	0x3d51e0ff	0.051239964
70	0x3c898ce7	0.01679082
71	0x3d1e9dcf	0.038724717
72	0xbbdf2a66	-0.006810474
73	0xbc07abd0	-0.008280709
74	0xbd58e94c	-0.052956864
75	0xbcbe96e6	-0.023265313
76	0x3d811774	0.063033015
77	0x3d71c3ca	0.05902461
78	0x3d48d288	0.049028903
79	0xbd4d20e1	-0.050080184
80	0xbccdcef2	-0.025123093
81	0xbcea3eb4	-0.028594352
82	0x3d66234c	0.056186005
83	0xbd1306e2	-0.035895236
84	0xbc1fbdae	-0.009749813
85	0x3d7b7729	0.061392937
86	0xbd4b56b4	-0.049643233
87	0xbd71bb88	-0.059016734
88	0xbca2bccb	-0.019865414
89	0xbd765033	-0.060135078
90	0xbca979ff	-0.020688055
91	0xbd1534d4	-0.036427334
92	0x3d50bac9	0.050959382
93	0x3d53d860	0.051720023
94	0x3c328a57	0.010897241
95	0x3b2fecc7	0.002684401
96	0xbd1228f8	-0.035683602
97	0x3d76cc74	0.060253575
98	0x3d7834ab	0.060597103
99	0xbbff238e	-0.007786221
100	0x3cb80fe9	0.022468524
101	0x3c427734	0.011869241
102	0x3d2fcba3	0.042918812
103	0x3d625d80	0.05526495
104	0x3cf7d90f	0.030254869
105	0x3c90979c	0.017650418
106	0x3ce59011	0.028022798
107	0x3d3975d6	0.045278393
108	0x3cbe2874	0.023212649
109	0xbc049324	-0.008091722
110	0xbd359f61	-0.04434145
111	0xbd02ae30	-0.0319044
112	0xbd5985bc	-0.053106055
113	0x3cf2f7f9	0.029659258
114	0x3ce82062	0.028335754
115	0x3c9dbcdc	0.019255094
116	0xbce5f6a7	-0.028071715
117	0xbd775f4b	-0.060393613
118	0xbd4a53c6	-0.0493963
119	0xbcf7864e	-0.030215409
120	0x3d82dc82	0.06389715
121	0xbd3698fe	-0.0445795
122	0x3cd46fc8	0.025932208
123	0x3d47c141	0.048768286
124	0x3cbe0280	0.023194551
125	0x3c5982f8	0.013275854
126	0xbc479410	-0.012181297
127	0xbd0ea3f2	-0.03482432
128	0xbce80388	-0.028321996
129	0x3c9051b8	0.017617092
130	0xbd3a963f	-0.045553442
131	0xbcfd2281	-0.030900242
132	0x3d301906	0.042992614
133	0x3baf5341	0.005350501
134	0xbd58d43e	-0.052936785
135	0xbbd4c20f	-0.00649286
136	0x3d55003e	0.052002184
137	0x3d7993be	0.060931914
138	0xbd2dc23b	-0.04242156
139	0x3a242bd2	0.0006262633
140	0xbce42f8e	-0.027854707
141	0x3d0097b4	0.031394675
142	0x3d1a17e3	0.037620436
143	0x3d3dae48	0.046308786
144	0x3d578107	0.052613284
145	0xbd3d69d9	-0.046243522
146	0x3c7901a9	0.01519815
147	0xbd77c8ad	-0.060494114
148	0x3d3e1e16	0.04641541
149	0xb9a891fb	-0.0003215222
150	0xbd72d588	-0.05928567
151	0xbd48cb74	-0.049022153
152	0x3d56128c	0.05226378
153	0xbd25d892	-0.04048974
154	0x3d7a0e99	0.061049078
155	0xbc63f369	-0.013913014
156	0xbd273122	-0.04081834
157	0x3d30fb53	0.04320843
158	0x3d4403b6	0.0478551
159	0xbd201f54	-0.039092377
160	0xbd57aa5f	-0.052652713
161	0xbd14bc1c	-0.036312208
162	0xbd65da42	-0.05611635
163	0xbbec9408	-0.007219795
164	0xbc7a7928	-0.015287675
165	0xbce35a39	-0.027752982
166	0x3d211ec7	0.039335992
167	0xbbf537ab	-0.007483443
168	0x3d7fa7ec	0.062416002
169	0x3d2e7b52	0.042598076
170	0x3d0c9e04	0.034330383
171	0x3d58c425	0.052921433
172	0xbc75a2b5	-0.014992406
173	0x3d4444a1	0.047917012
174	0x3d340376	0.043948613
175	0x3c96a693	0.018389976
176	0x3d4dadb9	0.050214503
177	0xbc7fc527	-0.01561097
178	0xbce4c04b	-0.027923724
179	0x3ca9b45d	0.020715887
180	0x3d19dbd4	0.03756316
181	0xbbdbd2b3	-0.006708467
182	0xbd4f2222	-0.05056966
183	0x3d315d01	0.043301586
184	0x3d65ea15	0.05613144
185	0x3cda1d87	0.026625408
186	0x3d336e89	0.043806586
187	0xbd6f9d6c	-0.05849974
188	0x3a8bcac4	0.0010665287
189	0xbd2ffd8c	-0.04296641
190	0x3d15d871	0.036583368
191	0xbd2fc94a	-0.042916574
192	0xbd581336	-0.052752696
193	0xbcf4ff66	-0.02990694
194	0xbd121f5b	-0.035674434
195	0x3d20b202	0.03923226
196	0xbc14d6fd	-0.00908446
197	0xbd6b3ff2	-0.05743403
198	0xbab8188f	-0.0014045405
199	0x3d8116ff	0.06303214
200	0x3d41d72c	0.047324345
201	0xb958be00	-0.00020670146
202	0x3bcbe271	0.0062220623
203	0x3d4aafd6	0.049484096
204	0x3d6268ea	0.055275835
205	0xbce0f378	-0.027459845
206	0xbd545721	-0.051840905
207	0x3d655194	0.055986002
208	0xbd6dd81a	-0.05806742
209	0xbba5c157	-0.0050584483
210	0x3d282693	0.041052412
211	0x3d073d2f	0.033017334
212	0xbca66527	-0.020311905
213	0x3d0b6c7b	0.034039002
214	0xbbd13008	-0.0063838996
215	0xbd491810	-0.049095213
216	0xbcd5ff8f	-0.026122836
217	0x3cffd76d	0.031230653
218	0xbca290ba	-0.019844402
219	0xbc8e376a	-0.017360408
220	0xbc2349c8	-0.009966321
221	0xbd2ad50d	-0.041707087
222	0x3cbfce55	0.023413816
223	0x3d14748d	0.036243964
224	0x3c9ea5b7	0.019366128
225	0x3d356c64	0.044292822
226	0xbcf825a4	-0.030291386
227	0xbd28daa4	-0.041224137
228	0xbd3b6b0c	-0.045756385
229	0x3d3a55ce	0.045491986
230	0x3d123d8a	0.03570322
231	0x3d5c6701	0.05380917
232	0x3c79cea1	0.015247018
233	0x3cffc95f	0.03122395
234	0x3d2343f5	0.03985973
235	0x3b918187	0.0044404897
236	0xba9c8c40	-0.0011943653
237	0x3d036166	0.03207531
238	0x3b91c081	0.004447997
239	0x3cdd3c2f	0.027006237
240	0x3d4b16ba	0.04958222
241	0xbb4d9f4b	-0.0031375464
242	0xbd232daf	-0.03983849
243	0x3cb4ef5c	0.022086792
244	0xbd4f0036	-0.05053731
245	0x3cc43660	0.02395171
246	0xbd556f78	-0.052108258
247	0x3d599077	0.053116288
248	0xbd41093d	-0.04712795
249	0x3d5edf73	0.054412317
250	0xbd1665ef	-0.036718305
251	0x3d0d6e5c	0.034529075
252	0x3d803482	0.06260015
253	0x3d4bb5ad	0.049733806
254	0xbd1d81b7	-0.038453784
255	0x3be98d02	0.007127405

bias f4 [256]
0	0x3d6d5192	0.05793912
1	0x3c4f5c0d	0.012656224
2	0xbd5ac43a	-0.053409792
3	0x3d5b4155	0.053529102
4	0x3d5fa511	0.05460078
5	0xbd06d5a0	-0.032918572
6	0xbd502b41	-0.0508225
7	0xbd4d83b8	-0.050174445
8	0x3d41c3c6	0.047305845
9	0xbc39e3cc	-0.011345815
10	0xbd58a577	-0.052892175
11	0x3d5e103e	0.05421471
12	0x3ce3ce62	0.027808372
13	0x3d2c912b	0.04213063
14	0x3c805a72	0.015668128
15	0xbc832974	-0.016010977
16	0xbb82cb6b	-0.0039915345
17	0xbd54d6dc	-0.05196272
18	0xbb2920e6	-0.0025806963
19	0x3ccae8f7	0.02476929
20	0xbcd4ced8	-0.025977537
21	0x3d6e6f6a	0.05821172
22	0xbd027f33	-0.031859588
23	0xbd5282c4	-0.05139424
24	0x3c8f37b8	0.017482623
25	0xbd182703	-0.03714658
26	0x3cdb0ee9	0.026740508
27	0xbd625e82	-0.05526591
28	0x3d1d10a4	0.038345948
29	0xbd43bd2e	-0.047787838
30	0x3d614aba	0.055002905
31	0x3d3da3be	0.046298735
32	0xbd72dd68	-0.05929318
33	0x3d649d2d	0.055813957
34	0xbac1ad87	-0.0014776447
35	0x3cd042ff	0.025422571
36	0xbca671ed	-0.020317996
37	0xbd6ff916	-0.058587156
38	0x3d3d1c37	0.046169486
39	0xbd790e72	-0.06080479
40	0x3d36448e	0.044498973
41	0x3c73ea40	0.0148873925
42	0x3d751849	0.059837613
43	0xbd455fe2	-0.048187144
44	0x3d6719ef	0.056421217
45	0x3d08adac	0.03336875
46	0x3ce5762b	0.028010448
47	0xbcf29a15	-0.029614488
48	0x3b3aca56	0.002850195
49	0x3ccdae6e	0.025107589
50	0x3cdff5bf	0.02733886
51	0x3c2568d8	0.0100957975
52	0x3ce85c87	0.028364433
53	0xbccf8119	-0.025330113
54	0x3bea4f9c	0.0071506035
55	0xbd66be55	-0.05633386
56	0x3d833c12	0.06407942
57	0xbd3721df	-0.044710036
58	0x3cbb66b5	0.022876123
59	0xbd60b214	-0.05485733
60	0xbbfb73c3	-0.007673712
61	0xbb3a01b4	-0.0028382363
62	0x3bc64f12	0.0060519064
63	0x3bfd963a	0.0077388557
64	0x3d5894c7	0.05287626
65	0xbcb97b2f	-0.022641746
66	0xbd6b4eb5	-0.057448108
67	0x3c94ea7b	0.018178215
68	0xbd60d1a1	-0.054887418
69	0x3b5c429f	0.0033609045
70	0x3d7ccca2	0.06171859
71	0x3d75588f	0.05989891
72	0x3abb1d50	0.0014275704
73	0x3d0f3d30	0.034970462
74	0xbd1bc192	-0.0380264
75	0xbc508a4b	-0.012728284
76	0x3c729748	0.014806576
77	0xbcb12e15	-0.021628419
78	0xbb8c435f	-0.004280492
79	0x3d36a2bf	0.0445888
80	0xbd4ba300	-0.049715996
81	0x3ca60305	0.020265112
82	0x3c46b61c	0.012128379
83	0x3d3c7785	0.04601242
84	0xbc4469ed	-0.011988145
85	0xbca3d7ab	-0.0200003
86	0x3d2dba2c	0.042413875
87	0x3b1aa0c0	0.002359435
88	0xbd1748ea	-0.03693477
89	0xbd15feec	-0.036620066
90	0xbc1af6f6	-0.009458294
91	0x3c4c3548	0.012463875
92	0x3c974723	0.018466538
93	0xbcdb216e	-0.026749339
94	0x3c8842d7	0.016633434
95	0xbd5f515a	-0.054520942
96	0xbd4ff4fd	-0.05077075
97	0xbd0e4dc1	-0.03474212
98	0x3d63e257	0.055635776
99	0x3cb67440	0.02227223
100	0xbc12fabd	-0.0089709135
101	0xbd7b74ca	-0.061390676
102	0xbcd8348e	-0.026392248
103	0x3cf8d240	0.030373693
104	0xbce62e38	-0.02809821
105	0x3cfba65a	0.030718971
106	0x3c2e4a79	0.010637873
107	0xbb2632aa	-0.0025359788
108	0xbcb29566	-0.021799754
109	0xbd38b062	-0.045090087
110	0x3d0fd012	0.03511054
111	0x3d6a9eb9	0.057280276
112	0xbd5f9da5	-0.0545937
113	0xbbfb9750	-0.00767795
114	0xbd0d0a20	-0.034433484
115	0x3d7db8dd	0.061943877
116	0xbd382fea	-0.04496757
117	0xbd18ed3c	-0.03733562
118	0x3d503bdc	0.050838336
119	0x3d5754f2	0.052571245
120	0xbc2d0652	-0.010560589
121	0x3b7310e6	0.003708893
122	0xbd4749a6	-0.04865422
123	0xbc908efe	-0.017646309
124	0xbce0a57c	-0.02742266
125	0x3c55e011	0.01305391
126	0xbcde1b6b	-0.027112683
127	0x3d0555ad	0.03255241
128	0x3d2df6f3	0.042471837
129	0xbc94e5f4	-0.018176056
130	0xbada6f66	-0.0016665279
131	0x3d70fa13	0.05883224
132	0x3b863e20	0.0040967613
133	0xbc54fbd3	-0.012999493
134	0x3d47d18c	0.048783824
135	0xbc5f935b	-0.013645972
136	0x3d61d0c0	0.05513072
137	0x3c50cdf9	0.01274442
138	0xbd1f6902	-0.038918503
139	0x3c041d69	0.008063653
140	0x3d07d79b	0.0331646
141	0xbcf5d1b3	-0.030007219
142	0x3d051edf	0.032500144
143	0x3ba7225d	0.005100532
144	0x3d26df6b	0.04074041
145	0x3ced0051	0.028930815
146	0xba715fe5	-0.000920771
147	0x3c894e49	0.016760962
148	0xbc0b2590	-0.008492842
149	0x3d56c04e	0.05242949
150	0xbb624834	-0.00345279
151	0x3d1ef75f	0.03881013
152	0xbcd4a940	-0.025959611
153	0x3d52e2c0	0.051485777
154	0x3cff4724	0.031161852
155	0xbd1e4180	-0.038636684
156	0x3d59bae6	0.053156756
157	0x3cb079be	0.021542426
158	0xbca02ff2	-0.019554112
159	0xbceefb25	-0.02917249
160	0xbcbfeaab	-0.023427328
161	0x3d514738	0.05109331
162	0xbc8ae758	-0.016956016
163	0x3ad5db76	0.0016316015
164	0x3c8ef503	0.017450815
165	0x3d25625b	0.040377002
166	0xbcf20f07	-0.029548181
167	0x3d022512	0.031773634
168	0xbd39a950	-0.045327485
169	0xbc3da295	-0.011574407
170	0x3cbb2e9e	0.022849377
171	0x3c9daaf9	0.019246565
172	0xbc90a0cc	-0.017654799
173	0xbd1b7aed	-0.037959028
174	0x3d4518ab	0.04811923
175	0xbd1bc746	-0.03803184
176	0x3adc6f4d	0.0016817838
177	0xbd7821f4	-0.060579255
178	0x3c00e23d	0.007866439
179	0x3c1fb0e4	0.009746764
180	0xbd2f542c	-0.042804882
181	0xbd384939	-0.044991706
182	0xbcf0632e	-0.029344168
183	0xbc75087d	-0.014955637
184	0x3c8c433d	0.017121905
185	0xbc4c2e11	-0.012462155
186	0x3cd818b4	0.026378967
187	0xbd668be0	-0.05628574
188	0xbd2a56d6	-0.04158672
189	0x3d143a9a	0.0361887
190	0x3c161589	0.009160408
191	0xbc8d95b0	-0.01728329
192	0xbd32ca21	-0.043649796
193	0x3ccd53fa	0.025064457
194	0xbd4e9cd4	-0.05044253
195	0xbd2388e2	-0.039925463
196	0xbcfd490a	-0.030918617
197	0xbd3c5060	-0.04597509
198	0xbd43bd50	-0.047787964
199	0x3c2d5b93	0.010580915
200	0xbcb5d704	-0.022197254
201	0x3d55278f	0.05203968
202	0xbd0ddd82	-0.034635074
203	0x3cb43bc4	0.022001155
204	0xbd7e015c	-0.062013015
205	0xbcd58073	-0.026062226
206	0x3c95e1b6	0.018296104
207	0xbc25187b	-0.010076637
208	0x3cc48b16	0.023992103
209	0x3d4143d4	0.047183827
210	0x3d1b463a	0.03790877
211	0xbb61449a	-0.0034373165
212	0xbd674d50	-0.056470215
213	0xbd1d9032	-0.038467593
214	0xbd6a1092	-0.05714471
215	0x3d114c5f	0.035473224
216	0x3c24fcb1	0.010070012
217	0x3d03bcf1	0.03216261
218	0x3d556bce	0.052104764
219	0xbd7b96a6	-0.061422966
220	0xbd564354	-0.052310303
221	0xbc6e0fe3	-0.014530155
222	0x3d600351	0.054690663
223	0x3d790459	0.060795162
224	0x3bbaee0f	0.0057046483
225	0xbbe85331	-0.0070899953
226	0x3c8ea0f8	0.01741074
227	0x3d225d4d	0.03963976
228	0x3cea3b69	0.028592782
229	0x3b56ad24	0.0032757008
230	0xbbd1c79a	-0.006401968
231	0x3ceb45de	0.028719839
232	0x3cdf7824	0.027278967
233	0x3cd1b80e	0.02560046
234	0x3d3e3771	0.04643959
235	0xbbadee70	-0.005307965
236	0xbcfc4190	-0.030792981
237	0x3ce5aa9f	0.02803546
238	0xbcd7ff68	-0.026366904
239	0xbcadea2b	-0.021229824
240	0x3d694a89	0.056955848
241	0x3d17edf6	0.03709217
242	0xbb4aea40	-0.0030962378
243	0x3cbfb0bc	0.023399703
244	0xbd369b2a	-0.04458157
245	0xbd5aa8ba	-0.053383566
246	0xbd103baf	-0.03521317
247	0x37928253	1.7465243e-05
248	0x3d671e9c	0.056425676
249	0xbcf4bb4f	-0.029874472
250	0xbd56bc30	-0.052425563
251	0x3a4935e0	0.00076755695
252	0x3bcb3ae1	0.0062020873
253	0xbcc7378c	-0.024318479
254	0xbd64917a	-0.0558028
255	0xbc93dd34	-0.018049814

weight f4 [4, 256]
0	0x3ce5d189	0.028054016
1	0x3c10d5f0	0.008840069
2	0xbd09764e	-0.03356009
3	0x3d79541f	0.06087124
4	0xbcaf26a3	-0.021380728
5	0x3bad1f23	0.005283253
6	0xbc0f6fa3	-0.008754644
7	0x3bcbaf40	0.00621596
8	0x3d4a11ec	0.049333498
9	0x3cbf9257	0.02338521
10	0x3ccc6372	0.024949763
11	0xbd68fa36	-0.056879245
12	0xbd3a270e	-0.0454474
13	0x3c9fb107	0.019493593
14	0x3bf0b730	0.0073460564
15	0x3d7f06fa	0.062262513
16	0x3d3817fc	0.04494475
17	0xbd798e1e	-0.06092655
18	0x3cf279e0	0.02959913
19	0xbcded51d	-0.02720123
20	0xbc9c61d0	-0.01908961
21	0x3c72de61	0.014823527
22	0xbccc6979	-0.024952637
23	0x3d37c3ac	0.04486434
24	0x3d1b6851	0.03794128
25	0x3d657aba	0.056025244
26	0x3c694a04	0.014238838
27	0x3d702266	0.058626555
28	0xbd2908e9	-0.041268263
29	0x3cda075c	0.026614837
30	0xbd0fda13	-0.03512008
31	0x3b3d66b6	0.0028900332
32	0x3d3a8c14	0.045543745
33	0xbd59646f	-0.053074297
34	0xbd049314	-0.032366827
35	0x3d3cf1d1	0.04612905
36	0x3d395d28	0.045254856
37	0x3cccdc76	0.025007468
38	0x3cfafbf3	0.030637717
39	0x3d21cc70	0.039501607
40	0xbc6f5fa2	-0.014610203
41	0xbaaf9600	-0.0013396144
42	0x3c918af8	0.01776646
43	0xbd0143f4	-0.031558946
44	0x3d6012dd	0.05470549
45	0xbcf6c6e6	-0.030124139
46	0x3d4c971c	0.049948797
47	0x3cd5a2eb	0.026078662
48	0xbc180eec	-0.009280901
49	0x3d6a50c7	0.05720594
50	0x38f3cb6e	0.00011625035
51	0x3d116064	0.035492316
52	0x3d7d6962	0.06186808
53	0x3d12e96f	0.03586715
54	0xbccdd561	-0.025126161
55	0x3a311632	0.00067553215
56	0x3d123ed2	0.03570444
57	0x3d6242ba	0.055239417
58	0x3cde10ba	0.027107585
59	0xbc819055	-0.015815893
60	0xbca9466d	-0.020663464
61	0x3d5787ef	0.05261987
62	0x3b26e420	0.0025465563
63	0xbd4548f6	-0.048165284
64	0xbd773b59	-0.060359333
65	0x3c99b227	0.018761707
66	0xbd3a9f5e	-0.04556214
67	0xbcf791ef	-0.030220954
68	0x3b9e9b38	0.004840281
69	0x3c79fcce	0.015258027
70	0xbc09fdc6	-0.008422321
71	0x3b1f7c07	0.00243354
72	0x3ced4de5	0.028967807
73	0xbd2d1f04	-0.042265907
74	0xbbb6cc05	-0.0055785202
75	0xbc4ae2e1	-0.012383194
76	0xbd3141ba	-0.043275572
77	0xbbed3105	-0.0072385096
78	0x3d22daa8	0.039759308
79	0x3d0ffcfe	0.03515338
80	0x3d0c91d4	0.03431876
81	0x3bda66f3	0.0066651045
82	0xbd09b9f1	-0.033624593
83	0x3c97716b	0.0184867
84	0x3b42a567	0.0029700638
85	0xbd3f46f6	-0.046698533
86	0x3d789990	0.060693324
87	0xbb605380	-0.0034229457
88	0x3d35d694	0.04439409
89	0x3ca96318	0.020677134
90	0x3aa62f63	0.0012678917
91	0x3d318810	0.04334265
92	0x3d25be58	0.04046473
93	0x3c084898	0.008318089
94	0x3c92c87c	0.017917864
95	0xbc5bd588	-0.013417609
96	0xbd79e0e2	-0.06100548
97	0x3b07ca53	0.002071996
98	0x3cb09577	0.021555645
99	0x3ccc2b60	0.024923027
100	0xbd564edb	-0.052321296
101	0xbcdcd435	-0.026956657
102	0xbd4632f4	-0.048388436
103	0x3d630a7c	0.05542992
104	0xbd0c995c	-0.034325942
105	0x3c903933	0.0176054
106	0xbcc3f9cb	-0.023922822
107	0xbd41c826	-0.047310017
108	0xbd0beccb	-0.03416137
109	0x3d08f801	0.03343964
110	0xbd11a393	-0.035556387
111	0x3d386776	0.045020543
112	0xbc5713e8	-0.013127305
113	0x3d2f438c	0.042789027
114	0xbd7b57b2	-0.06136293
115	0x3be32263	0.0069315895
116	0xbcc16b4a	-0.02361073
117	0xbc24a388	-0.0100487545
118	0xbce3eb7f	-0.027822254
119	0x3cc77469	0.0243475
120	0x3c13dd55	0.009024938
121	0x3d3ca198	0.046052545
122	0xba2133d0	-0.0006149383
123	0xbd6cceae	-0.057814293
124	0xbce72e1b	-0.028220227
125	0xbc0715b1	-0.008244918
126	0xbd48130c	-0.04884629
127	0xbc9e7fed	-0.01934811
128	0xbd2b2b1d	-0.041789163
129	0x3d1eb6f4	0.038748696
130	0xbcba5ed3	-0.022750294
131	0x3d0b1434	0.033954814
132	0x3d6288d9	0.05530629
133	0x3b68e7b7	0.0035538503
134	0xbd0fbee8	-0.03509417
135	0x3b564f2d	0.0032701
136	0x3cb0fc33	0.021604633
137	0xbd35dd3e	-0.044400446
138	0xbb2a0a40	-0.002594605
139	0xbcb8dd54	-0.022566475
140	0xbd0cd3de	-0.03438174
141	0xbc5c6a62	-0.013453098
142	0x3cd4ce7b	0.025977364
143	0x3d71533c	0.05891727
144	0x3b07f9e1	0.0020748305
145	0xbca9febc	-0.02075135
146	0x3cd1f18f	0.02562788
147	0xbd24162c	-0.040060207
148	0xba989b80	-0.0011643022
149	0xbb067bf0	-0.002052065
150	0x3d45501e	0.04817211
151	0x3d648c36	0.055797778
152	0xbd2b0807	-0.041755702
153	0xbce15703	-0.02750731
154	0xbc9cb0fa	-0.019127358
155	0x39efa312	0.0004570713
156	0xbc54b223	-0.012981924
157	0xbc362f76	-0.011119714
158	0x3d46fad2	0.048579045
159	0x3d5c9797	0.053855505
160	0xbd7f1528	-0.062276036
161	0x3ccbcce1	0.024877967
162	0xbd0735c6	-0.033010267
163	0xbc0120c6	-0.007881349
164	0x3d422f19	0.047408197
165	0x3cbe3ff7	0.02322386
166	0x3d1f38b7	0.038872447
167	0x3c83a225	0.016068527
168	0x3caac027	0.020843579
169	0xbc99f766	-0.018794727
170	0x3d4dc9a8	0.050241143
171	0xbca0b394	-0.01961688
172	0xbcba87a4	-0.022769757
173	0xbd6e71f2	-0.058214135
174	0x3b848f70	0.0040454194
175	0xba6e6362	-0.00090937887
176	0x3d0fd805	0.03511812
177	0xbccc366f	-0.0249283
178	0x3b809f49	0.0039252383
179	0xbc88942a	-0.016672213
180	0xbc944949	-0.018101351
181	0xbd693018	-0.05693063
182	0xbd52a1a2	-0.051423676
183	0x3c634cb5	0.013873269
184	0xbd18c4fd	-0.037297238
185	0x3c5774f0	0.013150439
186	0xbc04e560	-0.008111328
187	0x3d676dde	0.056501262
188	0x3d5fdbf8	0.054653138
189	0xbb17544c	-0.0023091016
190	0x3caa4352	0.020784054
191	0x3befc7a0	0.0073174983
192	0x3ceb5394	0.028726377
193	0x3cd9e3aa	0.026597816
194	0x3cbfea5c	0.023427181
195	0x3c834f6b	0.01602908
196	0x3b09e7d3	0.002104272
197	0xbcc972d1	-0.024590882
198	0x3d19401e	0.037414663
199	0xbd4f88c6	-0.050667547
200	0x3c081c50	0.0083075315
201	0x3d5b8d1a	0.05360136
202	0x3d69fe0e	0.05712705
203	0x3d322e70	0.043501318
204	0x3d49f00e	0.0493012
205	0xbd035234	-0.032060817
206	0x3c9b87ce	0.018985655
207	0xbc750b13	-0.014956254
208	0xbc858824	-0.016300268
209	0xbce8bf5e	-0.028411563
210	0x3d2e2682	0.042517193
211	0xbc4f88ef	-0.012666925
212	0x3caa3abc	0.02077996
213	0x3d24e47a	0.040256955
214	0x3d5bc842	0.053657778
215	0x3c0f6c82	0.008753898
216	0x3d6ff42a	0.058582462
217	0xbceba208	-0.028763786
218	0xbd51f5d6	-0.051259838
219	0xbd23b02e	-0.03996294
220	0xbbfe34c6	-0.007757756
221	0x3c353330	0.011059567
222	0xbd6b99d1	-0.057519738
223	0x3cb54a21	0.022130074
224	0xbd1a870e	-0.037726454
225	0xbd3348d1	-0.043770615
226	0x3acd7511	0.0015675147
227	0xbc03eef8	-0.00805258
228	0xbc828179	-0.015930878
229	0x3c83a972	0.016072009
230	0x3d61784d	0.05504637
231	0x3af71b40	0.0018852726
232	0x3a0f7fd4	0.0005474065
233	0xbd2641eb	-0.040590208
234	0xbcc26c85	-0.023733387
235	0xbd189f38	-0.037261218
236	0xbd6f4a00	-0.05842018
237	0x3c51d5bf	0.012807309
238	0xbb013efd	-0.0019721382
239	0xbd00b072	-0.03141827
240	0xbcef7447	-0.02923025
241	0xbb6425a5	-0.0034812477
242	0x3ce2553c	0.027628534
243	0xbd193852	-0.037407227
244	0xbbef9eb0	-0.007312618
245	0x3d00994a	0.031396188
246	0xbd5fa50c	-0.05460076
247	0x3c97966f	0.01850435
248	0xbd071cfe	-0.032986633
249	0xbc0aab38	-0.008463673
250	0x3d19a3ec	0.037509844
251	0x3d185b7e	0.03719663
252	0x3cfb1fed	0.030654872
253	0xbd2c5c5e	-0.042080276
254	0x3c301338	0.01074677
255	0x3cb7295a	0.022358585

bias f4 [4]
0	0xbcd99450	-0.026559979
1	0x3c8d1eda	0.017226625
2	0xbd69a983	-0.057046425
3	0x3d82e1f5	0.06390754
