dqn_learning/pressure/models/model_3.pth (torch, 293015 bytes, 6 tensors)

weight f4 [256, 21]
00000000: 7371 f8bc c6dc ff3d 5a02 c5bd 0561 313e
00000010: 483c 053e 55ef 4abe dd7a e53d 56a6 e03d
00000020: b2cb ca3d 65db f0bd 1adb 91bd 001c 553e
00000030: cf3f d9bd f111 183e 0da3 10bd 36f4 9fbd
00000040: 34b3 b43d 6da5 223e 072e 8f3d 6927 4cbe
00000050: 6cc5 5dbd 5003 6bbc 187b 0ebd 7d2c 143e
00000060: 5a2e 1b3e ef0e 72bc 0c60 87bd 8483 aebd
00000070: c7e8 363e 1616 17be 7d31 e0bd 855b 83bc
00000080: 02c1 3cbe 047c 083e f421 d13c 1f2f 33be
00000090: bc00 41be c07c ad3d b5d4 e4bd 158a 26be
000000a0: 4b2e 87bd aeb0 1a3e ba55 59be 1701 173e
000000b0: c2ff bdbd e65c 963c cdfa 3b3e f847 0c3e
000000c0: 8c36 f6bd 1b0d 59be 50c9 313e 0b06 4cbe
000000d0: 458f 4dbe bfda 1abe 6351 b63d 1987 f33d
000000e0: d9d5 1cbd 7964 bfbd f497 683d 920e 113e
000000f0: f883 a43d 3b54 3b3e 0cf9 c83d 25c6 123e
00000100: f2e3 bbbd 60a6 10bc 511f 4d3e 38f3 aebd
00000110: d73a 9d3d 4150 53be 9e05 393d 1f80 603d
00000120: a8fd dfbd 6b90 c73d fb17 cc3d f882 f43c
00000130: 09fc c8bd 028f 9ebb e7eb a93c ae72 05be
00000140: 8c56 51bd a0a6 38be 7f51 15be 2725 76bd
00000150: df82 a7bd 2c95 2a3e 7515 023e 23ce 3fbe
00000160: 46ab 103e b6b7 edbd b1fd 563e 4f96 033e
00000170: dcbd 073e e1c9 43bc 251e fb3d 1d0c 5c3c
00000180: b09f 8bbc 178b 71bd e639 233e 9518 3f3e
00000190: 19d4 19bc a016 e43d 6fde b6bd 507c 06be
000001a0: b555 15be 98a8 ec3c ecde 143d 6e4e fb3d
000001b0: 4410 d3bd e29a 48be bcbd fabd d632 e83d
000001c0: 0004 9cbc 7e84 ad3d 78be 20bd 5ea5 b6bd
000001d0: e142 18be 6bd5 2e3e 8028 253c 8e94 c83d
000001e0: a495 c5bd d4f7 13be 9b41 093e 90aa 72bd
000001f0: 2036 043c 00f6 a939 b887 b1bd 6278 923d
00000200: 2cd5 5abe c01a 96bd a389 50bc 9dc0 fbbb
00000210: 8917 44bd 9fd8 e3bd 437c 913b 7a3b 59be
00000220: 897a e6bd 1e88 8f3d 0d9f 75bd f71c 4ebe
00000230: fe24 4ebe aab2 87bd 5ebc 98bc d13a 4f3e
00000240: 9cab 17be 2abe 383e 625b 273e 008b 0bbd
00000250: 444d 543e 43fd 333e 90c2 963d b98b 093d
00000260: 65f9 4ebe 2fc2 413e 2490 07be 7991 c63d
00000270: 57b0 01be c5ed 183d 504d 633e d979 f13d
00000280: e167 143e db2a 27bd ec85 a6bd 9047 e5bc
00000290: 1529 493e 7f53 9e3c 3c5b b23d 6319 cb3d
000002a0: cd34 3bbe 7108 3d3d 4c06 1d3e 3fc9 05bd
000002b0: 725a cfb8 c9cf 0e3e c2d5 193e 07d5 a63d
000002c0: de20 1bbe eb45 4bbe 543d 883d af1e dabd
000002d0: 980b 23be 5e04 433d 6277 db3d f748 513e
000002e0: beee e0bd 11bf e0bd 6864 dcba 50fd d53d
000002f0: 87dc 213d a22b 86bd bc57 373e ba61 3e3e
00000300: f964 203e f3b1 debd e152 08be 0288 6e3d
00000310: c8a6 9f3d 3f1e 25be aecc 55be 8cf9 6b3d
00000320: 8d66 bf3d 7e14 053e 7960 95bc 8d8d 523e
00000330: 5e2f 24be c6c4 2e3d 0a3a 41bd 8c44 40be
00000340: 379e 533e bc76 50be 4426 9cbd 5155 10be
00000350: 2a38 233c c8ff 44bd c8f6 1d3e 0e17 d83d
00000360: 963a 453e 948a bcb9 7377 843d 08e6 9bbd
00000370: c812 06bd 1fc1 8b3d 03e9 11bd 4fe7 39be
00000380: c1fe 41be da5f 3f3e dd1b 54bd 73d7 1c3d
00000390: 4696 6b3d 79ee 2e3d 8dc2 b1bd 6fbd 3c3e
000003a0: e23a 07bd df9d 733d 3810 0f3d 78fd 003e
000003b0: ef50 7ebc 2624 843d 9d13 14bc edda 423e
000003c0: b5c8 b0bd 9127 e73d e17d aa3d 5429 f3bd
000003d0: 28f0 46be f25a eabd 1bbd 96bd 5111 3cbe
000003e0: 9438 ad3d ce29 483e 68a0 e0bd 51ba 913d
000003f0: b442 8c3c 3eaf 3b3e b0e3 72bc 366c 41be
-0.030327534 0.12493281 -0.09619589 0.17322166 0.13011277 -0.1981786 0.11205075 0.10969226
0.09902133 -0.11760596 -0.071218684 0.20811462 -0.10607874 0.14850594 -0.035311747 -0.078102514
0.08823243 0.15883417 0.06991201 -0.19936909 -0.054143354 -0.0143440515 -0.03478536 0.14470096
0.151544 -0.014774068 -0.06610116 -0.08521178 0.17862235 -0.14754519 -0.10946939 -0.01603485
-0.18433002 0.13328558 0.025528885 -0.17498444 -0.18847936 0.0847106 -0.11173383 -0.16263612
-0.066006266 0.1510646 -0.21224108 0.1474651 -0.092772976 0.018354844 0.18357392 0.13699329
-0.12022123 -0.21196406 0.17361951 -0.1992418 -0.20074184 -0.15122508 0.08902242 0.11891002
-0.03828988 -0.093453355 0.05678554 0.14165714 0.080329835 0.1829385 0.09813127 0.14333399
-0.091743365 -0.008828729 0.20031478 -0.08542484 0.076772384 -0.20636083 0.045171373 0.054809686
-0.10937053 0.097443424 0.099655114 0.029847607 -0.09813697 -0.004838825 0.02074237 -0.13032028
-0.05110793 -0.18032312 -0.1458187 -0.060094025 -0.081792586 0.16658467 0.12703498 -0.18730979
0.14127836 -0.11607306 0.20995213 0.12850307 0.1325602 -0.011949987 0.12261609 0.013430622
-0.017043918 -0.058970537 0.15940055 0.18661721 -0.009388947 0.11137128 -0.089291446 -0.13133359
-0.14583476 0.028888986 0.036345407 0.12270819 -0.10305837 -0.19590333 -0.1224322 0.11337821
-0.019044876 0.084725365 -0.039244145 -0.0891826 -0.14869262 0.170736 0.010080457 0.097939596
-0.09647682 -0.14450008 0.13403933 -0.059244692 0.008069545 0.00032417476 -0.086684644 0.071518674
-0.21370381 -0.07329321 -0.012728128 -0.0076828734 -0.047874007 -0.111253016 0.004439862 -0.21214095
-0.112538405 0.07008384 -0.059966136 -0.20128237 -0.20131299 -0.06625874 -0.018644508 0.2023728
-0.14811558 0.18041292 0.16343454 -0.034068108 0.207326 0.1757708 0.073613286 0.033580516
-0.20212324 0.18921731 -0.13238579 0.096957155 -0.12664925 0.03733613 0.22197461 0.11790819
0.14492752 -0.040812355 -0.08131012 -0.027988225 0.19644578 0.019326923 0.08708808 0.099169515
-0.1828186 0.04615063 0.15334433 -0.032662626 -9.887376e-05 0.13946451 0.15022948 0.081461005
-0.15149257 -0.1985089 0.066523224 -0.10650384 -0.15922391 0.047611587 0.1071613 0.2043799
-0.109830365 -0.10973943 -0.0016814591 0.10448706 0.039516952 -0.06551291 0.17904562 0.18591967
0.15663518 -0.10873785 -0.13312866 0.058235176 0.07795483 -0.16124819 -0.2087886 0.057611033
0.09345732 0.12996098 -0.018234478 0.2056181 -0.16033694 0.042668127 -0.04717449 -0.18776149
0.20665823 -0.20357794 -0.07624486 -0.14095046 0.009962121 -0.048095495 0.15426171 0.10551272
0.1926063 -0.00035961403 0.06468096 -0.07612234 -0.032732755 0.06823944 -0.035622608 -0.18154643
-0.18944837 0.18688908 -0.051784385 0.038291406 0.05751636 0.042707894 -0.08679686 0.18431638
-0.03301514 0.05947673 0.034927577 0.1259669 -0.015522226 0.06452207 -0.009037879 0.19028826
-0.08632032 0.112868436 0.08324791 -0.11873117 -0.1942755 -0.11443128 -0.07360288 -0.1836598
0.08458057 0.19547197 -0.10968095 0.07115615 0.01712165 0.18328568 -0.014824793 -0.18888935

bias f4 [256]
00000000: d17c 94bd 98c1 debc 90b1 ebbd e274 33bc
00000010: c2d4 44be 5613 30be bcc4 92bd a3e8 19bd
00000020: 7a78 3a3d db76 dbbd e43e f0bd 231a b9bc
00000030: 64d2 343e ead7 b93c b4d3 233e 492c 3abe
00000040: 503c b1bc e660 8f3d 5e88 3ebc e6a5 0ebc
00000050: fd3a 513e 4fec 173e 5eb0 443e 1b37 0cbe
00000060: 4dac d6bd dd7d 473c a99f 27bd 9a42 bbbd
00000070: f469 523e 5cc1 03be 72d6 35be 35ea 4bbe
00000080: e65f 1cbe 5acd b3bc 4821 b93d 7803 f7bd
00000090: 3337 173e f3e8 a1bd 5ab6 1abd eead fcbd
000000a0: 7590 82bd e56b db3b e877 27be d1e5 e43b
000000b0: e4c4 ecbd 9b8b 7bbd 3f56 fa3c 2ec3 313e
000000c0: 9f33 1dbe 8721 243d 5766 98bd 83f3 b8bc
000000d0: e4c0 cd3d 23e0 2dbd aedf bbbd c8e1 933d
000000e0: 097b c1bd d4c4 39be 8f08 183e 75e9 9e3d
000000f0: 8ad4 0e3e cea2 1d3e 3491 893d 06e9 1a3e
00000100: f880 afbd 6ec1 0a3d 9f5a 8ebd 9912 133e
00000110: 2e6f 1ebe 30c3 b8bd 3ea4 f73d e28b 183e
00000120: ab0f 933d e883 a8bd 129a 873c 02ba 5cbd
00000130: 23fb 83bc 9009 c63c c5ba 4fbe 24dc 97bd
00000140: 032b bbbd b3d2 84bd 63bc 1dbe 6c38 28be
00000150: d1ed 26be 711c 333e ae01 3bbe f5f3 313e
00000160: 44e7 533d 684c 3d3c 223c 6abd c065 dcbd
00000170: c9ec 49bd ce39 fabd 6482 25be 8d6e 183e
00000180: bd48 5abd 9389 7fbd a60d 4ebe 6e88 583e
00000190: 4727 e53d 9bb0 1dbe d5cf 18be b439 9bbd
000001a0: 5c5e 0fbe c804 9f3d c1aa 0a3e 9577 bf3d
000001b0: ea7b d6bb 3ea1 883d f8d2 13bc 9805 b1bd
000001c0: 1ce1 ba3d a1c2 723d 2d9d 913b 9115 b13d
000001d0: 0701 dcbc e69b 9b3d 2ae1 223e baea a53d
000001e0: 1e62 a1bc 3700 4b3e c994 f83d e61f 88bd
000001f0: f3a6 b5bd 8c1e 84bd 4848 1ebe c66c 4a3e
00000200: 28a9 223e 4668 bf3d 67d8 873d 6b97 3d3e
00000210: ae71 a6bd 7c6e 263d 200c 233e be2c 9f3d
00000220: 0f19 1e3e c8f6 a63d 3224 06be 48c5 54be
00000230: f773 673d 04ec 15be 0b3c 383d dc32 353e
00000240: a8f7 1e3e 380c 12bd 25b1 d7bc e3a7 f33d
00000250: 079f 43be 82b8 8f3d c0e7 f4bc 838b 073e
00000260: 4e2c 55be fc87 3dbc e2bf 2b3b 59ba 21be
00000270: e331 d73d 1b8d 173e 347f a33c 197c 013b
00000280: 7440 23be 83ad 83bd 5a90 04be aff6 233d
00000290: 64e9 68bd d5b8 0abe 25f8 00bd e459 123e
000002a0: df48 5d3c 66a3 eabd 37e3 823c 2fc5 4b3e
000002b0: ebfa 94bd d507 44bd 6a69 993d f038 503e
000002c0: df67 f93d a1e0 593e 9587 bebd 6471 5a3d
000002d0: 1b3b 623d 869c 5cbc a196 1dbd c479 583e
000002e0: b5cb b03c 9a77 1ebd 9fa1 eabd d020 50be
000002f0: 97ac 1bbe 6478 53be 6965 1d3e 1a25 743c
00000300: c2b0 f03c 011b a93a fb39 1a3d c8b5 f2bd
00000310: 2e4e a7bd 55ac 03bd 6ba1 41be 1a86 293e
00000320: 3bb6 263b 0c65 44be 083e 5abd ecad 87bd
00000330: 3517 413e d69a 063e 2886 0a3e 9385 e5bd
00000340: 0873 523e 7366 dabd 0d59 02be 0e82 1e3c
00000350: 7a59 d03d 1d50 90bd 810a ab3c 8654 2bbe
00000360: addf 23bd f280 a0bd fea5 1f3d 8c24 8a3c
00000370: c953 59be 54a4 76bd f322 6ebc c706 9fbc
00000380: 9c7c 8abd e3f7 cc3d f9a4 063e 4371 2fbe
00000390: 40c8 3f3c 3425 283d 7646 213e f572 2e3e
000003a0: 0ffd 9a3d 53c4 293d a337 50bd 6a98 71bd
000003b0: b3fc 32be 248f 49be d9d5 f2bb b52e c7bd
000003c0: 7fd5 573e 5bf8 4b3e 4442 bfbd aeff 36be
000003d0: 39d8 0c3e 9ecf 42be 63dc b9bb beca 043e
000003e0: 10d8 d1bd 86ab 503e 7ce4 263e 3031 bd3d
000003f0: 4dba 4abe baa9 ebbd 085b 373d 780a 22bd
-0.07250369 -0.027191922 -0.11508477 -0.01095316 -0.19221786 -0.17194876 -0.0716643 -0.037575375
0.04552505 -0.10716029 -0.117307454 -0.02259547 0.17658383 0.022685964 0.15998727 -0.18180956
-0.021635205 0.07000904 -0.011629192 -0.008706545 0.20432658 0.14836238 0.19207904 -0.13692896
-0.104820825 0.012176004 -0.04092375 -0.091435626 0.2054823 -0.1286673 -0.17757586 -0.19913562
-0.15270957 -0.021948505 0.09039551 -0.120612085 0.1476715 -0.0790576 -0.03777156 -0.12337862
-0.06375209 0.0066962116 -0.16354334 0.006985404 -0.115609914 -0.061412435 0.030558703 0.17359611
-0.15351723 0.040071037 -0.07441395 -0.022577053 0.100465566 -0.04245008 -0.09173523 0.07220799
-0.09447295 -0.1814149 0.14847015 0.07759372 0.13948265 0.15394136 0.067171484 0.15127954
-0.08569521 0.033875875 -0.06950878 0.14362563 -0.15472099 -0.09021604 0.120918736 0.14897111
0.07180723 -0.08228284 0.016552959 -0.05388833 -0.016110962 0.024174482 -0.2028609 -0.07415035
-0.09139063 -0.064855 -0.15403895 -0.16427773 -0.16301657 0.17491318 -0.1826236 0.17378218
0.051734224 0.011553861 -0.057186253 -0.10761595 -0.04929808 -0.122180566 -0.16163021 0.14885922
-0.053292025 -0.06238706 -0.20122394 0.21145794 0.11189132 -0.15399401 -0.14923032 -0.075793654
-0.14000839 0.07764584 0.135417 0.0934898 -0.0065455334 0.066713795 -0.009022467 -0.08643645
0.091249675 0.059267644 0.0044437856 0.086466916 -0.026855959 0.07598095 0.15906206 0.08101411
-0.019700106 0.198243 0.121377535 -0.06646709 -0.08869734 -0.06451139 -0.1545726 0.19768056
0.1588484 0.093460605 0.06633072 0.18514793 -0.081271514 0.04063271 0.15922594 0.07772206
0.15439247 0.081525385 -0.13099745 -0.20778382 0.056507077 -0.14640814 0.044979136 0.17695183
0.15524161 -0.035656184 -0.026329586 0.11897256 -0.19103633 0.07017614 -0.029895663 0.13236813
-0.20817682 -0.011568066 0.00262069 -0.15793742 0.10507562 0.14799921 0.019958116 0.0019757806
-0.15942556 -0.06429579 -0.12945691 0.040030178 -0.056863204 -0.1354707 -0.03148665 0.14292103
0.013506143 -0.11456947 0.015977485 0.19899438 -0.07274421 -0.04785903 0.07490809 0.2033422
0.12178015 0.21277095 -0.09303204 0.053330794 0.05523215 -0.0134650525 -0.03847373 0.211402
0.02158151 -0.03868828 -0.11456608 -0.20325017 -0.15202557 -0.20651394 0.15370716 0.014901424
0.02938116 0.0012901725 0.03765295 -0.11851078 -0.081692085 -0.03214677 -0.18909232 0.16555062
0.0025438208 -0.19179171 -0.053281814 -0.0662497 0.18856509 0.13145003 0.13527739 -0.11207118
0.20551693 -0.10664072 -0.12729283 0.009674562 0.10173316 -0.070465304 0.020879032 -0.16731462
-0.040008236 -0.07837094 0.03897666 0.01686313 -0.21223368 -0.06021531 -0.0145347 -0.019412411
-0.067620486 0.10008218 0.1314887 -0.1713305 0.011705458 0.041051105 0.15749535 0.1703604
0.07567798 0.041446995 -0.05083431 -0.058983244 -0.1747921 -0.1968351 -0.0074107465 -0.097257055
0.21077536 0.19918959 -0.09338811 -0.17870972 0.13754357 -0.19024512 -0.005672024 0.12967965
-0.10246289 0.20377931 0.16298097 0.092378974 -0.1979763 -0.11506982 0.04476455 -0.039560765

weight f4 [256, 256]
00000000: 3bcf 52bd e07d 6bbd 5726 ba3c 5850 04bd
00000010: 22f1 5fbd 56a8 74bd 4346 adbc c135 4abb
00000020: ed88 a93c cef5 763d 497f 4cbd 5dbd 62bd
00000030: 54e5 4c3d 5a88 573a e4cb 0e3c 5f25 773d
00000040: 5917 153c dc37 7a3d 6b45 ccbb 567b 33bd
00000050: d65a d8bc 1d7e 8a3c 8687 b3bc c695 37bd
00000060: 0cae 023d 2814 15bd 91ef ba3c 5033 ed3c
00000070: afd3 f4bc a65b 9fbb 6d2d b53c 2826 053c
00000080: 4c5b 803d 232b 4abd 82e9 c03b e698 743d
00000090: 692a d2bc cdf9 43bc 9d2c 6dbc a071 31bd
000000a0: cda3 4f3d a893 5a3d d1c5 80bc 65cd cd3b
000000b0: ea3e 163b 62b9 ca3c e5c5 fdba 199c 3b3c
000000c0: cd4e 08bd 28a9 e8bb b9bc 6a3d d7b5 1b3d
000000d0: 727f afbc 1222 623c 4d46 69bd 02aa 71bc
000000e0: 0699 833d 5c01 ad3c 45db 9ebc c943 a2bc
000000f0: fbe1 3bbd 0121 5abd 2f55 9a3a 3230 03bd
00000100: af79 493d 228b 35bb 6e70 003d a56b 9ebc
00000110: e018 903c 7f3d 583d b55f a93c 1d19 2f3d
00000120: cb58 85bb d0ab 07bc 88ee 48bd 8037 a6bc
00000130: f87b 883d 2aa1 7a3d c54c 543d fb84 3ebd
00000140: 1f68 acbc df03 cabc 032b 6b3d e206 13bd
00000150: 6dc1 10bc 1912 833d b456 4bbd 47b6 5fbd
00000160: ec8d 8fbc c334 67bd 2fde 96bc d434 15bd
00000170: eec5 5d3d 2eb2 583d 77f8 633c 1362 e53b
00000180: d1ec 09bd 4548 823d e376 823d 4ee0 a2bb
00000190: db24 dd3c 2b93 6e3c 9350 333d e2c3 6e3d
000001a0: 5ec3 083d 8b5e b23c 05d6 013d 4309 463d
000001b0: fe2f cc3c 94f9 7cbb 0c1f 27bd 30ae 02bd
000001c0: b778 51bd bae5 023d f91a f73c 3437 b73c
000001d0: 9799 e1bc 3061 64bd f192 3dbd 0a82 d8bc
000001e0: 9dc4 853d 4662 23bd 9211 f63c 0a70 573d
000001f0: 5e6b cb3c f882 593c 3963 34bc d691 febc
00000200: 031e c9bc 30bf b33c a61f 2cbd 3cb4 d9bc
00000210: 0619 303d 9f53 183c af4c 4abd aca6 7cbb
00000220: 74ec 5e3d 3707 823d e19a 27bd da24 683b
00000230: c7e5 d2bc b49f 0f3d 928b 2d3d d0f6 4d3d
00000240: 4070 673d 184f 35bd 02c0 8a3c 3e8d 73bd
00000250: d842 423d 92dd 6e3b 2a55 61bd de80 3ebd
00000260: 0cff 5f3d 5f40 18bd be89 803d 2a56 23bc
00000270: b6ec 17bd 22d0 3f3d 42a9 4e3d adfd 0dbd
00000280: 59d6 4dbd 11d6 03bd 42da 65bd 8e19 d1bb
00000290: 2879 7abc 3f46 cfbc 594e 313d 2fb4 69bb
000002a0: 824e 873d 7ab9 333d 933f 173d 11b4 683d
000002b0: bcd3 50bc 14a0 543d 5b35 463d cb97 a93c
000002c0: 4583 593d 43a6 3cbc 177e d4bc 1c7c cb3c
000002d0: c26a 253d 8c15 edba 2034 49bd 588b 413d
000002e0: 16b4 6c3d 8c0f f63c 1803 3b3d 4f93 61bd
000002f0: b4a4 143b 8cfd 2fbd 9c59 223d 2dbf 21bd
00000300: 43e9 49bd bd7a dabc cb3b 0cbd 02b2 203d
00000310: c1f0 c4bb 1a6e 65bd 73c1 c739 c407 883d
00000320: c452 483d 00be 58b9 5a2e 0b3c 6a67 533d
00000330: 8fad 753d 6670 d8bc 81a2 47bd 26da 703d
00000340: 7d13 5cbd 919e 74bb 6f70 393d f34b 193d
00000350: 833a 90bc eef9 143d 2887 eaba f290 3ebd
00000360: e04c c4bc a538 0d3d 30f6 86bc 511a 57bc
00000370: c849 23bc 3ebb 23bd 5eaf c73c 59a9 1b3d
00000380: b594 ae3c 6bd5 473d 05d9 d8bc 160b 24bd
00000390: 2928 30bd 2af9 413d d23d 203d c41b 6f3d
000003a0: 3345 9c3c b19c 0e3d e2b3 313d 91d4 163c
000003b0: 408c 9cba 6661 033d 2392 bf3b a701 e13c
000003c0: 48d2 5d3d 9954 a13a f9bb 17bd 5ade ba3c
000003d0: ec5c 3fbd 883f e23c aed1 50bd cf5b 653d
000003e0: f9ba 34bd eeb0 693d c4d1 09bd bd30 1d3d
000003f0: 41cb 863d 4e59 4d3d 38c5 10bd bf3f 323c
-0.05146716 -0.05749309 0.02272336 -0.032303184 -0.05467332 -0.05973085 -0.021151667 -0.0030854794
0.020695174 0.06029301 -0.049926076 -0.055356372 0.05002339 0.0008221917 0.0087156035 0.060338374
0.009099805 0.061088428 -0.006233861 -0.043818794 -0.026410501 0.016905839 -0.021915209 -0.04482057
0.031904265 -0.036396176 0.022819312 0.028955132 -0.029886095 -0.0048632203 0.022116387 0.008126773
0.062674135 -0.049357545 0.0058872113 0.059716128 -0.025654988 -0.011961413 -0.014475969 -0.043321252
0.050693322 0.053363472 -0.015719326 0.0062805885 0.0022925683 0.0247466 -0.0019361345 0.011450791
-0.033278275 -0.007100243 0.057308886 0.038015213 -0.021423075 0.013802068 -0.05695181 -0.014750006
0.06425671 0.021118812 -0.019391665 -0.019807713 -0.04586981 -0.05325413 0.0011774654 -0.032028385
0.049188312 -0.0027701338 0.03135722 -0.019338438 0.017589986 0.052793022 0.02067552 0.04274856
-0.004069423 -0.008280709 -0.049055606 -0.020290136 0.0666427 0.061188854 0.051831026 -0.04651354
-0.021045743 -0.024660049 0.057414066 -0.035895236 -0.008835179 0.06399936 -0.049643233 -0.054617193
-0.017523728 -0.056446802 -0.018416492 -0.036427334 0.05414384 0.0529043 0.013914219 0.0070002167
-0.03367311 0.063614406 0.06370332 -0.004970587 0.026995113 0.014561455 0.043778013 0.058292277
0.03338944 0.021773597 0.031698246 0.048348676 0.024925228 -0.0038600909 -0.040801093 -0.0319044
-0.051140513 0.031957366 0.030164229 0.02236519 -0.027539058 -0.055756748 -0.046282712 -0.026429195
0.06531642 -0.039888643 0.030037675 0.052597083 0.02483147 0.013275854 -0.011009985 -0.0310754
-0.024550444 0.021941751 -0.04202237 -0.0265752 0.042992614 0.009297281 -0.049389537 -0.0038551493
0.054424718 0.06349032 -0.04091919 0.0035422356 -0.025744332 0.035064414 0.042369433 0.050284207
0.056503534 -0.044264883 0.01693726 -0.05946087 0.04742703 0.0036447984 -0.05501286 -0.046509616
0.05468659 -0.037170764 0.06276272 -0.009969274 -0.03709098 0.04682935 0.050454386 -0.034665752
-0.050253246 -0.03218657 -0.05611635 -0.00638122 -0.015287675 -0.02530205 0.04328761 -0.0035660376
0.06606771 0.043878056 0.036925863 0.05681235 -0.012745794 0.051910475 0.048390727 0.020702263
0.053103704 -0.011514249 -0.02593903 0.024839453 0.040385015 -0.0018088087 -0.049121976 0.04725203
0.05778893 0.03003671 0.045657247 -0.055072125 0.0022681179 -0.04296641 0.03963624 -0.03948896
-0.04929472 -0.026669854 -0.03423671 0.03923226 -0.0060101454 -0.056013204 0.0003810037 0.06642106
0.048907056 -0.00020670146 0.008494938 0.051612295 0.05997997 -0.026420783 -0.04873896 0.058801793
-0.053729523 -0.0037325958 0.04527324 0.037425946 -0.017606026 0.036371164 -0.0017893063 -0.04652495
-0.023962438 0.03447785 -0.016474813 -0.013128833 -0.009966321 -0.03997349 0.024375614 0.0380033
0.021311143 0.048787516 -0.02647067 -0.040049635 -0.04300705 0.047356762 0.039121456 0.05837609
0.019075966 0.0348174 0.04338444 0.009205953 -0.0011943653 0.03207531 0.0058462783 0.027466608
0.054155618 0.0012308537 -0.0370445 0.022811104 -0.046719477 0.027618185 -0.050981216 0.05599576
-0.044123624 0.0570535 -0.033647314 0.03837656 0.06581736 0.050133996 -0.035344332 0.010879456

bias f4 [256]
00000000: 516e 7f3d c3e7 413c 3ac4 5abd ba03 5a3d
00000010: 4655 603d 62e1 efbc 2765 42bd f9a5 41bd
00000020: 9439 4b3d e654 59bc a3f0 4cbd 8efc 5d3d
00000030: a50e 063d 2a0a 243d 3b72 923c 7429 83bc
00000040: 896b 5cbb a3c6 54bd 035b 6bbb c81a bc3c
00000050: d8ce d4bc f168 803d 5e76 e8bc c482 52bd
00000060: 9a93 6e3c 81bf 1abd 0968 023d 825e 62bd
00000070: 8a22 1c3d 1c40 41bd 09cb 5c3d 896d 403d
00000080: 68dd 72bd fdda 563d 8e3f 1bbb c13e e23c
00000090: 81e7 99bc bbaa 6ebd aa69 4f3d 720e 79bd
000000a0: c73f 2d3d 40ea 733c bbfe 743d 0a0b 4bbd
000000b0: ab06 713d e8de 093d 2d5f 023d bcbc f5bc
000000c0: cf2d e03a 150d e03c f876 fc3c d868 253c
000000d0: c65b fa3c 4fbd abbc 28ae ab3b 8d6f 77bd
000000e0: 1cb9 8f3d f6e2 3dbd 386d cb3c 6043 5dbd
000000f0: 6e11 1ebb dc2f 00bb 297c 313c 992b eb3b
00000100: 021a 503d efaf b8bc f5d6 60bd 34c5 b13c
00000110: e68a 6dbd 579b a03b e86a 853d 041d 723d
00000120: c572 ff3b 64df 1d3d a6f2 1abd 6b1e f1bb
00000130: 4897 723c 17b5 bbbc 0695 d0bb 329d 2c3d
00000140: b050 39bd 4e29 a53c 5a09 173c a385 363d
00000150: 6dc6 59bc 6bfd 98bc 6e07 283d f452 ca3a
00000160: b07d 1abd ecfe 15bd e5ae 9cbb 7d7c 553c
00000170: 2b28 8d3c bfaf bfbc cd73 783c 5a51 5fbd
00000180: 282f 4bbd 51ca fdbc 68e2 763d 4074 b63c
00000190: 4be5 cabb 8e11 72bd 1664 d6bc bba6 f23c
000001a0: 382e e6bc 718c 143d 64aa 443c 21cf 6dbb
000001b0: 0437 adbc 0c52 1fbd 9781 143d d447 623d
000001c0: e30e 5ebd 5097 fbbb 9c48 0bbd 5aa3 803d
000001d0: 8789 22bd 3ced 18bd c7b6 523d 7852 603d
000001e0: 5b04 2bbc 0130 023c e870 4fbd e5c7 86bc
000001f0: 1725 e2bc 7018 0a3c c9fd d5bc 1770 063d
00000200: 93d0 333d 29d0 abbc 7e4b 6abb 7a86 833d
00000210: a609 5d3b c0ba 51bc 2626 3c3d 5a55 22bc
00000220: bbec 7c3d fe3f 803c e558 1ebd 2de1 e23b
00000230: ae25 153d 2563 f9bc 3299 1b3d f411 e03b
00000240: 24ce 1e3d 2647 da3c 824d 87bb f979 7d3c
00000250: 9025 0bbc da58 4b3d 7017 21bb 4fcf 1b3d
00000260: 3795 bcbc 985b 4f3d 59b0 ea3c fff3 03bd
00000270: fcb6 503d cda6 973c 94bb 76bc 74d0 f6bc
00000280: 9289 aebc 5c0d 583d 58e7 8abc d6d1 233b
00000290: e6e7 b53c 14c7 213d 5c7c e1bc ab44 ea3c
000002a0: ab51 45bd 08ca 2ebc 111b b23c 1232 a43c
000002b0: cca0 90bc ce05 27bd 6df6 493d 82ec 1dbd
000002c0: 9d27 b93b 24e5 7ebd e2e7 403c bccb 263c
000002d0: b7b0 1ebd d375 38bd 38b8 02bd a1c3 90bc
000002e0: f31e 673c 06c2 50bc 6642 e93c e08b 66bd
000002f0: d656 2abd 45b0 2b3d e835 453c b095 8dbc
00000300: 01d1 34bd 9b24 d83c 383a 48bd e8a7 13bd
00000310: fc88 03bd 4abb 27bd f5c5 4abd 8f14 1a3c
00000320: 04d7 b5bc 8364 633d a000 f9bc a41c ce3c
00000330: 9d5f 80bd 6300 d9bc b8cf 983c ca4e bbbb
00000340: 7050 c43c 281d 3c3d 5e8e 293d 8821 b2bb
00000350: cd1c 68bd 3290 1dbd b268 6abd bc27 043d
00000360: a5a3 7c3c 6319 143d 69a2 4f3d b231 7abd
00000370: 6a77 5ebd 592e 8dbc 5f3a 5e3d dcb1 763d
00000380: 0872 b23b 3751 8abb e28e 803c a084 333d
00000390: e8f5 093d c1e7 473b f582 a2bb c3d6 e63c
000003a0: 36fa 083d 89af f43c 8ec9 523d 15b9 cbbb
000003b0: 7a7a e3bc 995b e73c 9bdf afbc 49f8 bfbc
000003c0: 971e 6f3d ad20 2d3d 1a41 79bb b690 ae3c
000003d0: 9629 39bd baa8 5abd 4fb7 18bd 8997 4aba
000003e0: 349b 643d 4d84 fbbc 30bc 56bd b330 fcb9
000003f0: fa16 bb3b 2091 cabc 7a91 64bd c27f 3dbc
0.062361065 0.011835041 -0.053409792 0.05322621 0.054768823 -0.029282276 -0.047459748 -0.047277424
0.049615458 -0.01326487 -0.050034177 0.054195933 0.03272881 0.040048756 0.017876735 -0.016010977
-0.0033633432 -0.051947247 -0.0035912402 0.022961989 -0.025977537 0.06270016 -0.028376754 -0.05139424
0.014561558 -0.03778029 0.031837497 -0.05526591 0.038118877 -0.04718028 0.053904567 0.04697946
-0.05929318 0.052454937 -0.0023689005 0.027617814 -0.018787147 -0.05826829 0.05063788 -0.06080479
0.04229715 0.0148873925 0.059813242 -0.049571075 0.05884425 0.033659846 0.031829048 -0.029997222
0.0017103496 0.027349988 0.030818447 0.0100957975 0.03056134 -0.020964293 0.005239267 -0.060409117
0.07017729 -0.046359025 0.024832353 -0.054019332 -0.0024119276 -0.0019559776 0.010832825 0.007176828
0.050806053 -0.02254483 -0.0548925 0.02170048 -0.057993792 0.0049013305 0.065145314 0.059109703
0.007795664 0.03854312 -0.037829064 -0.0073583624 0.014806576 -0.022913499 -0.006365421 0.0421421
-0.045242965 0.020161297 0.009218538 0.04456104 -0.013291937 -0.018675527 0.04102271 0.0015436099
-0.03771752 -0.036620066 -0.0047815912 0.013030169 0.017231068 -0.023399232 0.015164328 -0.054520942
-0.04960552 -0.030980261 0.06027451 0.02227223 -0.0061918846 -0.059098773 -0.026170772 0.029620519
-0.02809821 0.036266748 0.012003515 -0.0036286789 -0.021144398 -0.038896605 0.0362564 0.055244282
-0.054213416 -0.00767795 -0.034004793 0.06281157 -0.039681938 -0.03733562 0.05144384 0.05476615
-0.01043805 0.007946015 -0.050644785 -0.016452739 -0.027605576 0.008428678 -0.02612199 0.03282174
0.043900084 -0.020973282 -0.0035750563 0.06422134 0.0033727675 -0.012800872 0.04593482 -0.009908045
0.0617492 0.015655514 -0.038658995 0.0069238157 0.036412887 -0.030442784 0.037987895 0.0068380777
0.03877081 0.026645254 -0.0041291127 0.015470975 -0.008492842 0.049645282 -0.002458062 0.0380395
-0.02302037 0.05062446 0.028648542 -0.032215115 0.050955757 0.018512154 -0.015059371 -0.030128695
-0.021305833 0.052747115 -0.016956016 0.0024996898 0.022205304 0.039496496 -0.02752512 0.028597197
-0.048173588 -0.010668285 0.021741422 0.020043407 -0.017654799 -0.04077702 0.049307276 -0.03855563
0.005650474 -0.062230244 0.011774035 0.01018041 -0.038742747 -0.04503424 -0.031913966 -0.017671408
0.0141065 -0.012741571 0.028474044 -0.05628574 -0.04158672 0.04191615 0.012036778 -0.01728329
-0.044144634 0.026384642 -0.048883647 -0.0360488 -0.03211306 -0.040950097 -0.049505193 0.009404316
-0.022197254 0.055515777 -0.030395806 0.025160141 -0.06268237 -0.026489442 0.018653736 -0.0057161795
0.023964137 0.045926243 0.041395538 -0.005436126 -0.05666809 -0.038467593 -0.05722875 0.032264456
0.015419875 0.036157023 0.050691996 -0.06108255 -0.0543131 -0.017234014 0.054254886 0.060228214
0.0054457225 -0.0042211073 0.015693132 0.043827653 0.03368178 0.0030503126 -0.004959459 0.028178578
0.033441745 0.029868858 0.05146175 -0.006217132 -0.027768362 0.02824192 -0.021468928 -0.023433821
0.058378782 0.04226749 -0.0038033188 0.021309238 -0.045205675 -0.053383566 -0.03728419 -0.0007728269
0.055812076 -0.030702734 -0.052425563 -0.0004810147 0.005709526 -0.024727404 -0.0558028 -0.011566104

weight f4 [4, 256]
00000000: 0283 f03c 28cf 163c 4e76 09bd 07c7 7d3d
00000010: 87ed a9bc c2b6 eb3b e830 f2bb 0777 e13b
00000020: 0544 523d db47 c13c 037e d93c 36fa 68bd
00000030: fc8e 32bd b881 a43c 30b7 f03b fa06 7f3d
00000040: fc17 383d 0751 79bd c499 f63c 2d55 dbbc
00000050: d061 9cbc 107d 843c ec31 bcbc acc3 373d
00000060: c2a5 223d b33a 673d 4468 863c 6622 703d
00000070: 2144 24bd 6501 df3c acc5 0bbd 2a48 893b
00000080: 148c 3a3d f5e1 57bd 1bd3 02bd af33 3f3d
00000090: 5964 3d3d 29d5 d43c 8ec8 043d 70cc 213d
000000a0: 0808 66bc 0096 afba f88a 913c b01d f8bc
000000b0: b020 673d f746 f3bc 4cea 513d a88f e13c
000000c0: 85fe 0ebc 1825 713d 5b09 e23a 6460 113d
000000d0: 9d33 813d dcba 1a3d f5f1 cabc 5bee d23a
000000e0: 91c9 183d ba42 623d c124 eb3c d82e 63bc
000000f0: 3334 9bbc 1ed0 5a3d 243b 703b f648 45bd
00000100: c124 71bd 2aa7 9d3c 34e1 33bd 3e7a e7bc
00000110: b60b ac3b baef 833c 20dd d8bb 2c9d 643b
00000120: bc83 fe3c 4f8a 23bd 8bd9 a4bb d5ec 33bc
00000130: ba41 31bd 036a d6bb 142c 253d ac3a 133d
00000140: 10b2 133d 08c5 043c 8560 06bd e1f8 983c
00000150: 4fbf 7d3b f646 3fbd e29c 7c3d 8053 60bb
00000160: 94d6 353d 1863 a93c 65de 6d3b ac6a 353d
00000170: 58be 253d d87f 1e3c a227 9e3c 88d5 5bbc
00000180: ca73 73bd a46a 843b 5178 bf3c 602b cc3c
00000190: ad45 4dbd df41 d0bc fa79 43bd 7c0a 633d
000001a0: 5c99 0cbd 0828 a13c 6adc babc 26c8 41bd
000001b0: a5e6 05bd ef5e 113d 3474 0abd 5d91 3e3d
000001c0: e813 57bc 8c43 2f3d 3f9b 75bd 120d 023c
000001d0: d144 b0bc 88a3 24bc e87e dfbc 7c6a d33c
000001e0: 32dd 1a3c ed93 423d af5d 9cb9 a9b0 64bd
000001f0: a4ae e3bc 5e0f f6bb 125a 45bd 80ff 8dbc
00000200: 7862 24bd ad7e 203d 6004 b8bc a13a 133d
00000210: 3053 673d 739d 8f3b a504 0dbd a429 ab3b
00000220: fd3b c03c d961 2cbd fe5e f9ba 54dd b8bc
00000230: 001a 06bd 0c26 40bc 692d e73c 3c53 713d
00000240: 3455 2c3b 4cf3 a1bc a586 d63c 5b95 21bd
00000250: 809b 98ba ec8e b9ba 7f75 483d 368c 643d
00000260: a368 23bd d6ac e0bc 6185 98bc 0d09 273b
00000270: 976c 4fbc 1d25 30bc 19cd 4f3d c131 5e3d
00000280: 3ca8 78bd f363 d93c c635 07bd fc6f bbbb
00000290: c0ee 4b3d c405 c03c c620 283d 6e1e 893c
000002a0: 287c af3c 543e 92bc a189 4f3d d2e6 9cbc
000002b0: a487 babc 2ce5 6bbd 71b7 bc3b 3c65 47ba
000002c0: 8e41 173d ef24 cabc ae37 ca3b 60a5 7fbc
000002d0: 2802 84bc 1830 69bd 324b 4cbd 25b0 733c
000002e0: 7c4e 15bd f074 573c 0ce4 f4bb de6d 673d
000002f0: f8db 5f3d 295c d7b9 470c b93c a0c7 ef3b
00000300: 9453 eb3c 6636 df3c 5cea bf3c f97a 923c
00000310: cb6c 223b df49 b9bc 1a82 1b3d 1a1d 4fbd
00000320: 501c 083c fa9d 623d 7529 723d d4d4 393d
00000330: 0ef0 493d 3b92 01bd b938 9f3c cecb 57bc
00000340: 2488 85bc b8f4 e7bc fe91 353d d4de 41bc
00000350: bc3a aa3c 7ae4 243d 3b88 5d3d 31be 1e3c
00000360: 862e 773d ecb3 ddbc a84c 4cbd 45de 20bd
00000370: 0a35 f0bb e106 3e3c be44 68bd 2ea1 bb3c
00000380: 4b27 19bd a6ab 2bbd 21dd eb3a ab08 d0bb
00000390: cb7a 63bc aaef 8b3c 6fcd 663d 401b f73a
000003a0: 59ce 193b 0404 1fbd 390b b2bc 389f 18bd
000003b0: dd46 6abd 739b 5d3c 8ff7 64b6 5fff fabc
000003c0: fa6c e1bc aa40 b4ba 3c55 e23c 3b51 17bd
000003d0: b09e efbb 4a99 003d b429 5ebd 9c10 983c
000003e0: 8cad 04bd 38ab 0abc eca3 193d 7e5b 183d
000003f0: e68d 023d 84bf 29bd 3813 303c 5216 c43c
0.029359344 0.009204663 -0.03356009 0.061957385 -0.020743145 0.0071934173 -0.007391084 0.0068806442
0.0513344 0.023593834 0.026549345 -0.056879245 -0.04359339 0.020081386 0.0073460564 0.062262513
0.04494475 -0.06086829 0.030102618 -0.026774013 -0.01908961 0.016172916 -0.022973023 0.04486434
0.03970886 0.056452464 0.01640714 0.058626555 -0.040104035 0.027222345 -0.03412406 0.004189511
0.045543745 -0.052705724 -0.031939607 0.04668015 0.046238277 0.025980549 0.032417826 0.039501607
-0.014040001 -0.0013396144 0.01776646 -0.030287594 0.056427658 -0.029696925 0.051248834 0.027534321
-0.008727674 0.058873266 0.001724522 0.035492316 0.063086726 0.03777586 -0.024773577 0.0016092764
0.037301604 0.055239417 0.028704049 -0.013866149 -0.018945789 0.053421132 0.0036656344 -0.048165284
-0.058872942 0.01924475 -0.043915942 -0.028256532 0.0052504195 0.016105521 -0.006618157 0.003488372
0.031068675 -0.039926823 -0.005030816 -0.010981758 -0.043275572 -0.0065433993 0.04032524 0.035944626
0.036058486 0.008103617 -0.032806892 0.018673362 0.0038718765 -0.046698533 0.061673053 -0.0034229457
0.04439409 0.020677134 0.0036295888 0.044291183 0.04046473 0.009674035 0.019306008 -0.013417609
-0.059436597 0.004041033 0.023372801 0.024923027 -0.050115276 -0.025422035 -0.047723748 0.05542992
-0.034325942 0.019672409 -0.02281018 -0.047310017 -0.032690663 0.035490926 -0.033802226 0.046525348
-0.013127305 0.042789027 -0.059962507 0.0079376865 -0.02151719 -0.0100487545 -0.027282193 0.025807612
0.009452151 0.047504354 -0.00029824438 -0.05583254 -0.027793236 -0.007509156 -0.0481816 -0.017333746
-0.04013297 0.039183307 -0.022463024 0.035944585 0.05647582 0.004382783 -0.034428257 0.00522347
0.023466105 -0.042085502 -0.0019025502 -0.022566475 -0.03273964 -0.011727821 0.028219895 0.05891727
0.0026295902 -0.019769333 0.02618725 -0.039449077 -0.0011643022 -0.0014156974 0.048940178 0.055797778
-0.03989471 -0.027426165 -0.018618288 0.0025487572 -0.012660167 -0.010751036 0.050732706 0.054246668
-0.060707316 0.026536917 -0.033010267 -0.0057201367 0.049788237 0.02344025 0.04104688 0.016738143
0.021421507 -0.017851986 0.050668363 -0.019153032 -0.022769757 -0.057591602 0.0057591726 -0.00076063327
0.036927752 -0.024675814 0.0061711883 -0.015603393 -0.01611431 -0.05693063 -0.0498764 0.014873539
-0.0364518 0.013150439 -0.0074734744 0.056501262 0.054653138 -0.0004107666 0.022588862 0.0073174983
0.028726377 0.027247619 0.023427181 0.017880904 0.0024784084 -0.022618232 0.03796587 -0.050564863
0.0083075315 0.05532644 0.059121568 0.045368984 0.0493012 -0.031633597 0.019436227 -0.013171149
-0.016300268 -0.028314933 0.044328682 -0.0118329115 0.02077996 0.040256955 0.054084998 0.0096889
0.060347103 -0.027063332 -0.049877793 -0.039274473 -0.0073305415 0.01159832 -0.056706183 0.022904005
-0.03739099 -0.041911744 0.0017994979 -0.0063486896 -0.013884257 0.017082054 0.05634826 0.0018852726
0.002346894 -0.03882219 -0.021733867 -0.037261218 -0.057196487 0.0135258315 -3.4118746e-06 -0.030639349
-0.027517784 -0.0013752182 0.027628534 -0.0369427 -0.007312618 0.031396188 -0.05423899 0.018562607
-0.03239207 -0.008463673 0.037509844 0.03719663 0.031873606 -0.04144241 0.01074677 0.023936424

bias f4 [4]
00000000: c870 cdbc becb a23c 2459 5cbd 64b8 8b3d
-0.025078192 0.019872542 -0.05379595 0.06822279
