dqn_learning/speed/models/modelstatedict_4.pth (torch, 292191 bytes, 6 tensors)

net.0.weight f4 [256, 21]
0.12248158 0.011944488 0.020289518 -0.09261258 0.1893188 -0.0063178292 0.16659804 -0.0011498336
-0.11026069 0.17762786 0.08390228 -0.036420684 -0.087790065 -0.12025805 0.21337679 -0.16797158
-0.16603357 0.020615986 0.20936795 -0.002068006 0.096328385 0.14744563 0.16292615 -0.06931192
0.15181856 -0.13769247 0.0028294926 0.03897915 0.00022838537 -0.017865518 0.11357406 -0.0874673
-0.14056002 0.20529959 -0.18713444 -0.16666459 -0.1964579 -0.12555268 -0.012827434 -0.2145049
-0.14240396 -0.1580478 0.10958545 0.20330156 -0.08976739 -0.08389116 0.15395293 -0.14249688
0.06805328 0.044770785 -0.062345974 0.007867127 0.11564421 0.042647216 0.012601311 0.08985418
-0.13133338 0.22550924 0.14570045 -0.08491457 0.04009662 -0.15877579 0.16682501 -0.021481449
-0.115108036 -0.16965513 -0.08763752 -0.13394512 0.1411991 -0.13743123 -0.16242269 -0.096766815
0.21773088 -0.01110019 0.10423264 0.1295293 -0.0062425067 -0.014674776 -0.06399638 -0.14717147
-0.094174236 -0.11139203 0.15536019 -0.01477388 0.017843982 0.06397832 -0.022189654 -0.13479295
0.19217294 -0.070023514 -0.046636414 -0.11467556 0.11069894 -0.14245437 0.109578215 -0.10100909
0.08407006 0.06522604 -0.18134996 -0.13301829 -0.21569441 0.104290076 0.12848413 0.016271735
0.13951635 -0.055296775 0.20586275 0.21442305 0.09119095 0.21114893 0.013279268 -0.15393792
-0.10055384 -0.11139424 0.21120289 -0.030687893 -0.044827417 -0.15509516 0.036137145 -0.07236853
-0.16627283 0.06377228 0.12236212 -0.08900124 -0.057690676 0.06433847 0.11279632 -0.18884882
0.009085014 0.023731038 -0.08271605 0.03550569 0.04203597 0.071744256 0.16410369 -0.026044158
-0.19735678 -0.20610286 0.07761399 -0.15176499 -0.18783654 -0.03213815 -0.18588775 0.14799257
-0.118943885 0.091365956 0.052236076 0.04860662 -0.15713057 -0.11578162 -0.14278337 0.1739051
0.15178736 0.00079274573 -0.023573967 -0.13546976 0.109326124 -0.07192001 -0.17819475 0.14838165
-0.064233825 0.11132993 0.054141887 0.013780007 0.11249013 0.062418412 0.120157026 0.18449473
-0.107701614 0.08998273 0.19183053 -0.053120926 0.1675435 0.064604245 -0.04342399 -0.0518184
-0.061636277 -0.117402665 -0.14387542 0.11116935 -0.07342635 0.13561249 0.0107216975 -0.071117885
-0.0011356412 -0.21218814 -0.15171833 -0.13228165 -0.0980462 0.21459313 -0.174153 -0.14895025
0.17972188 0.20808938 0.13722047 0.111171745 -0.14692661 -0.038177025 -0.20726296 0.2108047
0.01942657 0.101224095 0.1636634 0.14779866 -0.17047228 -0.18098152 0.041106977 0.17598945
0.22482257 0.110347755 0.20913792 0.089949764 0.12868588 0.10371645 0.07832143 -0.04017102
0.14533426 0.14992855 0.17429687 -0.12633616 0.1545789 0.024606502 -0.08746327 0.07649837
0.008466776 0.05358557 -0.0096790735 0.14820367 0.08604174 0.033805244 0.14529893 -0.1438997
0.07589874 -0.18937369 -0.20863278 -0.085685566 0.14627294 0.0026557578 -0.10234074 0.14984141
0.21172205 0.1741331 0.039172553 -0.0055106664 0.16445427 0.038572766 0.037472267 -0.044244714
-0.1607058 0.09755632 -0.09161999 0.1966316 -0.13105626 -0.12957306 0.13282274 0.1891843
00000000: 9fd7 fa3d d0b2 433c 3436 a63c aaab bdbd
00000010: cadc 413e cb05 cfbb ad98 2a3e 03b6 96ba
00000020: 5bd0 e1bd 14e4 353e f5d4 ab3d db2d 15bd
00000030: 47cb b3bd da49 f6bd 727f 5a3e be00 2cbe
00000040: b404 2abe dbe2 a83c 8d64 563e 6287 07bb
00000050: d147 c53d fdfb 163e 1dd6 263e 68f3 8dbd
00000060: 5376 1b3e 41ff 0cbe 026f 393b 9aa8 1f3d
00000070: bb7a 6f39 b55a 92bc 8499 e83d 0e22 b3bd
00000080: f7ee 0fbe 0e3a 523e 2ca0 3fbe 1faa 2abe
00000090: 422c 49be e290 00be 282a 52bc 2ca7 5bbe
000000a0: 58d2 11be 48d7 21be 566e e03d 492e 503e
000000b0: f7d7 b7bd 21cf abbd d6a5 1d3e b4ea 11be
000000c0: 855f 8b3d 9261 373d 7e5e 7fbd 1fe5 003c
000000d0: dfd6 ec3d d9ae 2e3d bb75 4e3c 7805 b83d
000000e0: 427c 06be e5eb 663e 8032 153e b1e7 adbd
000000f0: 5a3c 243d 1f96 22be 2dd4 2a3e ddf9 afbc
00000100: c3bd ebbd 13ba 2dbe 4d7b b3bd e928 09be
00000110: 7f96 103e c6ba 0cbe 2252 26be ae2d c6bd
00000120: d8f4 5e3e 92dd 35bc ec77 d53d 54a3 043e
00000130: f18d ccbb 796e 70bc 8910 83bd 1eb4 16be
00000140: 6cde c0bd 8121 e4bd be16 1f3e 250e 72bc
00000150: 8b2d 923c 1107 833d 14c7 b5bc 2a07 0abe
00000160: fcc8 443e 7d68 8fbd d305 3fbd 05db eabd
00000170: 20b6 e23d 8fdf 11be 8b6a e03d dbdd cebd
00000180: ec2c ac3d 3b95 853d ceb3 39be f235 08be
00000190: ffde 5cbe 0996 d53d 5891 033e 4d4c 853c
000001a0: 60dd 0e3e df7e 62bd afcd 523e b791 5b3e
000001b0: 52c2 ba3d 6d37 583e 4991 593c e7a1 1dbe
000001c0: 2cef cdbd aa22 e4bd 9245 583e 2d65 fbbc
000001d0: f49c 37bd 44d1 1ebe 8b04 143d f435 94bd
000001e0: 6d43 2abe 0b9b 823d fe98 fa3d 4846 b6bd
000001f0: 0f4d 6cbd e3c3 833d c201 e73d 9661 41be
00000200: 50d9 143c 9867 c23c 0867 a9bd 6a6e 113d
00000210: e92d 2c3d a7ee 923d cc0a 283e 8f5a d5bc
00000220: e517 4abe a10c 53be 15f4 9e3d 4868 1bbe
00000230: 3958 40be 4ba3 03bd 5c59 3ebe 5d8b 173e
00000240: da98 f3bd 131e bb3d 7ff5 553d bc17 473d
00000250: d6e6 20be ea1e edbd ce35 12be 2e14 323e
00000260: 256e 1b3e 44d0 4f3a 311e c1bc 96b8 0abe
00000270: 60e6 df3d cc4a 93bd af78 36be 5cf1 173e
00000280: 068d 83bd f200 e43d e2c3 5d3d 8ac5 613c
00000290: 3a61 e63d 73aa 7f3d e314 f63d 30ec 3c3e
000002a0: aa92 dcbd de48 b83d 396f 443e 5495 59bd
000002b0: 8690 2b3e 3b4f 843d 5bdd 31bd 883f 54bd
000002c0: 5276 7cbd cf70 f0bd 1454 13be c2ac e33d
000002d0: 8e60 96bd 00de 0a3e 0faa 2f3c 41a6 91bd
000002e0: ccd9 94ba d947 59be 0d5c 1bbe d774 07be
000002f0: 72cc c8bd 4dbe 5b3e 2a55 32be 6a86 18be
00000300: 0309 383e 6215 553e 8683 0c3e 03ae e33d
00000310: ee73 16be 835f 1cbd be3c 54be 30dd 573e
00000320: 7824 9f3c 944e cf3d 6197 273e 8858 173e
00000330: 4990 2ebe 3853 39be ca5f 283d 9436 343e
00000340: e337 663e 01fe e13d 4028 563e 9537 b83d
00000350: 3bc6 033e 4a69 d43d fc66 a03d 5e8a 24bd
00000360: 81d2 143e df86 193e e17a 323e 445e 01be
00000370: ee49 1e3e 9393 c93c f11f b3bd 2dab 9c3d
00000380: 3cb8 0a3c 8b7c 5b3d fa94 1ebc b4c2 173e
00000390: a736 b03d 5e77 0a3d 3ec9 143e 715a 13be
000003a0: cc70 9b3d 2deb 41be d5a3 55be ea7b afbd
000003b0: 93c8 153e 390c 2e3b 0698 d1bd 0770 193e
000003c0: aacd 583e f34f 323e 6673 203d d292 b4bb
000003d0: b366 283e 7afe 1d3d 857c 193d f239 35bd
000003e0: 1090 24be 9ccb c73d 43a3 bbbd cb59 493e
000003f0: 9d33 06be cdae 04be af02 083e 87b9 413e

net.0.bias f4 [256]
-0.21264361 0.082098246 -0.067044154 0.1093521 -0.17050372 0.15814494 -0.16206768 -0.012395379
0.12766972 -0.19633672 -0.14340056 0.18836297 0.16631407 0.09118124 0.116213106 -0.17216744
0.011627494 -0.0042651086 0.17878015 -0.17559302 -0.0040689544 0.017093346 0.11508606 -0.11149977
0.016106911 -0.0157178 -0.11954243 -0.11573981 -0.07534211 -0.15515663 -0.1506499 -0.097422436
0.17520753 0.0812471 0.121662 -0.062892474 -0.19876027 -0.09240437 -0.12625447 0.096655756
0.11686833 0.1300573 -0.004435802 -0.13324285 -0.14783986 -0.009303085 -0.12096501 -0.14428338
-0.11469633 0.16485691 0.087246574 -0.07304605 0.14075917 0.18182157 -0.1423175 0.1311296
-0.0046636523 -0.10365125 0.16206603 -0.02504162 -0.04511329 -0.022977607 -0.16471212 0.13064861
0.026715925 0.0397877 -0.20475802 -0.033296168 0.117390886 -0.20057327 0.1365172 -0.120967016
0.19522776 -0.077563286 0.18802345 -0.025412459 -0.0021322188 -0.09164993 0.21220759 -0.18678907
-0.16259046 -0.1976129 0.11424425 0.10582761 0.059558753 -0.048637312 -0.09783496 -0.19415826
0.20389949 0.10994909 -0.031012319 -0.19862673 -0.04840553 0.05923931 -0.01873561 0.1889809
0.18579039 -0.0055224337 -0.12669873 -0.03675783 -0.028452974 -0.08561805 -0.20168826 -0.08710816
0.12200192 0.0054694247 0.081480585 -0.06975838 0.020111727 -0.13942418 -0.09124091 0.16416839
-0.13379867 0.0966812 0.045329254 0.21349277 0.21519037 0.20644441 -0.12110102 -0.18381687
-0.1942534 -0.099446185 0.0106648905 -0.20872366 -0.10565953 0.025891267 0.02207889 -0.1603693
0.21887308 -0.21812692 0.17274867 -0.12131355 0.19852528 0.010001511 -0.12939772 -0.09818137
-0.1662784 -0.11066797 0.17794417 -0.13943586 -0.17439838 0.21449503 0.20647399 0.062165923
0.040561553 0.17224002 0.09047309 0.10129966 -0.1969046 -0.16979405 -0.11522303 -0.17029317
-0.18324217 0.003367337 0.1644031 -0.09243889 -0.067677245 0.07152431 -0.030491266 0.15652843
-0.033350684 0.13918275 0.06931005 0.0352631 0.1489104 0.0857547 -0.12322632 0.18102777
-0.008234475 0.12932812 0.064676784 0.21054347 -0.104200594 0.041729122 0.023649553 0.07777061
0.06781041 0.17305182 -0.16828406 -0.15040106 -0.2066182 -0.07899776 0.0736944 0.029510131
-0.121873975 0.13894252 -0.13479257 -0.16120347 0.056139708 -0.046160776 0.018683244 -0.027618038
-0.16654612 0.06074827 -0.06710085 0.15687008 -0.12145154 0.1545719 -0.12659904 -0.11721392
-0.14649008 -0.1923858 -0.20229109 -0.107526556 0.10470876 0.055601742 -0.13085982 -0.14091425
0.079298906 0.101657294 0.028167414 0.1389594 -0.12915316 -0.024893656 -0.08103986 -0.04885746
0.21256721 0.17694099 0.10894618 0.0813739 0.20028812 0.16772465 -0.11849046 -0.120830625
0.02805735 -0.017697843 -0.16770247 0.16725098 0.13872693 -0.16383666 -0.009176791 -0.13213903
0.041864876 -0.116286635 0.20568973 -0.1591819 0.18915191 0.0837854 0.19998918 0.06186446
0.11936784 -0.078085005 -0.002467189 -0.1505044 0.18099979 -0.012506742 -0.11189085 0.020753274
0.06409119 -0.058779255 0.16782661 -0.10744027 0.03572697 -0.04828389 0.16609772 -0.06414377
00000000: 3fbf 59be 2023 a83d 724e 89bd fef3 df3d
00000010: 8798 2ebe bff0 213e 12f5 25be fd15 4bbc
00000020: dabb 023e 7e0c 49be 99d7 12be 39e2 403e
00000030: 3c4e 2a3e 3bbd ba3d 2301 ee3d a94c 30be
00000040: 3f81 3e3c 53c2 8bbb 2512 373e a8ce 33be
00000050: dd54 85bb 5807 8c3c 3db2 eb3d fe59 e4bd
00000060: a4f2 833c 9ec2 80bc a9d2 f4bd fe08 edbd
00000070: f74c 9abd 61e1 1ebe f843 1abe 6a85 c7bd
00000080: 9a69 333e e164 a63d ed29 f93d c5cd 80bd
00000090: d087 4bbe 813e bdbd da48 01be 74f3 c53d
000000a0: aa58 ef3d be2d 053e 345a 91bb d070 08be
000000b0: 5563 17be f76b 18bc 81bc f7bd 06bf 13be
000000c0: e9e5 eabd 40d0 283e 55ae b23d 2b99 95bd
000000d0: 2c23 103e 6f2f 3a3e aebb 11be d646 063e
000000e0: 8dd1 98bb 1b47 d4bd a3f4 253e 1524 cdbc
000000f0: b7c8 38bd 893b bcbc 4baa 28be c0c8 053e
00000100: 5bdb da3c 6df8 223d 16ac 51be 9061 08bd
00000110: a26a f03d 1463 4dbe 2acb 0b3e 8ebd f7bd
00000120: c9e9 473e 80d9 9ebd 3889 403e ca2d d0bc
00000130: b2bc 0bbb f5b2 bbbd f24c 593e a245 3fbe
00000140: 1d7e 26be 095b 4abe e4f8 e93d 25bc d83d
00000150: e1f3 733d eb37 47bd b25d c8bd 6cd1 46be
00000160: 07cb 503e fd2c e13d 8c0d febc ce64 4bbe
00000170: e144 46bd eba4 723d 6c7b 99bc 3684 413e
00000180: d63f 3e3e 88f5 b4bb 50bd 01be 618f 16bd
00000190: 3616 e9bc 8458 afbd 5e87 4ebe c365 b2bd
000001a0: 25dc f93d dc38 b33b 4bdf a63d 7bdd 8ebd
000001b0: 59c1 a43c 36c5 0ebe 84dc babd c21b 283e
000001c0: 8502 09be cb00 c63d 2bab 393d d99d 5a3e
000001d0: dd5a 5c3e 2a66 533e d003 f8bd 7d3a 3cbe
000001e0: 5dea 46be 71aa cbbd cbbb 2e3c a8bb 55be
000001f0: 0664 d8bd ec19 d43c cade b43c da37 24be
00000200: 4420 603e aa5c 5fbe 07e5 303e 3d73 f8bd
00000210: 364a 4b3e 61dd 233c d680 04be 5013 c9bd
00000220: e344 2abe e3a5 e2bd ff36 363e 46c8 0ebe
00000230: 7d95 32be 96a4 5b3e eb6d 533e b2a1 7e3d
00000240: df23 263d b05f 303e f549 b93d 3276 cf3d
00000250: 5ca1 49be 7ede 2dbe 0dfa ebbd 5561 2ebe
00000260: d6a3 3bbe 8aae 5c3b 4959 283e 9a50 bdbd
00000270: 5e9a 8abd 567b 923d d2c8 f9bc fd48 203e
00000280: ba9a 08bd ec85 0e3e 6df2 8d3d 0a70 103d
00000290: f87b 183e 29a0 af3d 155e fcbd 585f 393e
000002a0: e4e9 06bc 976e 043e 4375 843d b598 573e
000002b0: 1f67 d5bd 28ec 2a3d b5bc c13c 3346 9f3d
000002c0: 2fe0 8a3d 7f34 313e a852 2cbe bc02 1abe
000002d0: b993 53be 94c9 a1bd 17ed 963d 3bbf f13c
000002e0: 1099 f9bd f346 0e3e 1007 0abe 8612 25be
000002f0: c0f2 653d 1513 3dbd 9a0d 993c 393f e2bc
00000300: 118b 2abe 2ed3 783d 2c6c 89bd 8da2 203e
00000310: 96bb f8bd 1948 1e3e 2ea3 01be da0d f0bd
00000320: 7f01 16be c800 45be 6525 4fbe e236 dcbd
00000330: 8c71 d63d a7be 633d 1e00 06be d34b 10be
00000340: 7767 a23d b331 d03d 59bf e63c 5f4b 0e3e
00000350: ba40 04be c8ed cbbc 3af8 a5bd c31e 48bd
00000360: 38ab 593e 0530 353e 2d1f df3d 5ca7 a63d
00000370: 5418 4d3e 03c0 2b3e 20ab f2bd 0c76 f7bd
00000380: 87d8 e53c 11fb 90bc 32ba 2bbe d743 2b3e
00000390: 6f0e 0e3e ccc4 27be 405a 16bc 744f 07be
000003a0: 817a 2b3d b027 eebd 54a0 523e 9400 23be
000003b0: 0ab1 413e ae97 ab3d f7c9 4c3e 9765 7d3d
000003c0: 2077 f43d 08eb 9fbd 90b0 21bb d31d 1abe
000003d0: 0258 393e 14e9 4cbc 0827 e5bd c502 aa3c
000003e0: 3e42 833d 84c2 70bd bdda 2b3e a509 dcbd
000003f0: 7156 123d 54c5 45bd 8515 2a3e cf5d 83bd

net.2.weight f4 [256, 256]
-0.0037712678 -0.010976642 -0.018430315 0.046538427 -0.015963107 0.015863165 -0.030840397 -0.02821891
0.0563718 0.02454675 -0.0008701235 -0.010768503 -0.04227282 -0.05268909 0.030052856 -0.027878627
-0.026565075 -0.014685027 -0.025369003 -0.003216572 -0.05399999 -0.04324007 -0.017464414 0.05449137
-0.047291584 -0.051980235 0.021608107 -0.05085411 -0.0069661736 0.04029584 -0.019155517 -0.058220387
-0.062298752 -0.051378377 0.058017768 0.051025517 0.0066553056 -0.0020091534 -0.0010022447 0.055704914
0.057233006 0.026433498 0.051030114 -0.0068647712 -0.028748848 -0.025383241 0.052096426 -0.03280636
0.03631197 -0.04207842 0.018228002 0.05600983 0.0060684606 -0.02679231 0.023543388 -0.026030421
-0.044685192 -0.054288134 -0.013067149 0.044228554 0.049290188 -0.055320755 0.043765493 0.0003843382
-0.05026505 -0.014710866 -0.043833435 -0.061218873 -0.050547346 -0.002814874 0.061394826 0.01563982
-0.0167185 0.049803674 0.014429823 0.034314603 0.020764634 -0.02126427 0.009449825 0.056637377
0.050661437 -0.036681473 -0.013894625 0.012109593 0.05801934 0.043573387 -0.013699956 0.04697708
0.0033948496 -0.0048026815 0.0031120554 -0.010397904 0.05361466 -0.006143883 0.02074588 0.03979288
-0.019727819 0.057939917 -0.019205801 -0.015383966 0.008497812 0.03819731 0.03543123 0.015973516
-0.034272887 -0.04120958 -0.00814905 0.04143917 0.05273225 -0.042266123 -0.028355345 -0.011031486
-0.0506666 -0.05707846 0.010032408 -0.008872516 -0.021509275 0.008211881 -0.028861776 -0.00072234124
-0.03446372 -0.030676723 0.0086349845 0.023555048 -0.05470217 -0.0458948 -0.040532134 -0.009018101
0.01761686 -0.05403649 0.0012625083 0.050873093 -0.03501083 0.024887927 0.0024230853 -0.019485839
0.042406276 0.01659745 0.013361931 0.009780109 0.0057304725 -0.061128773 0.049806513 0.030834168
-0.04237903 0.044649713 0.018975817 0.051876523 0.002543144 0.05251061 -0.0007322654 -0.0041853413
0.054622427 0.050244033 0.05821211 0.054678135 0.058508575 -0.030991644 -0.053682648 -0.022552721
0.04887794 -0.013021715 0.018941484 -0.012868606 0.0068921074 0.04530131 -0.011851743 0.015069574
-0.0019231513 0.041191213 0.016257636 -0.0058368966 -0.038566396 -0.059686005 0.0008198023 0.05056025
0.061131805 -0.027285896 -0.030098647 -0.05103536 0.009143494 -0.060439236 -0.022888944 0.019627444
-0.045865685 -0.03207498 -0.05187062 -0.006288305 -0.0016107634 0.026222385 -0.019168116 0.0023378283
-0.028384678 -0.0063219965 -0.0149642825 0.036926813 0.010853469 0.013337955 0.022082902 -0.060751885
-0.059373528 -0.038287252 0.007850803 -0.036904357 -0.0190546 -0.013171554 -0.046513043 0.007031709
-0.028774135 -0.003243573 -0.014011294 -0.055236652 0.052723847 0.014521293 -0.020184137 -0.015076429
-0.06115309 0.0006252751 0.026175782 0.043676198 -0.018754669 0.013340376 -0.045944937 -0.028124608
-0.032937802 -0.062159725 -0.0029418916 -0.028564006 0.05519277 -0.055095673 0.025061473 0.04962177
-0.002262406 0.055658758 -0.06028694 0.0045776814 -0.062416613 -0.008281536 -0.0062243566 0.046203718
-0.03808993 0.00092995167 0.006927103 -0.023440093 -0.019220784 -0.016778424 0.025591493 0.048489414
0.0615429 -0.05162079 0.03510408 -0.038726315 -0.008119747 0.012486465 0.056912422 0.021892346
00000000: 6027 77bb 60d7 33bc 2cfb 96bc 149f 3e3d
00000010: 10c5 82bc 78f3 813c 00a5 fcbc 582b e7bc
00000020: 1ee6 663d 4416 c93c 0019 64ba 606e 30bc
00000030: 4426 2dbd 84d0 57bd 6831 f63c b861 e4bc
00000040: 009f d9bc 7899 70bc a8d2 cfbc 20cd 52bb
00000050: 182f 5dbd 801c 31bd 8811 8fbc 5832 5f3d
00000060: d2b4 41bd 3ae9 54bd 7c03 b13c 664c 50bd
00000070: 8044 e4bb 400d 253d 08ec 9cbc 8078 6ebd
00000080: fa2c 7fbd 2272 52bd 0aa4 6d3d 2200 513d
00000090: c014 da3b 00ac 03bb c05d 83ba d62a 643d
000000a0: 286d 6a3d 108b d83c f404 513d e0f1 e0bb
000000b0: b482 ebbc 84f0 cfbc 1063 553d f65f 06bd
000000c0: dcbb 143d 6c5a 2cbd e452 953c 906a 653d
000000d0: f0d9 c63b 8c7b dbbc 10de c03c c03d d5bc
000000e0: d207 37bd 3c5d 5ebd 9817 56bc 0029 353d
000000f0: 82e4 493d 0498 62bd 7243 333d 0081 c939
00000100: bae2 4dbd d805 71bc b08a 33bd a4c0 7abd
00000110: bc0a 4fbd c079 38bb 2479 7b3d 141f 803c
00000120: 3cf5 88bc f0fe 4b3d 106b 6c3c 788d 0c3d
00000130: 981a aa3c 6832 aebc 70d3 1a3c 98fc 673d
00000140: 5e82 4f3d 503f 16bd 48a6 63bc 5067 463c
00000150: b0a5 6d3d 027a 323d c875 60bc 0a6b 403d
00000160: 207c 5e3b d05f 9dbb a0f3 4b3b f85b 2abc
00000170: 0c9b 5b3d a052 c9bb 44f3 a93c dcfd 223d
00000180: 3c9c a1bc 6852 6d3d 7c55 9dbc 080d 7cbc
00000190: 683a 0b3c c874 1c3d 5620 113d e4da 823c
000001a0: ba61 0cbd 60cb 28bd 9883 05bc 1ebc 293d
000001b0: c6fd 573d 3e1f 2dbd 7849 e8bc 68bd 34bc
000001c0: c887 4fbd 1acb 69bd f85e 243c 085e 11bc
000001d0: 3834 b0bc 208b 063c 886f ecbc 805b 3dba
000001e0: d429 0dbd c04d fbbc c079 0d3c 84f6 c03c
000001f0: 620f 60bd 30fc 3bbd 0605 26bd a8c0 13bc
00000200: 3c51 903c 5e55 5dbd c07a a53a 4e60 503d
00000210: 8467 0fbd c4e1 cb3c a0cc 1e3b c4a0 9fbc
00000220: 34b2 2d3d 60f7 873c 00ec 5a3c c03c 203c
00000230: b0c6 bb3b 2a62 7abd ea01 4c3d f097 fc3c
00000240: a295 2dbd 9ee2 363d 2c73 9b3c 7a7c 543d
00000250: e0aa 263b 5e15 573d 80f5 3fba 3025 89bb
00000260: c4bb 5f3d b0cc 4d3d d26f 6e3d 2ef6 5f3d
00000270: b0a6 6f3d 30e2 fdbc 56e2 5bbd 7cc0 b8bc
00000280: 3c34 483d 0859 55bc 2c2b 9b3c d8d6 52bc
00000290: 30d7 e13b de8d 393d d02d 42bc 60e6 763c
000002a0: 4012 fcba 1eb8 283d bc2e 853c 7043 bfbb
000002b0: ccf7 1dbd 5079 74bd 00e8 563a 4418 4f3d
000002c0: 5865 7a3d ac86 dfbc 7091 f6bc 740a 51bd
000002d0: 98ce 153c 228f 77bd 9881 bbbc bcc9 a03c
000002e0: a8dd 3bbd 0e61 03bd 4a76 54bd 200e cebb
000002f0: 4020 d3ba 54d0 d63c 7406 9dbc 4036 193b
00000300: fc86 e8bc c028 cfbb c02c 75bc 9240 173d
00000310: c0d2 313c 7087 5a3c 34e7 b43c f8d6 78bd
00000320: a831 73bd 18d3 1cbd a8a0 003c 0629 17bd
00000330: 6418 9cbc 80cd 57bc 7684 3ebd 406a e63b
00000340: bcb7 ebbc 2092 54bb a08f 65bc d43f 62bd
00000350: f6f4 573d b8ea 6d3c 3459 a5bc 2003 77bc
00000360: aa7b 7abd 80e9 233a 986e d63c d0e5 323d
00000370: 64a3 99bc 9891 5a3c c230 3cbd 9465 e6bc
00000380: cae9 06bd 329b 7ebd c0cc 40bb 10ff e9bc
00000390: d011 623d 00ac 61bd b84d cd3c 3240 4b3d
000003a0: e044 14bb 70fa 633d 70ef 76bd 6000 963b
000003b0: 90a8 7fbd 48af 07bc b0f5 cbbb 1c40 3d3d
000003c0: 3004 1cbd 00c8 733a c0fc e23b 7005 c0bc
000003d0: e874 9dbc e872 89bc 40a5 d13c d69c 463d
000003e0: 6814 7c3d 5270 53bd 4cc9 0f3d 7c9f 1ebd
000003f0: b008 05bc 0894 4c3c 001d 693d 9457 b33c

net.2.bias f4 [256]
-0.03035134 0.041204456 -0.024564639 0.0031282778 -0.023773305 -0.00062401436 0.014752488 -0.033874314
0.05412868 0.007495971 0.05325576 0.058812737 -0.012072969 -0.028876463 -0.01706574 0.065300226
0.011649884 -0.016009888 -0.001078749 0.029896928 -0.00065702025 -0.04712633 0.048283182 -0.0012680665
0.03077308 0.02647973 -0.031921864 0.059975516 0.0037061742 0.006400234 0.014513106 0.03633973
0.054747332 -0.050368123 -0.025552385 0.054971743 0.058396716 -0.04352296 0.006701679 -0.049062952
-0.06294643 -0.016646616 0.031006094 0.024991054 -0.031147638 -0.0066124103 0.05900059 -0.03403958
-0.061699778 0.0026992597 0.007973597 -0.0019389763 -0.012673883 -0.021993998 0.019481355 0.016071534
0.05715405 0.006558949 -0.019611038 -0.05873494 0.020878794 0.010198928 -0.029509434 -0.06635562
-0.0025104813 0.053201534 0.051390953 -0.042544015 -0.013974646 0.059151735 -0.015668187 0.005808284
-0.042646173 0.01787842 -0.048775643 0.0018869576 0.059521105 -0.04608523 0.026801748 0.062334243
0.024546912 -0.0051104682 0.057160277 0.00574167 -0.022445584 0.010718383 -0.0025662577 -0.015993582
0.0058507943 0.06861224 0.0018640332 0.014443085 0.058340598 -0.057813883 0.03380211 0.017236724
0.059062842 -0.027487157 -0.051905017 0.01261247 0.025237551 -0.045707777 0.015761735 -0.008411935
-0.00070410914 0.034339696 0.0545758 -0.017953407 -0.05556264 -0.017906627 -0.0052443985 -0.00606786
0.055870935 -0.039531406 0.026255146 -0.012414325 0.009866089 0.05945528 0.01962787 -0.0403341
-0.0074458104 -0.043223295 0.040805165 0.05262892 -0.037702873 -0.0018428046 0.008818109 -0.0552794
0.060266286 -0.01356551 0.048980232 -0.04706312 0.0096117705 -0.054829653 0.001206167 0.03761448
-0.05969083 0.0029523 -0.012696266 -0.026933046 0.023530781 0.015122513 0.0602043 -0.026542433
0.009204844 0.037246857 0.00020112857 -0.062734626 0.015562335 0.034986675 0.036473945 0.012203269
0.0604171 0.030261789 0.06025799 -0.042989425 0.04056151 0.037173286 -0.018320804 -0.023715667
-0.042971954 -0.044157147 0.070116706 -0.04599891 -0.009801254 0.049525864 0.044120856 0.056207076
-0.058027435 0.05013861 -0.021862706 0.002529644 0.06534091 0.0103694415 0.053026956 0.05369444
0.0022980275 0.039384674 0.030429685 -0.0011170297 0.036896143 0.05405655 0.007686127 0.057666957
-0.014254258 0.019290455 0.0070596733 -0.035240106 -0.047230806 0.0584782 0.016078386 -0.054868802
0.00567708 0.017667333 -0.0052704643 -0.052728515 -0.049277753 0.06558352 -0.03021855 -0.05179805
-0.0059298077 -0.014375985 -0.012830469 -0.03284836 0.021989554 -0.058908325 0.025864234 -0.04850559
0.05424114 0.004515686 0.038399138 -0.04675428 -0.018940808 0.040325854 -0.017270744 -0.020464003
0.0672098 0.008390095 -0.049063865 0.053363044 0.00780621 0.018133033 -0.03939543 0.031982295
0.017867284 0.0010901254 -0.029920142 0.016707681 -0.057161458 0.01426483 -0.059683897 0.052593987
0.04011651 0.009079856 -0.04286284 -0.02791297 0.009101479 -0.027133249 -0.009151331 -0.0508777
-0.02852324 0.056693505 0.0019286587 0.012784199 -0.005900412 0.008702355 -0.049386136 -0.0035841689
0.0149138 0.03064388 -0.045956608 -0.052144982 0.03291344 -0.025104389 -0.059267685 0.044561632
00000000: 60a3 f8bc 01c6 283d c83b c9bc cb03 4d3b
00000010: 3cc0 c2bc e594 23ba 6bb4 713c cbbf 0abd
00000020: 09b6 5d3d c3a0 f53b b622 5a3d a0e5 703d
00000030: b4cd 45bc 558e ecbc 73cd 8bbc 20bc 853d
00000040: 28df 3e3c 2b27 83bc cf64 8dba 67ea f43c
00000050: e23b 2cba 8a07 41bd 96c4 453d 4035 a6ba
00000060: d417 fc3c 05ec d83c 80c0 02bd e3a8 753d
00000070: 49e3 723b 0eb9 d13b 61c8 6d3c f8d8 143d
00000080: bd3e 603d ce4e 4ebd 3c53 d1bc 0d2a 613d
00000090: 6531 6f3d 2245 32bd c299 db3b 3cf6 48bd
000000a0: 0fea 80bd 7c5e 88bc 7e00 fe3c 0aba cc3c
000000b0: 5529 ffbc ebac d8bb 9aaa 713d 166d 0bbd
000000c0: e8b8 7cbd 10e6 303b b1a3 023c 4025 feba
000000d0: 1ea6 4fbc c22c b4bc 5d97 9f3c 73a8 833c
000000e0: 5d1a 6a3d 74ec d63b 54a7 a0bc 0c94 70bd
000000f0: 010a ab3c 6819 273c c5bd f1bc 75e5 87bd
00000100: e386 24bb dae9 593d 527f 523d a242 2ebd
00000110: eaf5 64bc 1749 723d 925a 80bc 6b53 be3b
00000120: c1ad 2ebd c475 923c f8c8 47bd ca53 f73a
00000130: 67cc 733d dec3 3cbd 578f db3c 3152 7f3d
00000140: 9b16 c93c b775 a7bb e520 6a3d 9e24 bc3b
00000150: cddf b7bc 289c 2f3c a92e 28bb f904 83bc
00000160: 05b8 bf3b 9384 8c3d 9352 f43a b0a2 6c3c
00000170: 8df6 6e3d 40ce 6cbd 1574 0a3d 0834 8d3c
00000180: e1eb 713d bf2c e1bc 5b9a 54bd 89a4 4e3c
00000190: fbbe ce3c 1438 3bbd c11e 813c 36d2 09bc
000001a0: f793 38ba c8a7 0c3d e08a 5f3d 0613 93bc
000001b0: a795 63bd ebb0 92bc 34d9 abbb e6d4 c6bb
000001c0: ecd8 643d afeb 21bd 0815 d73c 7465 4bbc
000001d0: 60a5 213c 6187 733d a0ca a03c 5f35 25bd
000001e0: fcfb f3bb e90a 31bd 5123 273d 6c91 573d
000001f0: 546e 1abd 438a f1ba d479 103c a76c 62bd
00000200: c8d9 763d df41 5ebc 7f9f 483d 42c5 40bd
00000210: b07a 1d3c 0f95 60bd 4018 9e3a a411 1a3d
00000220: 5f7e 74bd 607b 413b 0004 50bc b1a2 dcbc
00000230: a0c3 c03c 6bc4 773c c998 763d 846f d9bc
00000240: eacf 163c 2990 183d 0ae6 5239 037b 80bd
00000250: 2af9 7e3c 304e 0f3d b465 153d 38f0 473c
00000260: ec77 773d 92e7 f73c 15d1 763d ae15 30bd
00000270: d323 263d 0443 183d 8315 96bc 5c47 c2bc
00000280: 5c03 30bd 20de 34bd 5999 8f3d 5a69 3cbd
00000290: 7095 20bc a2db 4a3d 12b8 343d 6439 663d
000002a0: 2dae 6dbd 255e 4d3d 6b19 b3bc 62c8 253b
000002b0: 74d1 853d 97e4 293c cb32 593d b3ee 5b3d
000002c0: 819a 163b d351 213d ad47 f93c 4c69 92ba
000002d0: 6920 173d 676a 5d3d e8db fb3b 3034 6c3d
000002e0: b18a 69bc 0407 9e3c d554 e73b ee57 10bd
000002f0: 1775 41bd d686 6f3d d2b6 833c 1cbe 60bd
00000300: cc06 ba3b 15bb 903c dcb3 acbb dbf9 57bd
00000310: 78d7 49bd a750 863d e48c f7bc 312a 54bd
00000320: d54e c2bb 4089 6bbc e336 52bc 008c 06bd
00000330: 7023 b43c db49 71bd 3be1 d33c ccad 46bd
00000340: f52b 5e3d 52f8 933b 6a48 1d3d 6a81 3fbd
00000350: c129 9bbc b92c 253d 607b 8dbc 20a4 a7bc
00000360: 4ba5 893d 9c76 093c 31f7 48bd 3593 5a3d
00000370: 3ccb ff3b ba8b 943c 1a5d 21bd deff 023d
00000380: 695e 923c 8ae2 8e3a 161b f5bc 8cde 883c
00000390: 2222 6abd 09b7 693c 1a77 74bd cb6c 573d
000003a0: 3651 243d adc3 143c f290 2fbd bea9 e4bc
000003b0: 5f1e 153c 8c46 debc 77ef 15bc 2365 50bd
000003c0: 92a9 e9bc 7337 683d 0ccb fc3a d174 513c
000003d0: 3e58 c1bb 5394 0e3c 1e49 4abd 60e4 6abb
000003e0: 0359 743c e008 fb3c ff3c 3cbd fa95 55bd
000003f0: 3ed0 063d b8a7 cdbc acc2 72bd 4286 363d

net.4.weight f4 [4, 256]
0.023527957 0.00203005 -0.0005891046 -0.042528495 0.020420969 0.05390258 -0.034801155 -0.047864027
0.04831659 0.011457207 0.026182361 0.060168363 0.026156863 -0.019675393 -0.009441895 0.07120932
0.061601993 -0.0083105825 0.054936673 0.009514701 0.042131077 -0.02879008 0.037313048 0.025377177
-0.052138038 0.069503136 -0.05838152 -0.01921567 -0.021485515 0.060442157 -0.0008591421 0.04950149
0.028709212 0.003845206 -0.0506589 0.0648841 0.058528237 -0.02003238 0.033595316 0.022437438
-0.01164494 -0.048639745 -0.037586074 0.015551346 -0.016809897 -0.0018904278 -0.047955275 -0.044569883
0.03249368 -0.027454894 0.06324546 0.02750919 -0.02261989 -0.05092788 0.0047537317 -0.011972339
-0.031905796 -0.011451705 0.020530134 0.051407903 0.022056116 -0.045994543 -0.026829308 0.043814823
0.024580855 0.041130017 0.061873045 0.0007429421 0.034878038 -0.0022402396 0.02515319 -0.025030818
-0.008570839 -0.02596005 0.02533894 -0.05028345 -0.012591783 -0.023918577 -0.04387766 0.043640792
0.03584891 -0.00013996323 0.030434314 0.051765554 -0.046785455 0.03708575 -0.012439615 0.017878493
-0.01971522 0.062752895 -0.052366253 0.051102057 -0.005476843 0.016643649 0.012963263 -0.011169933
-0.018566696 -0.048540052 0.028332572 0.021924451 -0.011929759 -0.026813371 -0.03072458 -0.029728945
-0.023675984 0.038211446 -0.056215882 0.068651676 -0.028961131 -0.019721491 0.042575154 0.02539686
-0.023995532 0.013709987 0.060743395 0.05600493 -0.061111145 0.029693652 0.0685703 0.03357456
0.0018561718 -0.04267632 -0.0038465564 0.0467754 0.022985589 0.046182442 0.022129593 0.064409904
0.06468369 0.043951195 -0.023407465 -0.057407998 -0.03728476 -0.02575094 -0.036286436 0.029331991
0.059475895 -0.053199723 0.0444275 -0.038500678 -0.06170772 -0.0032709995 0.011965287 0.019677378
-0.046264842 -0.04140598 -0.017148936 -0.050847236 0.030185968 -0.02966627 -0.004457842 0.034906216
0.014783021 -0.023678767 0.015053551 -0.056062926 -0.02687096 -0.05453527 -0.009659679 -0.025311118
-0.0061857775 0.06461664 0.051435973 0.010409422 0.000960581 -0.023025652 -0.053552352 0.06342555
-0.04699148 -0.040044192 -0.009469107 0.02732414 -0.015381697 0.00022776675 -0.0470524 0.059520435
-0.03492226 -0.0551976 0.047273982 -0.02594313 0.06149208 0.03858139 0.049694784 0.03195475
0.07012402 0.04034061 -0.023243124 0.04115992 0.06919704 -0.0006558904 0.06820017 -0.025505938
-0.037453473 0.033197787 -0.01078749 0.0074780798 -0.048335463 0.00930773 -0.05055908 0.022584125
0.058270026 0.019626908 0.018945009 -0.049939327 -0.009042208 -0.02218274 0.026470961 0.017228525
-0.03796136 0.012800379 0.057909206 -0.02823461 0.029927608 0.024193756 0.024243632 0.050224528
0.07179554 0.044827536 -0.014502954 -0.037103932 0.011845548 -0.050713338 0.013968471 0.026130794
-0.0580285 -0.009091927 -0.013535135 -0.0418543 0.010548636 0.039271794 0.04965485 0.05394819
0.012889478 0.06043212 -0.0074384212 -0.044402394 0.052338295 -0.030565083 -0.026717966 0.0382989
0.07142037 -0.055166923 -0.033530183 -0.005315809 -0.025009193 -0.006968329 0.05921537 -0.053908333
0.04305405 0.07039194 0.06090155 0.004246436 0.008090029 0.05621313 -0.060222987 0.004094268
00000000: b4bd c03c 960a 053b 246e 1aba 5c32 2ebd
00000010: e049 a73c f4c8 5c3d a88b 0ebd 120d 44bd
00000020: 9ee7 453d 02b7 3b3c 647c d63c 1a73 763d
00000030: eb46 d63c 4a2e a1bc 2eb2 1abc 31d6 913d
00000040: 5f52 7c3d 1c29 08bc 4705 613d 8ce3 1b3c
00000050: a391 2c3d 2dd9 ebbc 91d5 183d cce3 cf3c
00000060: b28e 55bd a957 8e3d 7621 6fbd 2e6a 9dbc
00000070: 6402 b0bc 3292 773d 0d38 61ba 13c2 4a3d
00000080: 952f eb3c daff 7b3b b57f 4fbd f4e1 843d
00000090: 4ebb 6f3d f21a a4bc 3e9b 093d b8ce b73c
000000a0: 6bca 3ebc 783a 47bd dbf3 19bd 13cb 7e3c
000000b0: e9b4 89bc 3bc8 f7ba c06c 44bd e98e 36bd
000000c0: 1818 053d 16e9 e0bc d686 813d f45a e13c
000000d0: 594d b9bc c199 50bd 31c5 9b3b a127 44bc
000000e0: a7af 02bd ef9f 3bbc d02e a83c 1891 523d
000000f0: 07af b43c c664 3cbd 23c9 dbbc 2c77 333d
00000100: ca5d c93c f377 283d 976e 7d3d 00c2 423a
00000110: 46dc 0e3d fcd0 12bb 100e ce3c 6e0d cdbc
00000120: b46c 0cbc 2caa d4bc 9c93 cf3c 05f6 4dbd
00000130: c44d 4ebc e4f0 c3bc 10b9 33bd b0c0 323d
00000140: 4fd6 123d 18c3 12b9 6251 f93c 1e08 543d
00000150: 1ba2 3fbd 3ae7 173d 87cf 4bbc eb75 923c
00000160: d081 a1bc 9784 803d ff7d 56bd 6450 513d
00000170: 1777 b3bb 4358 883c de63 543c 1802 37bc
00000180: 2f19 98bc efd1 46bd b619 e83c e89a b33c
00000190: 0975 43bc b7a7 dbbc 1db2 fbbc 1e8a f3bc
000001a0: 23f4 c1bc 9b83 1c3d a042 66bd 4099 8c3d
000001b0: e53f edbc f78e a1bc 4963 2e3d 130d d03c
000001c0: 4792 c4bc da9f 603c 11ce 783d 6d65 653d
000001d0: ae4f 7abd 1a40 f33c 966e 8c3d 7a85 093d
000001e0: ca4a f33a 5dcd 2ebd 8216 7cbb 9097 3f3d
000001f0: 464c bc3c cd29 3d3d 1f49 b53c 57e9 833d
00000200: e278 843d 2b06 343d 03c1 bfbc a624 6bbd
00000210: e8b7 18bd a3f3 d2bc 16a1 14bd a549 f03c
00000220: ff9c 733d f4e7 59bd 9cf9 353d e3b2 1dbd
00000230: 3cc1 7cbd 445e 56bb 0d0a 443c 7432 a13c
00000240: 3480 3dbd 5199 29bd ed7b 8cbc 3145 50bd
00000250: 9048 f73c ad06 f3bc 1713 92bb d2f9 0e3d
00000260: 7c34 723c f9f9 c1bc 2ba3 763c 3da2 65bd
00000270: 7d20 dcbc 6060 5fbd a143 1ebc 4359 cfbc
00000280: 10b2 cabb bb55 843d 87ae 523d 488c 2a3c
00000290: 80cf 7b3a 4ba0 bcbc b659 5bbd 41e5 813d
000002a0: 237a 40bd 6105 24bd 5024 1bbc e0d6 df3c
000002b0: 8303 7cbc acd4 6e39 04ba 40bd b3cb 733d
000002c0: a50a 0fbd e116 62bd 5da2 413d b086 d4bc
000002d0: 1fdf 7b3d 8507 1e3d c28c 4b3d fce2 023d
000002e0: 2f9d 8f3d 323c 253d 5d68 bebc 4e97 283d
000002f0: 2db7 8d3d 0ff0 2bba 88ac 8b3d d4f1 d0bc
00000300: d068 19bd 67fa 073d 03be 30bc ae0a f53b
00000310: 68fb 45bd 737f 183c 0a17 4fbd 5802 b93c
00000320: 8dac 6e3d 9cc8 a03c 9032 9b3c 2e8d 4cbd
00000330: c525 14bc 94b8 b5bc a1d9 d83c d622 8d3c
00000340: 5f7d 1bbd aeb8 513c 3432 6d3d 454c e7bc
00000350: be2a f53c fc31 c63c 959a c63c 3cb8 4d3d
00000360: 8a09 933d 149d 373d cc9d 6dbc 4bfa 17bd
00000370: d413 423c cab8 4fbd 04dc 643c 3f10 d63c
00000380: 4baf 6dbd 4ef6 14bc 79c2 5dbc 6a6f 2bbd
00000390: 30d4 2c3c 76db 203d e262 4b3d c7f8 5c3d
000003a0: 642e 533c ac87 773d 00be f3bb 49df 35bd
000003b0: ae60 563d a063 fabc a3df dabc 4fdf 1c3d
000003c0: d844 923d b6f6 61bd f256 09bd 3d30 aebb
000003d0: 14e0 ccbc 9556 e4bb d18b 723d fcce 5cbd
000003e0: 7259 303d a629 903d e773 793d b025 8b3b
000003f0: 0a8c 043c bd3f 663d 61ac 76bd 3629 863b

net.4.bias f4 [4]
0.02668299 0.026874177 -0.00518 0.034560584
00000000: 4996 da3c 3c27 dc3c fdbc a9bb 668f 0d3d
