dqn_learning/speed/models/modelstatedict_2.pth (torch, 292191 bytes, 6 tensors)

net.0.weight f4 [256, 21]
000000 46 73 22 be 53 b4 10 be d4 69 5b be 9e 57 99 bd
       -0.15864286 -0.14131288 -0.21427089 -0.07487415
000010 a1 20 2a 3b 14 c4 6b 3d 00 12 d5 3d b2 1b 1c be
       0.002595939 0.05756004 0.10403824 -0.1524494
000020 5e 7a 1f 3e 25 42 13 3e 97 81 6f bd 94 a8 08 3e
       0.15574023 0.14380701 -0.058473196 0.13345557
000030 dc eb 5f 3d d9 ba 10 be 36 6e 53 3d d7 94 15 3d
       0.054668292 -0.14133777 0.051618777 0.036518898
000040 a6 fb 49 be bb 2a fc 3b 9d ad 1c 3e 32 ee 84 3d
       -0.19724903 0.0076955236 0.15300603 0.06490745
000050 9d cd 52 3d 48 ce 52 be 78 c1 20 3e 63 44 20 3e
       0.05146562 -0.20586503 0.15698802 0.15651087
000060 f6 fa d6 bd 23 f2 7a 3d 45 76 3e 3e e0 62 01 3c
       -0.10497086 0.061266076 0.18599804 0.007897109
000070 3a 94 54 3e 9b ca 15 3c 4b d3 3d be 33 5d c5 3c
       0.20759669 0.009142543 -0.18537633 0.024092292
000080 f0 9b 1b be 44 52 af 3b 2b 74 9a 3d 31 ab fd bd
       -0.15196204 0.005350383 0.075416885 -0.12386168
000090 19 66 f4 3d a5 f3 62 3d 2c a1 79 3d 8e e7 5c bd
       0.11933536 0.05540814 0.06094472 -0.053931765
0000a0 37 1a e5 3c 64 35 87 bd 4c db de 3c 02 58 0f be
       0.027966602 -0.0660198 0.027204178 -0.13998416
0000b0 69 79 b3 3c eb 9e 40 3e 5e 69 66 3d 76 c4 06 be
       0.021908479 0.18810622 0.05625283 -0.13160881
0000c0 b7 e0 42 3d 81 8e b0 bd dd e2 2d 3e 43 4a 8f bd
       0.047577586 -0.086209305 0.16981073 -0.06996586
0000d0 3b 32 5e 3e 14 94 ed bd e6 be a3 bd eb a5 2b 3c
       0.21698849 -0.11600509 -0.07995395 0.01047657
0000e0 a5 5d 1b 3c 19 a0 95 3d 91 fd 51 be 75 f8 1a bd
       0.009482776 0.07305927 -0.20506884 -0.037834603
0000f0 5e 94 e3 bb 16 72 08 3e b1 26 34 3e 10 9d 40 bd
       -0.006945177 0.1332477 0.17592885 -0.047024786
000100 aa 0f ea 3d 0c c3 3e 3d 14 7e 5f 3d 62 be 10 be
       0.11428769 0.04657273 0.054563597 -0.14135125
000110 e8 63 9f 3c 40 02 ce bb 3e 17 2f be 80 b7 7f bc
       0.019456819 -0.0062868893 -0.1709871 -0.015607715
000120 80 71 90 bc a3 89 59 be 40 01 a5 bc 34 57 73 3d
       -0.017632246 -0.2124391 -0.020142198 0.059409335
000130 9b 0e 32 3e 10 bc f7 bc 00 12 be 3c 60 d4 91 bd
       0.17388384 -0.030241042 0.023201942 -0.071205854
000140 86 87 86 3d 16 a8 c2 3d 3c 67 0b be 63 34 42 3e
       0.06568818 0.09504716 -0.136136 0.18965296
000150 d0 de 18 3e fd d5 4f 3e 8d 26 95 3c c3 c8 86 3d
       0.14928746 0.20296474 0.018206859 0.06581261
000160 70 e1 f5 bd 6a 07 3d bd 96 4f 19 be 86 07 bd 3c
       -0.120058894 -0.04614965 -0.14971766 0.023074877
000170 a7 29 03 3e 60 6d 08 be 54 dd 52 bd 38 4c 8d bd
       0.12808858 -0.13322973 -0.051480606 -0.06899303
000180 7c 2b 76 3d d8 d6 07 3e c6 04 1c 3e df 2f 4a 3e
       0.060100064 0.1326555 0.15236196 0.19744824
000190 67 8f 5a 3e ae cf c9 bd 1e f6 0c 3e d6 33 12 3e
       0.21343766 -0.09854065 0.13765761 0.14277586
0001a0 9e 54 76 3d d0 fc 41 3e 31 02 59 3c 8b 63 3b 3c
       0.06013929 0.18944097 0.013245151 0.011437307
0001b0 11 30 76 3d be 80 00 3e 0a 36 65 3d 32 a6 f4 3d
       0.060104433 0.12549111 0.05595974 0.11945762
0001c0 3d 33 a6 3d 82 ce 84 3c 09 1d 20 be 4d f2 0c 3d
       0.08115242 0.016211752 -0.15636076 0.034410764
0001d0 8f cf 10 3e bf 34 2c 3e b7 9f 0b be 29 50 73 bd
       0.14141677 0.16816996 -0.13635145 -0.05940262
0001e0 3a b2 cb 3c de be 91 3d ce 12 80 3d 73 e3 e9 3d
       0.024865258 0.07116483 0.06253587 0.114203356
0001f0 0a 5f 91 3c cf c0 3f be 4d 4e 55 be 9e 4d a3 bd
       0.017745513 -0.18725894 -0.2083065 -0.07973789
000200 22 8a dc bd 32 7a db 3d be 19 89 3c 44 12 0f be
       -0.10768534 0.10716666 0.016735908 -0.13971812
000210 78 6c 3c 3e 0b 6f 86 3d 96 bc 6f 3d b4 e0 06 be
       0.18400753 0.065641485 0.05852946 -0.13171655
000220 c2 f6 c9 3d 0f dc 9d bc 71 9f 58 bd a4 e6 2c bd
       0.098615184 -0.019269971 -0.05288643 -0.042212144
000230 99 62 2d 3e ca ae 16 be 90 cb 73 bd 61 77 a8 3d
       0.16932143 -0.14715114 -0.059520304 0.08225895
000240 a7 fc 4b 3d b8 d0 43 3e 1a 31 5d 3e 96 85 b6 3d
       0.049801495 0.19122589 0.21600762 0.08912198
000250 06 03 92 bd f1 6d ef bd 00 b5 b3 bd 56 ae 16 be
       -0.07129483 -0.116908915 -0.087747574 -0.14714941
000260 00 30 16 bd 24 40 7a 3d 71 b3 3c 3e 50 27 49 be
       -0.03666687 0.061096326 0.18427826 -0.19643903
000270 a6 72 09 be 5c 2b 68 bd c6 19 b3 bd 0f cf 30 3e
       -0.13422641 -0.056681976 -0.0874515 0.17266487
000280 54 c0 67 3d 7e 82 bd 3d d7 ad 25 be 40 57 b1 3c
       0.056579903 0.09253405 -0.16179596 0.02164805
000290 a0 cb f5 bb 0e 91 21 be 05 bd f7 bd d9 07 f6 bd
       -0.0075010806 -0.1577799 -0.120965995 -0.120132156
0002a0 c6 2a 4c be 73 2c 36 3e 9f 79 5d be 3e 82 bf 3d
       -0.19938192 0.17790394 -0.21628426 0.093510136
0002b0 62 6c 22 3e 85 df ce bd 6a 9d 10 bd 33 7c 56 be
       0.15861657 -0.10101227 -0.03530637 -0.20945816
0002c0 dc 39 f0 3d de 84 5c 3e 97 b1 05 3d fe 00 d9 bd
       0.11729786 0.2153506 0.032640066 -0.10595892
0002d0 73 d5 66 bd 5f d9 1e be 28 31 05 be 1a 47 e6 bd
       -0.056355905 -0.15512608 -0.13007033 -0.1124403
0002e0 e5 31 0a be c1 67 21 be e0 8e f7 3d d6 ba b3 3d
       -0.13495596 -0.15762235 0.12087798 0.087758705
0002f0 9f ee 46 3d 34 68 18 3d 69 2b 2b 3e 84 1a b3 bd
       0.04856741 0.03720875 0.16715778 -0.08745292
000300 ee 4c 99 bd 6b 45 c0 bd 38 1e a5 bc 19 ce 00 3e
       -0.07485376 -0.093882404 -0.020156011 0.1257862
000310 f0 61 d3 bc 6e 9e a4 3d b9 a0 3e be 94 fb 1b 3d
       -0.025803536 0.080380306 -0.18615998 0.03808172
000320 e7 f1 26 3e c0 ca bb bd f8 b3 d8 bd 7f d8 0f 3e
       0.16303216 -0.09169531 -0.10581201 0.1404743
000330 a5 9e 32 be 74 bc 38 bd f0 5c a0 3c 86 b0 8e 3d
       -0.1744333 -0.045101598 0.019575566 0.06967263
000340 24 9b 6e 3d 70 31 2c bc dc d3 49 3c 4a ea be bd
       0.058253422 -0.010509834 0.012318578 -0.09322031
000350 0c 7c 89 bd 1c 2c c6 bc 1f 03 c3 3d db 65 17 3e
       -0.06713113 -0.024190955 0.0952208 0.14784949
000360 53 e6 dc 3c f4 e2 0a bd cb 94 b0 3d 87 3a c1 3d
       0.026965296 -0.033907846 0.0862213 0.09434991
000370 e8 39 5a 3e c9 1e b3 bd 0f ce f6 3d fd 8e 13 3a
       0.21311152 -0.08746106 0.12051021 0.0005628912
000380 bb f4 2d 3e 83 be c6 3c 69 8a 29 3e 13 68 37 3e
       0.16987889 0.024260765 0.16556706 0.17910795
000390 0a 5f e9 3c 1d 5e 86 bd 84 52 8e bd 87 1b 24 3e
       0.028487701 -0.065609194 -0.06949332 0.16026126
0003a0 05 ec c8 bd e2 1d df 3c eb 58 ad 3d 99 f2 5c 3e
       -0.09810642 0.027235929 0.084642254 0.21576919
0003b0 27 c1 5c 3e a2 55 52 3e 12 14 35 3c 57 2b cd bd
       0.21558057 0.20540479 0.011052148 -0.10018032
0003c0 44 66 50 3e 40 ea 0d bd 54 9e 66 bd c1 5b 16 3e
       0.20351511 -0.034647226 -0.056303337 0.14683439
0003d0 63 a9 35 bd dd 6e 52 be ff 1b e2 bc bb d6 66 3c
       -0.044350993 -0.20550103 -0.02760124 0.014089282
0003e0 e2 4f 12 3d 8e 46 50 3e 6d a9 4c 3e bb c7 91 bd
       0.035720713 0.20339414 0.19986506 -0.07118174
0003f0 90 ab 32 be 9d 1a 26 be 0e 73 66 3d a2 68 d3 3d
       -0.17448258 -0.1622109 0.05626207 0.103226915

net.0.bias f4 [256]
000000 ac b4 59 3e 8c f6 4a 3e d0 e4 ad 3d 30 e9 2e bd
       0.21260327 0.19820613 0.08490908 -0.042702854
000010 92 8c 89 bc e7 01 08 be 2c 49 a1 3d 7c 43 05 be
       -0.016790662 -0.13281976 0.078752846 -0.13014024
000020 2d 02 02 3e cf 15 4c be 47 33 4d 3e 2a bb b5 bd
       0.12696142 -0.19930194 0.20039092 -0.08873589
000030 50 b9 ad bd bd 09 1f be 80 fc 2c 3c 94 11 8a 3d
       -0.08482611 -0.15531059 0.010558248 0.06741634
000040 eb 8e 42 3e 88 41 33 bd a8 07 52 3c 2a d7 4b 3e
       0.18999831 -0.043763667 0.012819208 0.19906297
000050 a0 99 3b 3d 12 19 77 3b e2 e6 03 3e 19 c6 23 3e
       0.045800805 0.0037704152 0.12881044 0.15993537
000060 3f d2 16 3e ef 06 a3 3d 36 87 50 3e ee 5f 08 be
       0.1472864 0.07960307 0.20364079 -0.13317844
000070 77 39 9e bc ca c5 92 bd f3 ac 32 ba 47 bb 1e be
       -0.01931451 -0.071666315 -0.00068159326 -0.15501128
000080 ca 2d b6 bd a8 4a e2 bd da 40 df 3d fa 3d 29 3e
       -0.08895452 -0.11049396 0.10901041 0.16527548
000090 09 a2 bc bd f5 e7 55 bd 55 20 52 3e 31 2c 44 3e
       -0.09210593 -0.052223165 0.20520146 0.19157483
0000a0 c7 87 76 3c 04 82 89 3d 22 50 09 be 84 4e 43 3c
       0.01504702 0.06714252 -0.13409474 0.011920575
0000b0 94 2a 11 be 3c c9 44 3b da 97 de bc 6c 6d 4a be
       -0.14176399 0.0030027172 -0.027172018 -0.19768304
0000c0 19 b3 0e 3d e7 e4 41 be 84 fe fc bd 10 d7 21 bd
       0.03483877 -0.18934976 -0.123532325 -0.03951174
0000d0 db c3 31 3d ca 05 33 be b8 5e 32 3e 14 8f a7 3d
       0.043399673 -0.17482677 0.17418945 0.08181587
0000e0 48 80 a6 bd ee 1c 15 3e 6d 0a be bc 72 c9 82 bd
       -0.081299365 0.14561817 -0.02319833 -0.06386079
0000f0 22 69 49 be a8 b9 c3 bc b3 47 e6 3d 08 3d 1b bc
       -0.19669011 -0.023892239 0.11244144 -0.009475
000100 f9 85 bf bd 38 55 12 be e6 8f 53 3e 53 dd 22 3e
       -0.09351725 -0.14290321 0.20660362 0.15904741
000110 55 07 8e bd 04 ba 0e 3e 60 82 a3 bd 9e f6 f7 3d
       -0.06934992 0.13938147 -0.079838514 0.12107585
000120 d2 c0 40 be a6 fc df 3b 15 e7 28 be f3 3d aa 3d
       -0.18823555 0.006835538 -0.16494401 0.08312597
000130 18 5e 5b be 56 c8 94 bd 21 9e 8b 3d 4a 73 01 be
       -0.21422613 -0.072647735 0.0681727 -0.12641636
000140 74 d8 24 3e 32 0f 91 3b 06 e6 40 3e 1b 45 9a 3d
       0.16098195 0.0044268603 0.18837747 0.07532712
000150 c7 5d 18 bd a4 51 45 3d 52 ba 47 3e e3 61 c4 bc
       -0.037198808 0.04817356 0.1950467 -0.023972457
000160 a2 aa 3a 3e 43 53 1a be 61 5b 5d 3e b6 93 fe 3d
       0.18229154 -0.15070824 0.2161689 0.124305174
000170 07 a0 e2 bd 6e ab 2b 3e f4 d8 69 3d 00 88 4e 3e
       -0.11065679 0.16764614 0.05709167 0.20169067
000180 c4 83 34 be 3a c2 48 be f8 3b 54 3e 1a d5 c7 3d
       -0.1762839 -0.19605342 0.20726001 0.09757443
000190 15 5d 11 bd dd 95 b6 3d 53 c4 20 3e ee 0b b3 3d
       -0.03548916 0.08915303 0.15699892 0.0874251
0001a0 ba 13 7d bd 1c 1c a2 bd 31 4c e5 bd c8 4b 74 ba
       -0.06178639 -0.07915518 -0.11196173 -0.00093191536
0001b0 5a f7 04 be f6 98 1f 3e 5f 86 c2 bc ec 7c 95 bd
       -0.12984982 0.15585694 -0.023745714 -0.072992176
0001c0 87 ce 98 3d 1d 05 bb bd 4e 90 b2 bd 42 7d 39 3d
       0.07461267 -0.09131835 -0.0871893 0.04528547
0001d0 c1 ce c7 3d aa a5 a9 3b 28 27 3c 3e 8e 25 ce bd
       0.09756232 0.0051772194 0.18374312 -0.10065757
0001e0 32 b1 d4 bd 08 09 98 bc 67 f5 0b 3e 10 20 c0 bd
       -0.1038536 -0.018558994 0.13667832 -0.093811154
0001f0 ee 77 17 3e 89 11 1f 3e e5 67 26 3e a5 ec 2b be
       0.14791843 0.15534033 0.1625057 -0.16789491
000200 4e 3e 4b 3e fb 57 0f be e9 16 4a bd 38 49 5a be
       0.19847986 -0.13998406 -0.049338255 -0.21316993
000210 f9 81 26 3e 92 e1 2d 3e 35 de 3b 3e 34 b9 8a bc
       0.16260518 0.1698058 0.18346484 -0.016934015
000220 16 d0 56 3e f8 91 dd bd fb b8 f7 bd 09 d8 13 3e
       0.20977816 -0.10818857 -0.12095829 0.1443788
000230 9e 7d cd bd a5 1f ab 3d 5a 84 90 3d 35 f2 81 bd
       -0.10033725 0.08355645 0.07056494 -0.063450254
000240 12 60 50 3e e9 d9 2b 3e 08 05 2e be 97 c2 8e 3c
       0.20349148 0.16782345 -0.16994107 0.017426772
000250 92 b2 8e 3c 4b b9 64 3c bb 8b 43 3d c9 0c ce bd
       0.017419133 0.013960193 0.04774068 -0.10061032
000260 65 be 50 bc b5 43 fa bc f3 74 c4 3c e9 44 40 be
       -0.012740706 -0.030549863 0.023981547 -0.18776287
000270 a8 8a 46 3e 65 ab 9d 3d b1 1c e7 3d 68 c6 49 bd
       0.1938883 0.076987065 0.11284769 -0.04926148
000280 82 e3 10 3e 0f de e9 bd 40 9e a7 39 23 6c 47 be
       0.14149287 -0.114193074 0.00031970628 -0.19474845
000290 f3 70 d0 3d 40 26 ee bd b3 d3 07 be e6 7e 04 be
       0.10177793 -0.11628389 -0.1326435 -0.12939033
0002a0 51 c5 42 3e 1d 28 4e be d2 f0 81 bd 2d 00 69 3c
       0.19020583 -0.2013249 -0.06344761 0.014221233
0002b0 b1 3b 0b 3e 75 f9 e8 bc a4 af 30 be 46 1f 16 3e
       0.13596989 -0.028439263 -0.17254502 0.14660367
0002c0 82 cb 09 3e cf 74 ae bd b5 75 00 bd 01 a7 08 be
       0.13456538 -0.08518373 -0.031362254 -0.13344957
0002d0 44 68 a6 bc 5e ac 1d bd 09 dc 4b 3e 76 28 14 be
       -0.02031339 -0.03849446 0.19908156 -0.1446856
0002e0 b2 f9 33 be bc c8 e1 3d cd fc 69 bd e1 4c 54 3e
       -0.1757572 0.11024615 -0.057125855 0.20732452
0002f0 dc 06 82 3d d7 fe a8 bd 90 5d 0d 3d a2 d8 30 3e
       0.063489646 -0.08251732 0.034513056 0.17270139
000300 52 79 22 3d 4d d2 3e be 14 8e 34 be 00 01 53 3e
       0.03966648 -0.18634911 -0.17632324 0.2060585
000310 df 23 53 be 4c f8 43 3e d2 49 24 3d be fb ec 3d
       -0.20619152 0.19137686 0.040109463 0.115714535
000320 6c c6 b9 3c a1 ce 0b 3e 18 22 23 bd 4f ac cd 3d
       0.022677623 0.13653041 -0.039827436 0.10042631
000330 1f b8 98 3b 19 f2 00 bd 11 35 39 3e e4 e7 27 be
       0.004660621 -0.031480882 0.1808665 -0.16397053
000340 40 4e ca 3d 30 10 15 3e 5c ed 17 be b6 9b 80 bb
       0.09878206 0.14556956 -0.14836639 -0.003924812
000350 b9 64 34 bd 13 fb 69 3c ed 36 50 3e 6a f8 5d be
       -0.04404137 0.014281052 0.20333453 -0.21676794
000360 11 8e 34 be 32 ac 3f be 7c 56 24 be 86 3d bb bb
       -0.17632319 -0.18718031 -0.16048616 -0.0057141213
000370 7c 75 77 3d 6c 09 58 3e db 80 cc 3c 36 70 0c be
       0.060414776 0.21097344 0.024963787 -0.1371468
000380 e7 1b a1 bd e3 17 80 3c e9 24 24 3e 93 2d 2c be
       -0.0786665 0.01563639 0.16029705 -0.1681426
000390 bc e3 fd 3d 38 6a 32 3e fe 88 72 3d db 4c 52 3e
       0.123969525 0.17423332 0.059212677 0.2053713
0003a0 81 44 5b be 93 0e 26 be 31 2e 55 bd d7 53 5d be
       -0.21412851 -0.16216497 -0.052046005 -0.21614014
0003b0 67 ef b8 bd 4a dd c8 3d c6 e1 b1 3d 7d f3 46 be
       -0.090300374 0.098078325 0.08685641 -0.19428821
0003c0 86 94 f5 3a 26 4c 15 3d cb 36 f1 3d 9e 68 0a 3c
       0.001873628 0.036449574 0.11778029 0.008447794
0003d0 e5 9c f9 bc e2 a0 47 3e 64 60 8d bd 06 a2 9b 3c
       -0.030470321 0.19494966 -0.06903151 0.018998157
0003e0 21 06 1d be cf ab 09 3e f9 17 0f be 00 ce 59 be
       -0.15334369 0.13444446 -0.13973989 -0.21269989
0003f0 7d 53 03 be a4 7f 08 be 20 d1 ed 3d 5a 68 62 3e
       -0.12824817 -0.13329941 0.11612153 0.2211012

net.2.weight f4 [256, 256]
000000 fc fc 09 3a ff c0 39 bd d7 f2 8e bb b4 33 17 3d
       0.0005263833 -0.04535007 -0.004362445 0.036914542
000010 95 4b 03 bd 61 2b 36 3d f6 36 52 3d 7e d1 34 3d
       -0.032054503 0.044474963 0.051321946 0.0441451
000020 0f e2 b7 3b 80 b0 5e ba 1f f2 71 3d f4 e5 0f 3d
       0.005611665 -0.00084949285 0.059068795 0.03513141
000030 8d 0d 74 bd 04 75 53 3d d8 f6 0d bc aa eb 82 bd
       -0.059583236 0.051625267 -0.008664809 -0.063926056
000040 19 c2 0a 3d 9a 86 26 3c 5f a9 36 bd fb e0 33 3d
       0.033876512 0.010163927 -0.04459512 0.04391573
000050 05 69 3b bd 45 3e 55 3d c5 b6 e8 bc 54 09 9f bc
       -0.04575445 0.052061338 -0.028407464 -0.019413628
000060 ab 59 7b bd 8f 58 4d bd 21 b4 a8 39 78 a8 d1 bc
       -0.06136481 -0.050133284 0.00032177664 -0.025593027
000070 0b ef 3d bd fa 18 8a 3c 7a b5 60 3d bc 28 ff bc
       -0.046370547 0.016857613 0.05486057 -0.031147353
000080 ae 8d 4c 3c d2 ec ce bc 89 25 2f 3d 43 7a 9b 3c
       0.012484951 -0.02525941 0.042760406 0.018979197
000090 f9 58 68 3b b8 e1 02 bc 8e b9 57 bd 10 d1 f4 bc
       0.0035453422 -0.007988386 -0.052667193 -0.029884845
0000a0 9f 83 66 3d ad fc 83 3c de d3 61 3d 99 60 b2 bb
       0.056277867 0.016111696 0.055133693 -0.0054436442
0000b0 e4 6f de 3c f3 cf 2a 3d 22 fe 4a bc 3a ed 1b 3d
       0.027152963 0.041702222 -0.012389692 0.038068034
0000c0 ed f0 53 bc c5 3a 04 3d 4e fd 01 bd 3c f4 df 3b
       -0.012935859 0.03228261 -0.03173571 0.006834535
0000d0 fe d0 f7 ba 97 3b 62 bd 32 09 25 bd aa b0 c7 3c
       -0.0018906889 -0.05523261 -0.040291972 0.024376232
0000e0 61 52 59 3d 56 ba 24 3c cc d1 ad bc 68 53 88 bc
       0.05305708 0.010054192 -0.021218203 -0.016641334
0000f0 b4 db d6 bc 3f fd 5e 3d 1a a5 71 3d df ad 80 bd
       -0.02622781 0.054440733 0.058995344 -0.06283163
000100 8c c1 17 bd 36 a9 61 3d 55 62 80 bb 38 54 49 3d
       -0.037049815 0.055093013 -0.003917972 0.049152583
000110 c2 a5 90 3c 13 32 6d 3d 52 e0 79 3d 06 d9 23 bd
       0.017657164 0.057909083 0.061004944 -0.04000189
000120 a0 77 47 bd 2e 04 13 3d 46 40 73 3a b9 2a 66 3d
       -0.048698068 0.035892658 0.0009279292 0.056193087
000130 b6 68 48 bc 09 bc 29 bd 2d ce 7c 3c bd 19 a8 3c
       -0.012231996 -0.04143909 0.0154300155 0.020520085
000140 98 9e d5 bc c9 99 e4 3c 85 fa 8c 3a 34 99 98 bc
       -0.0260766 0.027905362 0.0010755813 -0.01862774
000150 ec 2d 16 bd 99 9b 41 bd 9f f8 36 bd 8f 42 94 bc
       -0.03666489 -0.04726753 -0.044670697 -0.018098144
000160 b8 10 43 3d a2 6d 89 3c 46 ca 53 3d 8a 50 e5 3c
       0.047623366 0.01677591 0.051706575 0.027992506
000170 d9 f7 32 ba f3 2c 67 bd 9d 1e 47 bd 03 f4 02 3c
       -0.00068270933 -0.05643935 -0.04861318 0.007992747
000180 d2 37 05 bd 5e 9c 16 3d 63 e0 47 bd 7c 6c 04 bd
       -0.032523938 0.036770217 -0.048797976 -0.03233002
000190 7a fb 2c 3d 46 0c ad bb e5 04 86 3b 00 7f 00 3d
       0.042232014 -0.005281004 0.004089939 0.031371117
0001a0 d5 57 0c bd 10 30 77 3d d6 44 6b bd f1 40 64 3c
       -0.03426345 0.06034857 -0.057438694 0.013931499
0001b0 a7 ce 2b 3d c1 31 11 bc b1 d5 06 3d a7 0f 4a bd
       0.041945126 -0.00886196 0.032918636 -0.049331333
0001c0 b3 a4 41 bd 6d 30 96 3b 24 8a 56 bd 1a b2 1f bd
       -0.04727621 0.0045834095 -0.052377835 -0.03898821
0001d0 58 b9 3d 3c e5 63 2c bd e1 42 00 3d a7 73 12 bd
       0.011579834 -0.042087454 0.03131378 -0.035754826
0001e0 a2 cc 71 bd 8b ef 83 bb 8e 88 f4 3c cb de 73 3c
       -0.059033044 -0.0040263585 0.02985027 0.014884661
0001f0 08 c7 b4 3c a8 46 12 3d 8e 61 fe 3c ed 6b 1c 3d
       0.022067562 0.035711914 0.031052377 0.038188864
000200 ec 68 e8 3c b0 23 37 bd 71 c9 80 bd 37 e6 b6 3b
       0.028370343 -0.04471177 -0.06288422 0.005581643
000210 b6 0d b4 39 23 8e b7 3b 01 48 81 bd 80 d3 16 3c
       0.0003434249 0.005601661 -0.06312562 0.009205699
000220 ef d2 95 ba 34 a7 3c bc 74 46 72 3c f3 f6 4e 3d
       -0.0011430661 -0.011514474 0.014787305 0.050528478
000230 e4 62 a1 3c 69 6c 02 3d 87 21 b5 3c a3 99 bc 3c
       0.019700475 0.03184167 0.022110714 0.023022478
000240 94 36 0d bc 08 95 07 3d a1 00 07 3d da 3f cd 3c
       -0.0086189695 0.03310111 0.032959584 0.02505486
000250 0a e1 20 3d a5 a9 7d bd 98 70 dd bc 71 a3 13 bd
       0.039277114 -0.061929364 -0.027031228 -0.03604454
000260 61 32 06 3d ca ba 09 bd 7e a7 c0 3c 05 a8 7b bd
       0.03276289 -0.0336254 0.023517366 -0.061439533
000270 04 6b 6b 3d 9f 1a 6f 3d a6 66 3c 3c 49 d3 a8 bc
       0.057475105 0.058374997 0.011499083 -0.020608561
000280 44 4b d9 bc 5e e6 19 3d ca ef ab bc 60 1a 6e bc
       -0.026525147 0.03757321 -0.020988364 -0.0145326555
000290 07 a0 97 bc 21 9d 16 3d bc ba 65 3d 20 6a a9 3b
       -0.018508924 0.036770944 0.056086287 0.005170122
0002a0 ff ff cc bc 40 57 fe 3a ac 70 34 3d 43 ea d8 3c
       -0.025024412 0.0019404665 0.044052765 0.026478892
0002b0 ee fb 3f 3c f5 01 c5 bc cb db d2 3c b0 de 88 bc
       0.01171778 -0.024048785 0.025739571 -0.016707748
0002c0 04 ad 61 3d c6 62 f2 3b c1 7c 1a bd a0 87 cf bb
       0.05509664 0.0073970286 -0.03771663 -0.0063333064
0002d0 48 6f 6c bd b1 72 94 bb a9 07 9b 3a 15 c4 87 3b
       -0.057723314 -0.004530274 0.0011827844 0.004143248
0002e0 10 dc f5 3b 39 17 51 bd 0e 04 8e 3c bd cf aa 3c
       0.00750304 -0.051047537 0.017335918 0.02085101
0002f0 32 69 68 3d 84 6d 4e bd 09 af 62 bd 65 52 26 bd
       0.056740947 -0.05039741 -0.055342708 -0.04060592
000300 32 8e e5 bc 1d 17 15 3d ad 0c cf 3c f8 c9 a4 3a
       -0.028021906 0.036398996 0.025274599 0.0012572398
000310 9d 3d cf 3b 34 5d 60 3b 8a 8a 23 3d 4b 2a a7 bc
       0.0063244835 0.003423524 0.039927043 -0.020405909
000320 17 70 5e bd 32 f0 40 bd cd 27 4c bd 40 20 66 3d
       -0.054306116 -0.047104068 -0.049842644 0.0561831
000330 7c c0 60 3c 53 b4 d6 bb 95 2c 3f 3d 99 3d 99 bb
       0.013717767 -0.006552258 0.046673376 -0.0046765325
000340 a4 16 8e 3c f1 20 4b 3d 32 67 42 bd 55 85 8d bc
       0.01734478 0.049591962 -0.047461696 -0.017275492
000350 d0 1a f0 3b 92 19 1f 3d 93 94 30 bc 92 cf 63 bd
       0.007327415 0.038842745 -0.01077761 -0.055617876
000360 30 e5 ea 3c 07 95 28 3d 39 c4 4f 3d 46 92 b8 3c
       0.028673738 0.04115775 0.050724242 0.022530686
000370 d4 6c 5b bd 2c ed 00 3d 1d c3 67 bb bc 35 ee 3c
       -0.053570583 0.031476185 -0.00353641 0.029078357
000380 6e 13 7e bd 69 d3 b1 ba c7 a5 81 bd c0 32 3f 3c
       -0.06203025 -0.0013567033 -0.06330448 0.011669815
000390 be 54 02 3d da 3e 86 bc ec d5 39 bc f7 06 22 3c
       0.031819098 -0.016387392 -0.011342507 0.009889356
0003a0 ff a3 eb bc 0e 9d 70 bc df cf 05 3d d2 cb 54 bc
       -0.028764723 -0.014685882 0.032668944 -0.012988048
0003b0 09 b2 17 bb 75 19 15 3d 08 76 0a bd b7 fd 36 3d
       -0.0023146889 0.03640123 -0.03380397 0.044675555
0003c0 fa 6a 0f 3d 77 fc b4 3c 22 99 f8 3b 08 f1 5d 3c
       0.03501413 0.02209304 0.007586614 0.013546236
0003d0 27 22 83 bd bb 56 44 3c d3 f2 ed bc b1 2a 37 bd
       -0.064029984 0.011983569 -0.029046452 -0.044718448
0003e0 24 e1 df 3c fd eb a8 bc b8 2c 6d 3d 20 c4 8d bc
       0.027329035 -0.02062034 0.057903975 -0.017305434
0003f0 82 41 56 bd d4 67 8c bc 86 ea 4b 3d 5d d5 90 bb
       -0.052308567 -0.017139353 0.049784206 -0.004419966

net.2.bias f4 [256]
000000 14 48 4c 3d 4a 93 7b 3d 13 62 a1 3c fd d0 20 3c
       0.049873427 0.061419763 0.019700086 0.009815452
000010 d8 ef b2 bc 2a dd 06 3c 3a bd dc 3c f3 c2 5d 3d
       -0.021842882 0.008231441 0.026945699 0.054140996
000020 51 a0 c8 bb 87 18 0c 3d e1 39 59 3d 0d 3a e9 3c
       -0.006122627 0.03420308 0.053033713 0.028470064
000030 e4 05 74 bd 6f 1b 2a bd 96 55 51 bd 86 f1 a0 ba
       -0.05957593 -0.04153007 -0.05110701 -0.0012279011
000040 a3 21 08 bd 85 f0 4e 3d 34 7d 11 3d 6c 00 2c 3b
       -0.033235203 0.050522346 0.035519794 0.0026245369
000050 0c 24 b1 bc bd c0 71 3d f1 fe 19 3d d9 4f 3e 3d
       -0.021623634 0.0590217 0.037596647 0.046462867
000060 2e ea 56 bd 0b 43 bf 3c 3e 96 f6 bc 3a 13 75 bd
       -0.052469425 0.023347398 -0.030100938 -0.05983279
000070 fc 07 60 bd 98 e6 c8 bc d3 af 48 bb 2d 56 4e 3d
       -0.054695114 -0.024524018 -0.0030622378 0.050375152
000080 dd 15 84 3a db 49 9b 3c b1 0e 66 3d 86 6c 6f 3c
       0.0010077317 0.018956115 0.056166355 0.014613276
000090 23 49 a4 3c 32 f4 16 bd 1f b2 95 3c f8 e9 2d bc
       0.020054406 -0.036853977 0.018273411 -0.0106148645
0000a0 be f0 6d bc 86 39 cb 3c c9 ce 3a bc 30 df 43 3c
       -0.014522729 0.024807703 -0.0114018405 0.0119550675
0000b0 1b 69 78 bd 91 d6 09 3d 70 de 34 bc 32 a4 55 3d
       -0.06064711 0.033651892 -0.011039361 0.052158542
0000c0 68 75 98 3c 62 67 e6 3c 77 de af bc 33 ed 66 3d
       0.018610671 0.028125469 -0.021468384 0.056378555
0000d0 e2 c5 5f bc bb b2 41 3d 27 cb 5b 3d 56 82 15 bb
       -0.013658019 0.04728959 0.053660538 -0.0022813282
0000e0 28 aa 9a 3a cd ad 58 bc b2 f2 24 bd c1 6a a3 3c
       0.0011799978 -0.013225031 -0.040270515 0.019948365
0000f0 72 c2 6a 3d ba 4f 9e bc 6e 49 1e bd 58 39 4b bd
       0.057314344 -0.019325126 -0.038644247 -0.049615234
000100 4e e0 47 3d ce 4f 0e 3c e5 91 b6 3c e8 1e 49 3d
       0.048797898 0.008686019 0.022286365 0.04910174
000110 96 42 12 bd f5 c6 42 bd c1 95 03 bd 43 e9 8b 3c
       -0.035708033 -0.04755302 -0.03212524 0.017079001
000120 40 92 90 ba 58 bd 56 3d 9e 0e f6 3b 41 ef d6 3c
       -0.0011029914 0.052426666 0.0075090667 0.026237132
000130 d5 3c a5 bb 35 49 48 bc 4e 35 84 3c 4e 41 53 3d
       -0.005042652 -0.012224485 0.016138699 0.05157595
000140 1d ad 7e bd cc 23 4a 3d a2 06 7a 3d a5 8c cc 3c
       -0.062176812 0.049350545 0.06104148 0.024969408
000150 d3 4d 59 bd f8 12 7f 3c 49 9d 32 3d cf ed 19 bd
       -0.053052735 0.015568487 0.04360703 -0.037580308
000160 3b 09 3e bd af 66 42 3c a5 26 35 3c b4 67 11 bd
       -0.04639552 0.011865302 0.011056577 -0.03549929
000170 6a 0e 60 bd 20 68 1d bd b1 0c 7c bd c4 1e 21 3d
       -0.054701246 -0.03842938 -0.06153554 0.03933598
000180 29 3b 65 bd b2 5a a9 3a 3f 37 56 3b 31 cc 38 bc
       -0.055964623 0.0012920706 0.0032686738 -0.011279152
000190 46 71 45 3d 63 90 2a 3c c9 2b 6b 3d 5f ce 74 3d
       0.04820373 0.010410401 0.057414804 0.059767123
0001a0 d5 12 62 3d f1 91 1f 3d b2 2e 30 3d e7 3d 00 3d
       0.05519374 0.03895754 0.043013282 0.031309035
0001b0 cf 76 06 3c be 35 c1 bc db d8 4c 3b 48 c0 73 bd
       0.008207037 -0.023585197 0.0031257186 -0.059509546
0001c0 18 74 2c 3d ce 8c 1c bc d8 b7 1f 3c 21 b6 12 3d
       0.042102903 -0.009555055 0.009748422 0.035818223
0001d0 3f 14 2c 3a 88 ed 1a bc 16 ad 07 3d 6a ac 49 bd
       0.0006564296 -0.009456046 0.033124052 -0.049236692
0001e0 8d cc b1 3b b3 51 c8 bc 78 df 7c bc 91 f1 62 3d
       0.0054259957 -0.02445302 -0.0154341385 0.055406157
0001f0 60 dc a6 3b 76 27 67 3d 5e b4 1f 3d 59 18 2b 3d
       0.0050921887 0.056434117 0.03899037 0.041771267
000200 92 26 84 3c 00 20 18 b8 f9 b2 18 3c 3f d9 60 bd
       0.016131673 -3.6269426e-05 0.009320014 -0.054894682
000210 ab ae 39 3d 74 b3 44 bd 43 f9 21 3b 06 89 d5 bc
       0.045332592 -0.048022702 0.0024715222 -0.026066314
000220 1a 5a b1 3c 7a 91 07 bd dc 73 c2 bc ee 22 18 bd
       0.02164941 -0.03309772 -0.023736887 -0.037142687
000230 84 7d 4a 3d c1 b5 45 3d c0 94 0c 3d 10 04 a0 bc
       0.049436107 0.048269037 0.034321547 -0.019533187
000240 ad dc 64 3d 86 de a4 bb d8 77 75 3d e0 0f f6 3c
       0.055874515 -0.0050314097 0.059928745 0.030036867
000250 ad 38 ee 3c 47 4d ee bc 38 b8 76 bd ce aa 82 bc
       0.02907976 -0.029089583 -0.06023428 -0.015950587
000260 1c 77 4e 3d 7d 13 ea 3c 02 f8 80 3d 02 36 1c bd
       0.05040656 0.028573746 0.06297304 -0.038137443
000270 f3 b6 b3 bb cb e0 df bc a1 37 3d 3d 8c 65 d4 bc
       -0.0054844557 -0.02732887 0.04619563 -0.025927328
000280 a7 f6 e0 bc cd 10 d9 bc d7 aa 22 3d be d7 45 bd
       -0.027461363 -0.026497269 0.039713707 -0.04830145
000290 a1 d7 d2 3b 14 e1 ec bc a2 4b d6 bc 0e 82 ca 3b
       0.0064343964 -0.02891592 -0.026159111 0.0061800545
0002a0 a9 37 0a bb 23 a3 0c bd 82 4d 3c bd f4 40 51 bd
       -0.0021090305 -0.034335267 -0.045972355 -0.051087335
0002b0 e0 ee 2e 3d 2b 1f e4 bc ea 70 df 3b bc 44 4c 3d
       0.042708278 -0.027846893 0.0068188803 0.049870238
0002c0 5c 22 23 bd a8 43 9d bc 36 37 0b 3d 4a 2e 7b bd
       -0.03982769 -0.0191973 0.0339882 -0.06132344
0002d0 8c 12 c9 bc 5c f0 14 3d f0 21 1b bd 6f 69 46 bd
       -0.024544977 0.036362037 -0.037874162 -0.048440393
0002e0 8d c6 71 3d 23 cc 91 3c c4 0e 28 3d 65 92 00 3d
       0.059027243 0.017797535 0.041029707 0.031389613
0002f0 a6 d3 23 bd 69 53 09 3d d2 eb c1 bc b6 4a 2f 3c
       -0.039996766 0.03352681 -0.023672018 0.010698965
000300 be b8 a9 bc f5 e2 a7 bc fb f0 2d 3d 54 00 6f bd
       -0.020717975 -0.020493964 0.042466145 -0.058349922
000310 f0 b7 b4 bc 2b 3f f7 3b 63 87 40 3d 26 aa 6c bd
       -0.022060364 0.007545372 0.047004115 -0.057779454
000320 f6 95 13 bc 82 64 2b bd 96 97 bf 3c 5f 35 2e bd
       -0.009007921 -0.0418439 0.023387711 -0.042531367
000330 12 32 2a bd a9 2e 29 bd f9 0d 53 3d b5 37 1a bd
       -0.041551657 -0.041304264 0.051526997 -0.037650783
000340 c0 96 22 bd 44 ed 51 bd 8a 9b d1 bc c2 85 ea 3c
       -0.039694548 -0.051251665 -0.025586862 0.028628234
000350 8d e0 52 bd 8e 84 37 bd fd 09 b5 3c 4c 12 f0 bc
       -0.05148368 -0.04480415 0.02209949 -0.0293056
000360 b6 14 13 3d 51 ec 81 3c 09 c6 c0 bc d7 cd 07 bc
       0.035908423 0.015859755 -0.02353193 -0.008288822
000370 93 50 63 3c 20 d1 04 3d 56 92 62 bd 04 5b 6e bd
       0.013874191 0.032426 -0.055315338 -0.058192268
000380 04 7d 2a bd 38 0a 49 bd 68 36 19 3d a1 16 c6 3c
       -0.04162313 -0.04908201 0.0374054 0.024180712
000390 87 49 62 3d 50 5b c3 3b 5d 71 26 3c c5 58 30 3d
       0.055245902 0.005961813 0.010158864 0.043053407
0003a0 fe 65 35 3d 4e 5b f1 3c 14 3b 1e 3d 71 f7 0d 3d
       0.04428672 0.029462483 0.03863056 0.034659807
0003b0 eb 62 83 3d 48 00 df 3c bd d4 6f 3d 0b af 1a ba
       0.064153515 0.027221814 0.058552492 -0.0005900717
0003c0 9a a4 ee 3c f4 45 4a bd 56 b3 76 bd 6d 74 b0 bb
       0.029131223 -0.04938312 -0.06022962 -0.005384973
0003d0 ca a6 fa bc c0 0b e4 bb 14 c7 6e bd 67 7a fd 3c
       -0.03059711 -0.0069594085 -0.058295324 0.030942155
0003e0 f8 04 09 3d 0c ca 76 bd ba bf e6 3c 9b c9 7a bc
       0.033452004 -0.06025128 0.028167594 -0.015306856
0003f0 60 45 2c 3d ce 12 bb bc 94 67 bc 3c c4 ac 4d bd
       0.04205835 -0.022836115 0.022998609 -0.05021359

net.4.weight f4 [4, 256]
000000 93 d3 12 bc b2 e1 3b bc c6 1f 26 bd f2 4d fe ba
       -0.008961576 -0.011467384 -0.040557645 -0.0019401892
000010 bd d9 24 bd 94 ca 52 bc 05 92 e5 3c 9c 5f 1e 3d
       -0.040246714 -0.012865681 0.02802373 0.0386654
000020 7b 2b 15 3d 02 c4 50 bd a0 0f b2 3a 7c 4f 44 3d
       0.03641842 -0.050968178 0.0013584979 0.047927365
000030 0d 0b 24 bd 4f ba 73 3d a9 8a bb 3c d2 3a 08 3d
       -0.0400496 0.05950385 0.022893267 0.03325922
000040 33 9d 63 bc e5 33 22 3d 70 d2 f5 bc aa 25 a0 3c
       -0.01389246 0.03960027 -0.030007571 0.01954921
000050 ac 34 69 3d dc c3 ba bc d6 9e af 3b 13 85 cc ba
       0.056934997 -0.022798471 0.005359511 -0.0015603624
000060 23 40 02 3d 8b 56 2c bd bf cf 0f bd e0 33 34 3c
       0.031799447 -0.04207472 -0.03511023 0.010998696
000070 76 12 2a bd c8 c7 45 bc 74 a5 66 bc 41 bf 51 3c
       -0.041521512 -0.012071557 -0.014077533 0.012801946
000080 1a 40 7c 3b ff dc 14 bd 5a ca fd 3c fc b1 10 bc
       0.0038490356 -0.03634357 0.030980278 -0.008831497
000090 8d a0 67 bb cf ee 30 bd a1 36 19 bc a6 2a 47 bd
       -0.0035343498 -0.043196496 -0.009351403 -0.048624657
0000a0 ba 26 d6 bc 58 b3 55 3c ec 00 5c 3d b0 15 2f 3d
       -0.026141513 0.013043247 0.053711817 0.042745292
0000b0 30 d3 3b 3c 23 54 19 3d 6b 12 27 bc e1 eb fe 3c
       0.011463925 0.037433755 -0.010197262 0.031118335
0000c0 18 76 20 bd c8 8f 0a bb ba 7f 0e bc b5 36 17 3d
       -0.039175123 -0.002114283 -0.008697445 0.036917407
0000d0 0f 18 11 3d 09 df 68 bb 46 ab 2d 3c e0 17 1a bc
       0.035423335 -0.003553333 0.010599917 -0.009405106
0000e0 77 4e 3a 3c e6 ac 39 3c ab 40 db bc db c2 50 bc
       0.011371247 0.011332726 -0.026764235 -0.01274177
0000f0 4b 05 83 3c 3f 15 00 3d 98 b4 59 bd e2 cb 4a bd
       0.015993735 0.03127026 -0.053150743 -0.049510844
000100 2b 47 cc 3c 28 9f 06 3d a4 c5 51 3c ba f1 b9 3c
       0.02493628 0.032866627 0.012803469 0.022698272
000110 f8 ac 76 bd 4f c1 74 bd c9 d3 e1 bc 24 60 4e 3d
       -0.06022355 -0.059754666 -0.027566807 0.050384656
000120 88 65 3a bd ae f1 43 bd 8b f3 46 3d 75 ec e6 bc
       -0.045506984 -0.047837906 0.048572104 -0.028188923
000130 ec a3 79 ba ad db 4c bc 2d e4 04 3c 02 b0 57 3d
       -0.00095230225 -0.012503547 0.008111042 0.05265809
000140 dc ed 16 bd 3a 98 24 3d c0 16 38 3c 99 fc 9a bc
       -0.036847934 0.040184237 0.011235893 -0.018919276
000150 ab fb b6 3c 3c 11 12 bd 50 96 2a bd 85 c2 07 bd
       0.022336802 -0.035660967 -0.041647255 -0.033144493
000160 70 a1 0e 3d 27 37 bc bc 99 09 a4 bc b2 01 01 3d
       0.034821928 -0.022975517 -0.020024108 0.031495757
000170 08 dc fe 3c ac b3 e8 bc 7e e0 44 bd 62 5a e3 3c
       0.031110778 -0.028405987 -0.048065655 0.027753059
000180 f2 67 33 bc d5 26 21 3d b6 cb bb 3c 28 d0 e1 3c
       -0.010950075 0.039343674 0.022924285 0.027565077
000190 aa 8e 8b 3c c0 62 f5 3c 24 b0 39 bd 4a 07 5a bc
       0.017035801 0.029954314 -0.045333996 -0.013307402
0001a0 a9 1f be bc f7 5e 14 bd 6b 79 11 3d fd ae d4 bc
       -0.023208456 -0.036223378 0.035516184 -0.025962347
0001b0 97 21 b6 3a 2e cf 70 bd 50 b0 33 bc 32 6c 63 3d
       0.0013895509 -0.058791332 -0.010967329 0.055523105
0001c0 58 b4 27 3b 57 10 22 3d 48 31 0e 3d 05 ad 5d 3d
       0.002558967 0.039566364 0.034714967 0.054120082
0001d0 cd 01 6e bc 6a df dc 3c 84 61 a0 3c ea 6f 14 bd
       -0.0145267965 0.026962 0.01957775 -0.036239542
0001e0 04 a2 62 3d a5 a3 58 bd 88 f3 a7 ba 9b e1 22 3c
       0.05533029 -0.05289044 -0.0012813667 0.009941484
0001f0 4d 95 22 3d a4 f9 76 bd 3a 7e d3 3c 61 0f 13 bc
       0.039693166 -0.06029667 0.025817025 -0.008975835
000200 6c 40 0a bc d8 88 0d 3d de c2 00 3d 0d 37 d4 bc
       -0.008438211 0.034554332 0.03143584 -0.025905157
000210 89 66 8b bb c2 fd f8 bb 28 66 e2 3c 3e dc 2e 3c
       -0.0042541665 -0.0075986097 0.027636603 0.010672627
000220 6c 3a b4 bb 1e 89 5c 3d c8 b5 0b bd 16 5b 96 bb
       -0.0055001285 0.053841703 -0.034108907 -0.004588495
000230 5f 61 10 3c c5 c9 70 3a 80 b0 c0 ba e1 4c 69 3d
       0.008812278 0.00091853394 -0.0014701039 0.056958083
000240 c7 dc c6 3c fc d7 71 3d 2a 88 f1 bb be 30 b4 bc
       0.024275197 0.05904387 -0.0073709683 -0.021995898
000250 1a c4 c6 3c 5d b0 18 bd 40 60 be ba d2 79 e4 bb
       0.02426343 -0.037277568 -0.0014524534 -0.00697253
000260 a4 c5 ab bc c2 6e c4 3c e9 6c bd bc e7 54 2c 3d
       -0.020968266 0.023978595 -0.023123221 0.042073157
000270 14 f2 ed 3c 99 7c 42 3c cf ba 5d 3d 26 c8 48 bd
       0.029046096 0.011870527 0.054133233 -0.049019
000280 37 f6 7a 3d 82 89 ee bc 88 09 1a 3c c4 44 17 bd
       0.061269965 -0.029118303 0.0094016865 -0.036930814
000290 27 ba c3 3b 70 79 f7 bb 20 2d ad 3c 05 56 8e 3c
       0.005973119 -0.0075523183 0.021139681 0.017375002
0002a0 21 df 14 bd 56 21 01 3d 87 f6 da bc 2f cf e3 bc
       -0.036345605 0.031525932 -0.026728882 -0.027808754
0002b0 00 9a 37 3d 80 01 93 3c 6a a3 92 3c b2 57 1e 3d
       0.0448246 0.017945051 0.017900188 0.03865785
0002c0 f8 ae 63 3d 02 ff 54 3d 4f 64 17 bd 04 5f 70 bd
       0.055586785 0.052001007 -0.036960896 -0.058684364
0002d0 60 7a bf bc cb 4f e4 bc 70 58 6e 3d be 2e f6 bc
       -0.023373783 -0.02787008 0.05818981 -0.030051585
0002e0 49 9f 54 3d 39 04 35 bd b1 4c c4 3c a6 d8 73 bd
       0.05190972 -0.04419348 0.02396235 -0.059532784
0002f0 e6 68 ea 3c fd 7c 09 bd b2 ad 44 bc 2a 14 d7 3c
       0.028614473 -0.033566464 -0.012004303 0.026254732
000300 0a dc 2e bd 12 64 cf b5 f1 da f3 bc 02 85 f7 bc
       -0.042690314 -1.5451826e-06 -0.029767485 -0.03021479
000310 ae 4a 2a 3d ea 4c 84 3d a5 d6 75 bd c5 c1 32 3d
       0.041575126 0.06459983 -0.060019154 0.043641824
000320 38 ef 65 3d 2c 7b 14 bd 56 cc 6f bd e5 4f 3f bd
       0.05613634 -0.03625028 -0.05854448 -0.046707053
000330 6c b7 bd 3c 19 ac 72 bd 79 de 22 bc d3 e5 fb bc
       0.023158751 -0.059246156 -0.009940737 -0.030749237
000340 ad fd 2d bd 87 30 e9 bc f8 1f 64 bd fc f7 68 3d
       -0.042478252 -0.028465522 -0.05569455 0.05687712
000350 cf 2f 75 3d f2 ea 52 bd 3d 66 5e bd e8 93 52 bd
       0.059860047 -0.051493593 -0.05429672 -0.051410586
000360 fd 56 a9 bc 16 dd 64 3d 63 44 2b bd 5f 4d 75 3c
       -0.020671362 0.055874906 -0.041813266 0.01497206
000370 64 af b9 bc 3a 8f 24 bd 40 e0 cf 3b e8 fb 8a bc
       -0.02266664 -0.040175654 0.0063438714 -0.016965821
000380 b8 a5 c1 bc 1a 3d 60 bd d3 68 8b bc 94 81 16 b8
       -0.023638591 -0.05474577 -0.017017758 -3.5883466e-05
000390 95 9c f7 3b cc c8 4f 3d b6 ca 40 bd 41 c0 85 bb
       0.007556508 0.050728604 -0.04706832 -0.0040817563
0003a0 51 32 c8 3c 25 c9 54 bd 2e a5 87 bb 18 f6 8c 3b
       0.024438055 -0.05194964 -0.004139564 0.0043017976
0003b0 a8 8e f2 3c 1e 0a 5e bd cc d3 dc 3c 08 27 6e 3d
       0.02960904 -0.054208867 0.026956461 0.05814269
0003c0 5b 4a 3f 3c 78 a2 31 bc bc a1 4c bd 9f 69 0f bd
       0.011675443 -0.010841958 -0.04995893 -0.035012837
0003d0 8f 42 db 3c de 97 5f bd 00 da bb 39 e0 c5 11 bd
       0.026765136 -0.05458819 0.00035829842 -0.0355891
0003e0 76 e6 7f 3d b8 90 20 bd e1 b7 ca 3b 8c 3e 18 bd
       0.062475644 -0.039200515 0.006186471 -0.037169024
0003f0 5f 75 0c 3c ae b3 ca 3c ac eb 93 3c 1a 2e 55 3d
       0.008572905 0.024743881 0.018056713 0.05204592

net.4.bias f4 [4]
000000 f7 90 38 3d 48 2e 2d bb b2 c1 80 bc 0a 09 68 bd
       0.045060124 -0.002642529 -0.015717361 -0.056649245
