dqn_learning/speed/models/modelstatedict_3.pth (torch, 292191 bytes, 6 tensors)

net.0.weight f4 [256, 21]
000000 00 c1 21 be e8 89 0f be 97 5f 5a be c4 8e 97 bd
       -0.1579628 -0.14017451 -0.21325527 -0.07400277
000010 f0 c1 6c 3b 28 f0 71 3d 31 02 d8 3d 11 63 1a be
       0.0036126338 0.05906692 0.10547293 -0.15076853
000020 d4 96 21 3e 44 bd 14 3e 12 88 69 bd 5a 63 0a 3e
       0.15780193 0.14525324 -0.057014532 0.13514462
000030 0c 72 68 3d 1a a1 0f be ea 2d 57 3d e8 a4 1a 3d
       0.05674939 -0.14026299 0.05253402 0.037754923
000040 8e fb 47 be 76 38 0e 3c 25 9f 1d 3e 65 82 87 3d
       -0.19529554 0.0086804535 0.1539274 0.06616668
000050 fb c0 5a 3d 83 8a 52 be 0a 55 20 3e d5 ba 20 3e
       0.053406697 -0.2056065 0.1565744 0.15696271
000060 3e e0 d6 bd 9e 38 7c 3d 6b c0 3e 3e 76 2c 09 3c
       -0.104919896 0.06157743 0.18628089 0.008372417
000070 df 02 55 3e 84 69 20 3c ac 8a 3d be 63 5d c9 3c
       0.20801876 0.009790782 -0.1850993 0.024580663
000080 db 2c 1b be 17 4b c5 3b 40 a1 99 3d 06 a1 fc bd
       -0.1515383 0.0060209143 0.07501459 -0.123354
000090 2e f6 f4 3d 8a d2 65 3d 56 62 78 3d 24 df 5a bd
       0.119610175 0.05610899 0.060640655 -0.05343546
0000a0 09 69 e7 3c 5b d1 85 bd 5a 53 de 3c 48 00 10 be
       0.028248327 -0.06534072 0.027139354 -0.14062607
0000b0 cd d4 af 3c 5e 12 40 3e 9b 5e 64 3d c2 65 07 be
       0.021463776 0.18757007 0.055754285 -0.13222411
0000c0 22 56 41 3d 94 17 b2 bd de 0f 2d 3e 9a 95 90 bd
       0.047201283 -0.086959034 0.16900584 -0.07059784
0000d0 d7 cc 5d 3e 7b 20 ef bd f6 6b a5 bd 21 6c 1f 3c
       0.21660171 -0.11676117 -0.080772325 0.00973037
0000e0 cd 77 17 3c 3c 6f 94 3d 1e c7 52 be 88 02 1e bd
       0.009244871 0.07247779 -0.2058377 -0.038576633
0000f0 60 0d ec bb b5 d3 07 3e 74 5a 33 3e 10 9d 40 bd
       -0.007203743 0.13264354 0.17514974 -0.047024786
000100 df 2b ec 3d 0c c3 3e 3d 14 7e 5f 3d 62 be 10 be
       0.11531805 0.04657273 0.054563597 -0.14135125
000110 63 11 a6 3c 5b dc ae bb 1e 1a 2e be d5 23 70 bc
       0.020271963 -0.005336327 -0.1700215 -0.0146569805
000120 05 c4 89 bc 72 90 58 be 3d 18 9d bc 1d 3c 77 3d
       -0.016817102 -0.21148852 -0.019176597 0.060360063
000130 9b 0e 32 3e 10 bc f7 bc 83 ab c5 3c 22 ff 8f bd
       0.17388384 -0.030241042 0.024129635 -0.070310846
000140 86 87 86 3d 16 a8 c2 3d 0c 74 0a be 96 27 43 3e
       0.06568818 0.09504716 -0.13520831 0.1905807
000150 1b c1 19 3e 8b 18 50 3e bb 72 9f 3c 65 e8 86 3d
       0.1501507 0.20321862 0.019463887 0.065872945
000160 a4 52 f3 bd 94 7d 38 bd 33 17 18 be c4 22 ca 3c
       -0.11880997 -0.045041636 -0.148526 0.02467478
000170 e4 e6 04 3e d4 53 07 be 97 a9 4d bd 34 01 8a bd
       0.12978703 -0.13215572 -0.05021056 -0.06738511
000180 ce 21 7d 3d 12 2d 08 3e 50 fc 1c 3e b8 95 4b 3e
       0.061799817 0.13298443 0.15330625 0.19881332
000190 c3 34 5c 3e ae 6f c8 bd 70 02 0e 3e 18 a6 13 3e
       0.21504502 -0.09786926 0.13868117 0.14418828
0001a0 ac ad 7c 3d 6b 46 43 3e 5b 9d 62 3c de bf 41 3c
       0.061689064 0.19069831 0.013831462 0.01182553
0001b0 44 f8 79 3d 74 ba 01 3e 2c d2 6a 3d 29 99 f7 3d
       0.06102778 0.12668782 0.05732934 0.1208976
0001c0 09 71 a9 3d a0 59 94 3c 9f c9 1e be 4c 0b 13 3d
       0.08273513 0.018109143 -0.155066 0.035899445
0001d0 e1 6f 12 3e 62 26 2e 3e 9c 0e 0b be 2f c9 6e bd
       0.14300491 0.1700683 -0.13579792 -0.058297332
0001e0 07 f3 d6 3c fc 90 95 3d df 5e 81 3d 26 3c ec 3d
       0.026238931 0.07303044 0.06316923 0.1153491
0001f0 e7 db 9c 3c df d9 3d be 8e 12 55 be b6 61 a3 bd
       0.019147826 -0.18540142 -0.2080786 -0.07977621
000200 a8 02 dc bd e3 7a d9 3d af 17 89 3c 40 2f 0f be
       -0.10742694 0.10619142 0.016734926 -0.13982868
000210 87 aa 3c 3e 45 00 86 3d 93 27 6f 3d 1c 14 07 be
       0.18424426 0.0654302 0.05838735 -0.13191265
000220 43 6d ca 3d 93 8d 9f bc 32 32 59 bd 1a 5d 2c bd
       0.09884121 -0.019476688 -0.053026386 -0.042080976
000230 22 1e 2e 3e 69 f8 16 be 51 aa 73 bd 65 cb a8 3d
       0.17003682 -0.14743198 -0.0594886 0.082419194
000240 bb df 4e 3d 17 8d 43 3e 99 3b 5d 3e 96 85 b6 3d
       0.050506335 0.1909679 0.21604766 0.08912198
000250 06 03 92 bd f1 6d ef bd 00 b5 b3 bd 56 ae 16 be
       -0.07129483 -0.116908915 -0.087747574 -0.14714941
000260 00 30 16 bd 24 40 7a 3d 71 b3 3c 3e 50 27 49 be
       -0.03666687 0.061096326 0.18427826 -0.19643903
000270 a6 72 09 be 5c 2b 68 bd c6 19 b3 bd 0f cf 30 3e
       -0.13422641 -0.056681976 -0.0874515 0.17266487
000280 54 c0 67 3d 7e 82 bd 3d d7 ad 25 be 40 57 b1 3c
       0.056579903 0.09253405 -0.16179596 0.02164805
000290 a0 cb f5 bb 0e 91 21 be 05 bd f7 bd d9 07 f6 bd
       -0.0075010806 -0.1577799 -0.120965995 -0.120132156
0002a0 02 6c 4c be b4 33 36 3e 00 80 5d be d4 d4 bf 3d
       -0.19963077 0.1779316 -0.2163086 0.093667656
0002b0 20 90 22 3e 53 e5 ce bd 42 1f 11 bd fe 8f 56 be
       0.15875292 -0.10102334 -0.0354302 -0.20953366
0002c0 a1 35 f0 3d 5f 8e 5c 3e f7 2c 05 3d af 29 d9 bd
       0.11728979 0.21538685 0.032513585 -0.10603654
0002d0 ee d4 66 bd ac 24 1f be 11 6e 05 be ad 67 e6 bd
       -0.05635541 -0.15541333 -0.13030268 -0.11250243
0002e0 81 45 0a be 60 c0 21 be fa 10 f7 3d af 93 b3 3d
       -0.13503076 -0.15796041 0.12063785 0.08768403
0002f0 3a bb 46 3d 34 68 18 3d 69 2b 2b 3e 84 1a b3 bd
       0.048518397 0.03720875 0.16715778 -0.08745292
000300 ee 4c 99 bd 6b 45 c0 bd 38 1e a5 bc 19 ce 00 3e
       -0.07485376 -0.093882404 -0.020156011 0.1257862
000310 f0 61 d3 bc 6e 9e a4 3d b9 a0 3e be 94 fb 1b 3d
       -0.025803536 0.080380306 -0.18615998 0.03808172
000320 e7 f1 26 3e c0 ca bb bd f8 b3 d8 bd 7f d8 0f 3e
       0.16303216 -0.09169531 -0.10581201 0.1404743
000330 a5 9e 32 be 74 bc 38 bd f0 5c a0 3c 86 b0 8e 3d
       -0.1744333 -0.045101598 0.019575566 0.06967263
000340 24 9b 6e 3d 70 31 2c bc 61 84 4b 3c 8e 4a bf bd
       0.058253422 -0.010509834 0.012421698 -0.09340392
000350 63 7f 8a bd b8 5f cc bc d4 d4 c1 3d b1 c6 16 3e
       -0.06762578 -0.024947986 0.09464422 0.14724232
000360 ef 5b d8 3c ea d9 0d bd b4 f0 ae 3d e9 ee bf 3d
       0.026411025 -0.034631647 0.08542004 0.0937174
000370 5e ab 59 3e b0 9b b4 bd c3 29 f5 3d d0 4c a7 39
       0.21256778 -0.088187575 0.11970856 0.00031909952
000380 60 c8 2d 3e 0c 0c c2 3c e1 da 28 3e c8 0c 37 3e
       0.16970968 0.023687385 0.16489746 0.1787597
000390 ba 27 e8 3c 48 82 87 bd 77 a8 8f bd a0 27 24 3e
       0.028339256 -0.06616646 -0.07014554 0.1603074
0003a0 60 97 c9 bd 52 8c da 3c 87 04 af 3d 77 71 5c 3e
       -0.098433256 0.026678238 0.085457854 0.21527658
0003b0 58 6b 5c 3e e1 f5 51 3e b1 78 2c 3c 9b 70 ce bd
       0.21525323 0.20503952 0.010526822 -0.100800715
0003c0 35 13 50 3e af 61 0f bd 70 d3 68 bd 50 b1 15 3e
       0.20319827 -0.035005268 -0.056842268 0.1461842
0003d0 86 37 37 bd 2a e6 52 be 87 93 e4 bc 9f 56 57 3c
       -0.044730686 -0.20595613 -0.027902378 0.013143211
0003e0 e6 7e 10 3d 2d d7 4f 3e 5e 4b 4c 3e f9 b3 93 bd
       0.03527727 0.20296927 0.19950625 -0.072120614
0003f0 1f 0a 32 be 56 7f 25 be 01 5b 6b 3d 2b 0d d5 3d
       -0.17386673 -0.16161856 0.057459835 0.10402902

net.0.bias f4 [256]
000000 ca 98 5b 3e 8a 5b 4b 3e b4 9d ac 3d c4 b0 2a bd
       0.21445003 0.19859138 0.08428517 -0.041672483
000010 76 00 7f bc 26 56 06 be 59 b2 a0 3d 7c 43 05 be
       -0.015564075 -0.131188 0.07846517 -0.13014024
000020 9c 02 02 3e cf 15 4c be 3b a9 4c 3e 98 04 b6 bd
       0.12696308 -0.19930194 0.19986431 -0.08887595
000030 8e c0 aa bd bd 09 1f be 80 fc 2c 3c 94 01 8d 3d
       -0.08337508 -0.15531059 0.010558248 0.06885067
000040 14 a5 43 3e 13 fe 2f bd ae 23 5a 3c 2b 27 4d 3e
       0.19105941 -0.042966913 0.013314171 0.20034473
000050 60 04 43 3d 63 6b 8b 3b 10 58 04 3e 6a 04 25 3e
       0.047611594 0.004254745 0.12924218 0.16114965
000060 ad f7 17 3e b5 3b a1 3d 0d 06 51 3e 54 c9 07 be
       0.14840575 0.07872716 0.20412464 -0.13260394
000070 fe 33 96 bc 05 88 91 bd 55 96 2e ba a5 63 1d be
       -0.018335339 -0.07106022 -0.00066599745 -0.15370043
000080 63 dc b3 bd 8a 25 e3 bd f9 94 de 3d 18 92 2a 3e
       -0.0878227 -0.110911444 0.10868258 0.16657293
000090 0c 38 bb bd 5e 9a 52 bd 01 8a 51 3e 57 96 43 3e
       -0.091415495 -0.051416747 0.204628 0.19100319
0000a0 df 1f 82 3c b1 f4 8d 3d ee 00 08 be ba ee 40 3c
       0.015884338 0.06931437 -0.13281605 0.011775667
0000b0 a7 f9 10 be 7a 4f 75 3b 21 3a e9 bc e1 d0 4a be
       -0.14157735 0.0037431405 -0.0284701 -0.19806243
0000c0 c6 7a 0f 3d 84 50 43 be 20 a9 fa bd 1c 79 1a bd
       0.035029195 -0.19073683 -0.12239289 -0.037713155
0000d0 26 8d 32 3d c2 01 32 be 9a eb 33 3e 80 a0 a8 3d
       0.04359164 -0.17383483 0.17570344 0.08233738
0000e0 95 e7 a5 bd fb fd 15 3e b1 2f b1 bc 72 c9 82 bd
       -0.081008114 0.14647667 -0.021629186 -0.06386079
0000f0 22 69 49 be 40 b9 c2 bc c6 04 e7 3d 03 39 06 bc
       -0.19669011 -0.023769975 0.11280207 -0.008192304
000100 5d fb bd bd df 52 12 be 34 59 54 3e 0f 1f 25 3e
       -0.09276459 -0.14289425 0.20737153 0.16125129
000110 d0 6f 8e bd f4 1f 0f 3e e3 b9 a1 bd 4e b1 f8 3d
       -0.0695492 0.13977033 -0.07896783 0.12143193
000120 d2 c0 40 be 69 5c 05 3c 2a 59 28 be eb 64 aa 3d
       -0.18823555 0.008139708 -0.16440263 0.0832003
000130 a5 0a 5b be cc 83 93 bd 8d 96 8c 3d 57 ce 00 be
       -0.2139078 -0.07202873 0.06864653 -0.12578712
000140 ec 5d 25 3e 62 2b 94 3b b7 dc 40 3e 11 44 99 3d
       0.1614911 0.004521773 0.18834196 0.07483686
000150 94 30 18 bd 6f 6e 42 3d ad 89 48 3e 44 f3 bb bc
       -0.037155703 0.0474686 0.19583769 -0.022943147
000160 ab 7f 3b 3e ce f0 19 be 2c 10 5f 3e 05 d5 00 3e
       0.1831042 -0.15033266 0.21783513 0.1258126
000170 a5 2c e3 bd 0f 62 2b 3e fb 78 6a 3d 13 cb 4e 3e
       -0.110925 0.16736625 0.057244282 0.20194654
000180 c4 83 34 be 7d 69 48 be c4 2c 55 3e b4 31 c9 3d
       -0.1762839 -0.1957149 0.20817858 0.09823933
000190 59 bf 13 bd 4b 8a b9 3d 87 fc 20 3e a2 ca b0 3d
       -0.036071155 0.090595804 0.15721332 0.08632399
0001a0 68 da 7a bd f4 6f a2 bd 31 4c e5 bd da 91 4a b9
       -0.061243445 -0.079315096 -0.11196173 -0.00019318555
0001b0 55 b6 04 be 07 26 20 3e 2e 56 be bc d3 24 94 bd
       -0.12960179 0.15639506 -0.023234453 -0.07233586
0001c0 a8 5e 9d 3d b8 4e ba bd 3c b7 af bd f3 71 41 3d
       0.0768407 -0.09097046 -0.08579871 0.04722781
0001d0 fb 08 ca 3d 9d a6 ad 3b 0b 72 3c 3e 04 3a cd bd
       0.09864994 0.005299403 0.18402879 -0.10020831
0001e0 32 b1 d4 bd 49 e2 9c bc 31 91 0b 3e 95 19 be bd
       -0.1038536 -0.01915087 0.13629605 -0.09282223
0001f0 03 05 18 3e b9 97 20 3e 29 bf 26 3e 5d 8b 2b be
       0.14845662 0.15682878 0.1628386 -0.16752382
000200 ae 22 4c 3e ff c4 0f be 0c c3 4c bd 08 aa 59 be
       0.19935104 -0.14039992 -0.0499907 -0.21256268
000210 0c 42 28 3e d8 e4 2f 3e 8d 1e 3d 3e 12 be 8a bc
       0.16431445 0.1717714 0.18468685 -0.016936336
000220 ef 78 56 3e a5 8c dd bd 6e 23 fa bd 46 f6 13 3e
       0.2094457 -0.108178414 -0.12213789 0.14449415
000230 94 7f cc bd 01 9d af 3d 15 0b 8e 3d ae 09 7e bd
       -0.09985271 0.08574868 0.069357075 -0.06202095
000240 8b f5 4f 3e b6 75 2c 3e 59 1e 2e be 2a 68 8e 3c
       0.20308511 0.16841778 -0.17003764 0.017383654
000250 99 32 8b 3c a0 53 71 3c b6 0b 48 3d af 36 cc bd
       0.0169919 0.01472941 0.048839293 -0.099713676
000260 eb a7 49 bc a9 a9 e9 bc b9 9a d3 3c 4a 28 40 be
       -0.012308101 -0.028523283 0.025830613 -0.18765369
000270 06 7e 46 3e b1 f4 9b 3d b1 b5 e8 3d e8 12 45 bd
       0.19384012 0.076150306 0.1136278 -0.048113734
000280 3f 4f 11 3e 41 b4 e9 bd 6d 34 96 3a 23 6c 47 be
       0.14190386 -0.11411334 0.0011459716 -0.19474845
000290 01 dc cf 3d 45 fb e9 bd 27 d9 08 be e6 7e 04 be
       0.10149384 -0.11424879 -0.13364087 -0.12939033
0002a0 1d e7 44 3e 1d 28 4e be d2 f0 81 bd e7 d0 80 3c
       0.19228788 -0.2013249 -0.06344761 0.015724612
0002b0 1f bd 0a 3e 72 24 f5 bc 1b 3e 31 be bd 91 17 3e
       0.13548706 -0.029924605 -0.17308848 0.14801688
0002c0 36 2e 0a 3e b1 ae af bd c2 30 fe bc cf aa 08 be
       0.1349419 -0.085782416 -0.031029109 -0.13346408
0002d0 52 44 9f bc 9d 61 17 bd 03 56 4e 3e 85 27 14 be
       -0.019441757 -0.036958326 0.20149998 -0.144682
0002e0 b2 f9 33 be ea bd e3 3d c4 28 6a bd c8 d6 54 3e
       -0.1757572 0.111202076 -0.057167783 0.20785058
0002f0 a2 80 7e 3d ca cb a6 bd 83 8e 0e 3d 06 08 33 3e
       0.062134393 -0.081443384 0.03480388 0.1748353
000300 f1 40 25 3d b9 eb 3e be 56 68 33 be 80 8b 54 3e
       0.040345136 -0.18644609 -0.1752027 0.2075634
000310 eb e6 53 be 3c 5a 44 3e e3 2f 28 3d 05 2b f0 3d
       -0.20693557 0.19175047 0.041061293 0.11726955
000320 bf 7f ca 3c 19 fd 0c 3e bd 03 21 bd 0a fa ca 3d
       0.024719117 0.13768424 -0.039310206 0.099109724
000330 9d 74 9b 3b 0b e8 01 bd 6d fe 3a 3e 2b 8c 27 be
       0.004744126 -0.031715434 0.18261118 -0.16362064
000340 41 67 ca 3d e5 35 14 3e 5c ed 17 be ed 9f 0a bb
       0.09882975 0.14473684 -0.14836639 -0.0021152452
000350 fe 84 2f bd 63 26 74 3c 9a 36 51 3e f0 f6 5d be
       -0.04285144 0.01490173 0.20430985 -0.2167623
000360 9f 45 35 be b1 82 3e be 16 58 24 be fc b0 b5 bb
       -0.1770234 -0.18604542 -0.16049227 -0.00554478
000370 fe 1d 7f 3d ef f4 58 3e 49 48 d0 3c 36 70 0c be
       0.062284462 0.21187185 0.025425093 -0.1371468
000380 f6 21 a3 bd 0b 9a 79 3c 86 9e 24 3e 60 6d 2b be
       -0.07965462 0.015234481 0.16076097 -0.16740942
000390 39 09 00 3e e4 40 33 3e fd 41 75 3d 34 cc 53 3e
       0.12503518 0.17505223 0.059877384 0.20683366
0003a0 c3 4a 5b be 7a c9 25 be ad c5 59 bd 02 60 5d be
       -0.21415238 -0.16190138 -0.053167034 -0.21618655
0003b0 1c 69 b9 bd 9b f3 ca 3d 29 9d b1 3d ae 85 45 be
       -0.09053251 0.09909745 0.08672554 -0.19289276
0003c0 ea b2 1c 3b bb 0e 19 3d a0 18 f3 3d d3 e4 13 3c
       0.0023910352 0.037367564 0.11869931 0.009026724
0003d0 b9 d2 f0 bc 84 2c 47 3e d6 25 8a bd 1a 7e a6 3c
       -0.029397355 0.19450575 -0.06745498 0.020323802
0003e0 b3 fa 1b be 1f 97 09 3e f9 17 0f be 54 ac 59 be
       -0.15232353 0.13436554 -0.13973989 -0.21257144
0003f0 7d 53 03 be a4 7f 08 be 82 ee eb 3d 44 f8 63 3e
       -0.12824817 -0.13329941 0.11520101 0.22262675

net.2.weight f4 [256, 256]
000000 7d 16 a4 b9 32 68 3d bd e0 e8 9e bb 7b be 12 3d
       -0.00031297273 -0.046241947 -0.004849538 0.035826188
000010 e0 0a 06 bd 64 e0 35 3d 4f f1 4d 3d 7e d1 34 3d
       -0.032725215 0.04440345 0.050278958 0.0441451
000020 f8 07 9a 3b 80 b0 5e ba 79 f3 6f 3d c0 7c 0f 3d
       0.004700657 -0.00084949285 0.058581803 0.03503108
000030 47 88 76 bd 04 75 53 3d d8 f6 0d bc 3f 0c 84 bd
       -0.060188558 0.051625267 -0.008664809 -0.06447648
000040 97 cb 07 3d 94 86 22 3c 6c cb 37 bd a2 90 31 3d
       0.033153143 0.009919781 -0.044871733 0.043350823
000050 88 5c 3e bd a2 da 53 3d b0 91 ef bc a1 29 a2 bc
       -0.046474963 0.051722176 -0.029244274 -0.01979524
000060 b0 be 7e bd 36 01 4e bd 74 03 f0 b8 03 36 d6 bc
       -0.062193573 -0.050294124 -0.00011444735 -0.026148802
000070 20 63 3e bd 71 3d 88 3c 1d bb 5a 3d 70 6f fc bc
       -0.04648125 0.01663086 0.0534011 -0.030814856
000080 76 d0 50 3c 65 1f d1 bc 0c dc 2d 3d c0 bb 94 3c
       0.012745013 -0.025527665 0.04244618 0.018155932
000090 34 77 15 3b 17 c3 0f bc 5a 54 5a bd cf 86 f7 bc
       0.0022806646 -0.00877454 -0.0533031 -0.030215649
0000a0 4d 11 63 3d 7c 4b 81 3c 8d 36 5f 3d 5c c7 c5 bb
       0.05543642 0.015783064 0.054495383 -0.0060357284
0000b0 74 f5 d7 3c 73 18 28 3d cb 63 48 bc f7 62 18 3d
       0.026362158 0.04103894 -0.012230824 0.037203755
0000c0 0e b7 5b bc 4a 5f 00 3d b0 a5 02 bd d4 cf dd 3b
       -0.013410343 0.031340875 -0.031896293 0.00676916
0000d0 82 e4 13 bb 32 be 5e bd 20 ca 26 bd 16 29 c4 3c
       -0.0022566621 -0.054380603 -0.040720105 0.023945373
0000e0 8b 1c 57 3d d6 dc 19 3c bd b6 b7 bc 68 53 88 bc
       0.052517455 0.00939103 -0.022426004 -0.016641334
0000f0 b4 db d6 bc d3 d2 5b 3d 93 5b 69 3d 03 8d 81 bd
       -0.02622781 0.053667855 0.056972098 -0.06325724
000100 0c df 18 bd 62 b2 61 3d 22 92 8f bb a6 b0 45 3d
       -0.03732209 0.05510176 -0.004381434 0.04826417
000110 4a 81 84 3c a1 6c 6a 3d a1 bb 78 3d 9b 87 25 bd
       0.016174931 0.057232503 0.060725812 -0.040412527
000120 a0 77 47 bd e5 ac 11 3d a5 aa 84 3a 6c 80 65 3d
       -0.048698068 0.035565276 0.0010121657 0.056030676
000130 c3 ab 49 bc c3 7d 2a bd 9d 06 68 3c c2 1d a6 3c
       -0.012309018 -0.041623842 0.014161733 0.020277862
000140 19 11 dd bc c3 de dd 3c e1 6d fd 39 0e cc 9a bc
       -0.026985692 0.02708376 0.00048337787 -0.018896129
000150 8e 0f 18 bd 72 15 43 bd 4e 99 38 bd 0c 11 94 bc
       -0.03712421 -0.047627874 -0.045068078 -0.018074535
000160 05 05 40 3d 0f 3e 8a 3c 75 d1 51 3d 28 4b df 3c
       0.046879787 0.016875295 0.051225144 0.027257517
000170 12 86 04 bb 11 b6 67 bd 65 04 48 bd 9a c9 f9 3b
       -0.0020221514 -0.056570116 -0.048832316 0.0076229097
000180 d2 37 05 bd c7 1a 12 3d a5 c3 49 bd ed a5 06 bd
       -0.032523938 0.035670068 -0.049258847 -0.032873083
000190 f2 4a 2c 3d f0 51 c1 bb 0f e3 5c 3b 35 b6 fe 3c
       0.04206366 -0.0058996603 0.0033704673 0.031092742
0001a0 25 0a 0b bd 3f dd 76 3d d6 44 6b bd 52 16 65 3c
       -0.03394522 0.06026959 -0.057438694 0.013982372
0001b0 5f b4 2b 3d 0c 3e 1d bc 32 93 04 3d a4 d8 4a bd
       0.041920062 -0.009597313 0.03236694 -0.04952301
0001c0 9f bb 43 bd c8 39 81 3b 93 aa 56 bd 67 59 25 bd
       -0.04778635 0.0039436556 -0.052408766 -0.040368464
0001d0 2a 3a 31 3c f7 f8 2d bd ce b3 fd 3c 4c 94 14 bd
       0.01081709 -0.04247376 0.030969527 -0.03627424
0001e0 a2 cc 71 bd 7c c3 85 bb 9b 72 ec 3c 14 48 60 3c
       -0.059033044 -0.0040821414 0.028863242 0.01368906
0001f0 f0 ce b0 3c 09 48 0f 3d 54 04 fa 3c d4 04 1a 3d
       0.02158305 0.034980807 0.030519642 0.03760226
000200 70 be de 3c b6 b4 37 bd 78 cb 81 bd b8 67 c3 3b
       0.027190417 -0.044850074 -0.06337637 0.005963292
000210 49 4b eb b9 52 2c b1 3b e5 49 82 bd a4 b1 0f 3c
       -0.00044878785 0.0054068947 -0.063617505 0.00877038
000220 ae 6a e3 ba 3c d1 3c bc 13 ad 67 3c 8b 51 4d 3d
       -0.0017350519 -0.011524495 0.014140385 0.050126594
000230 bf 39 a0 3c fe 0e ff 3c 6b 87 b3 3c 90 ab af 3c
       0.019558785 0.031135079 0.021915158 0.021444112
000240 00 59 18 bc 63 e5 02 3d f6 53 06 3d 76 e5 cc 3c
       -0.009298563 0.03195704 0.032794915 0.02501176
000250 73 43 1b 3d ef 15 81 bd 15 c2 e0 bc 87 62 19 bd
       0.03790612 -0.063030116 -0.027436296 -0.03744748
000260 37 1b 05 3d 0e e0 0b bd 9d 3e ba 3c 46 4e 7a bd
       0.032496657 -0.034149222 0.022734934 -0.061109804
000270 58 a8 6a 3d 11 a9 6c 3d 8f 66 2e 3c 75 26 ad bc
       0.05728945 0.05777842 0.010644569 -0.021136502
000280 c9 8e dd bc 48 fb 18 3d 0a 53 b7 bc 60 1a 6e bc
       -0.027045624 0.037349015 -0.022378463 -0.0145326555
000290 3e e1 9d bc 6c 37 14 3d 19 49 66 3d 20 6a a9 3b
       -0.019272443 0.036185667 0.056222055 0.005170122
0002a0 93 5d d2 bc 40 57 fe 3a ac 70 34 3d 21 44 d5 3c
       -0.025679385 0.0019404665 0.044052765 0.026033463
0002b0 44 fd 31 3c 1b 17 c6 bc 19 d3 ce 3c 94 0a 8f bc
       0.010863606 -0.02418094 0.025247144 -0.017461099
0002c0 bd 80 5f 3d b1 bd e6 3b 51 f9 1d bd 78 11 e8 bb
       0.054566134 0.007041656 -0.038567845 -0.0070821606
0002d0 61 42 6e bd 66 29 a2 bb 89 8f 52 b8 07 22 69 3b
       -0.058168773 -0.0049487827 -5.020158e-05 0.003557326
0002e0 10 dc f5 3b b3 f5 54 bd 28 29 8e 3c 85 d0 a3 3c
       0.00750304 -0.05199213 0.01735361 0.01999689
0002f0 d8 6b 64 3d 20 bf 53 bd a6 7f 64 bd f8 58 29 bd
       0.05576691 -0.051695943 -0.055785798 -0.041344613
000300 0b 1e ea bc 91 df 0e 3d 87 ad d0 3c 02 4d d9 39
       -0.028578779 0.03488118 0.02547337 0.0004144684
000310 56 95 ba 3b 83 0b 50 3b c5 b1 1e 3d 25 7d ab bc
       0.0056940718 0.0031745143 0.038743753 -0.020933697
000320 b5 11 62 bd 61 d4 44 bd fd ec 4d bd 4f 40 63 3d
       -0.055192668 -0.048054103 -0.050274838 0.05548125
000330 59 cf 59 3c 5a e2 dd bb e8 b4 3c 3d 59 f4 b1 bb
       0.013294064 -0.006771368 0.046070963 -0.00543074
000340 f3 28 8b 3c 4c 31 4a 3d 32 67 42 bd 44 08 9d bc
       0.0169873 0.04936342 -0.047461696 -0.01916898
000350 30 19 d5 3b 8a e6 1c 3d 6f 31 39 bc 38 d2 65 bd
       0.0065032467 0.038305797 -0.01130329 -0.056108683
000360 4e f1 e6 3c dc d7 29 3d 69 c2 4f 3d 39 27 b7 3c
       0.028191235 0.041465625 0.050722513 0.02235757
000370 a9 51 5c bd 72 9c fe 3c ce 7d 7b bb bc 35 ee 3c
       -0.053788815 0.031080458 -0.0038374546 0.029078357
000380 d0 5f 7e bd f8 c6 ea ba de a1 83 bd 84 49 31 3c
       -0.062103093 -0.001791208 -0.06427358 0.01082075
000390 b8 53 fe 3c 70 87 8e bc 5d af 42 bc 4d f2 12 3c
       0.03104578 -0.017398566 -0.01188263 0.008968902
0003a0 b6 8e f2 bc 63 05 78 bc 79 d7 02 3d bb ba 55 bc
       -0.029609066 -0.015138003 0.031943772 -0.013045008
0003b0 8b 8a 21 bb 63 10 12 3d 1d b1 0a bd 38 64 34 3d
       -0.0024649228 0.03566016 -0.033860315 0.04404089
0003c0 58 5d 0d 3d fb 40 af 3c 3d e8 e7 3b 94 be 59 3c
       0.034512848 0.02139329 0.0070772455 0.013290066
0003d0 ec 7b 84 bd 7f 13 3c 3c 50 69 f1 bc 0e 53 37 bd
       -0.06468949 0.011479258 -0.029469162 -0.04475694
0003e0 db 4f e4 3c a1 a6 ac bc b8 2c 6d 3d 9c b3 8e bc
       0.02787011 -0.021075549 0.057903975 -0.017419629
0003f0 82 41 56 bd d4 67 8c bc 6a 3b 4b 3d 31 7c a3 bb
       -0.052308567 -0.017139353 0.04961721 -0.00498917

net.2.bias f4 [256]
000000 81 69 49 3d fc a4 79 3d ae 41 9b 3c 38 53 41 3c
       0.049172882 0.060948357 0.018952217 0.011799626
000010 7c 30 b4 bc a0 dc 14 3c 20 a1 e6 3c 2e 28 5c 3d
       -0.021995775 0.009085804 0.028153002 0.053749256
000020 e1 47 e7 bb 34 00 0e 3d 35 cc 5f 3d 04 28 f3 3c
       -0.007058129 0.034668162 0.054638106 0.029682167
000030 61 38 70 bd 4e 5a 2b bd 9a fc 4a bd fa 25 65 38
       -0.058647517 -0.041834168 -0.049557306 5.4633223e-05
000040 6f 2f 05 bd 91 c7 53 3d cf 82 11 3d 3b af 66 3b
       -0.03251594 0.051703993 0.03552514 0.003519966
000050 0c 24 b1 bc 19 a1 6f 3d 66 c3 1c 3d 59 0c 39 3d
       -0.021623634 0.058503244 0.038272284 0.04517779
000060 4a ed 56 bd 81 fb bf 3c 08 27 f4 bc 3a 13 75 bd
       -0.05247239 0.023435356 -0.029803768 -0.05983279
000070 fc 07 60 bd 98 e6 c8 bc 03 56 3f bb 41 3f 56 3d
       -0.054695114 -0.024524018 -0.0029195554 0.052306417
000080 d0 e1 0d 3b 96 cb a7 3c 06 e5 63 3d 61 df 62 3c
       0.0021649487 0.02048282 0.055638336 0.013847203
000090 15 dd a3 3c 61 33 17 bd 9b 0b 91 3c 28 5b 3c bc
       0.020002881 -0.036914233 0.01770573 -0.011496343
0000a0 6a 43 71 bc c3 69 c7 3c d1 eb 31 bc 57 60 4e 3c
       -0.014725545 0.024342423 -0.010859446 0.012596211
0000b0 63 70 79 bd ad ca 0c 3d f2 17 4d bc dc 14 55 3d
       -0.060898196 0.034372974 -0.012517916 0.052021846
0000c0 20 7f 99 3c 5a 28 e1 3c 94 5e bb bc c9 24 66 3d
       0.018737376 0.027485061 -0.022872247 0.056187425
0000d0 3e c3 67 bc b6 4b 3b 3d 41 f2 62 3d a4 e4 f4 ba
       -0.01414567 0.0457265 0.055406813 -0.0018683863
0000e0 77 88 66 3b 67 0b 5d bc 9e 28 23 bd c5 a5 b1 3c
       0.0035176554 -0.013491488 -0.039833657 0.02168549
0000f0 be ad 66 3d 42 89 a2 bc e7 f2 1c bd 58 39 4b bd
       0.056318037 -0.01984084 -0.038317587 -0.049615234
000100 cb 61 52 3d 24 9f 08 3c c5 69 b6 3c ed 7a 52 3d
       0.051362794 0.008338723 0.022267232 0.051386762
000110 96 42 12 bd 27 85 42 bd 1d 0b 00 bd f0 dd 8c 3c
       -0.035708033 -0.047490265 -0.0312606 0.017195672
000120 40 92 90 ba be 3a 54 3d 7e 48 26 3c 89 fd e0 3c
       -0.0011029914 0.051813833 0.010149119 0.027464645
000130 a5 d6 cd bb a5 b0 47 bc 01 57 8f 3c a2 16 55 3d
       -0.006281691 -0.012188111 0.017497541 0.052023537
000140 0a 41 7f bd 21 26 49 3d f1 c2 76 3d a9 36 c5 3c
       -0.062317885 0.04910863 0.060244504 0.024073916
000150 6a 68 52 bd 7b be 74 3c 3f 04 2f 3d cc e6 19 bd
       -0.05136911 0.014937992 0.04272866 -0.03757362
000160 11 a1 40 bd f8 f2 4c 3c 79 ac 37 3c 7b 09 10 bd
       -0.047028605 0.0125091 0.011210554 -0.03516529
000170 6a 0e 60 bd 20 68 1d bd 0d a1 7d bd 51 80 1e 3d
       -0.054701246 -0.03842938 -0.061921168 0.03869659
000180 c3 bf 61 bd 4f 26 e2 3a cf 95 a2 3b b5 aa 3c bc
       -0.05511452 0.0017253848 0.004961706 -0.011515309
000190 7c 10 48 3d 14 66 50 3c ac ae 66 3d b2 84 7a 3d
       0.048843846 0.01271965 0.056318924 0.061161704
0001a0 e0 58 61 3d 97 0c 21 3d d9 5f 38 3d b4 e3 01 3d
       0.0550164 0.039318647 0.045013282 0.031711295
0001b0 91 f9 02 3c 28 16 bd bc e7 08 46 3b 64 8b 77 bd
       0.007994072 -0.023081854 0.0030217709 -0.060435668
0001c0 2b 1c 34 3d 79 d5 10 bc d8 b7 1f 3c 8f cf 13 3d
       0.043972176 -0.008839958 0.009748422 0.036086615
0001d0 4a af 2b 3a a8 b3 e8 bb 28 10 05 3d 6a ac 49 bd
       0.00065492524 -0.007101495 0.03248611 -0.049236692
0001e0 6b 78 b5 3b ee 2b cc bc 42 ea 86 bc d5 45 5e 3d
       0.0055380366 -0.024923291 -0.016469125 0.054265816
0001f0 09 a4 85 3b 28 f1 66 3d 29 9c 26 3d 36 65 34 3d
       0.0040783924 0.05638233 0.04067627 0.044041835
000200 29 12 82 3c 00 20 18 b8 a7 8b 14 3c c2 a9 60 bd
       0.0158778 -3.6269426e-05 0.009066499 -0.054849394
000210 03 d1 38 3d 5f bb 3e bd 6f 5d 0c 3b 81 89 d3 bc
       0.045121204 -0.04656541 0.0021417995 -0.025822403
000220 73 e9 b9 3c 7a 91 07 bd 37 a8 be bc c0 7f 10 bd
       0.022694325 -0.03309772 -0.02327357 -0.035278082
000230 cc ec 48 3d e7 1a 46 3d c0 94 0c 3d 13 77 9c bc
       0.049053952 0.0483655 0.034321547 -0.019099748
000240 3d 0d 63 3d a3 eb 86 bb 77 4c 75 3d 04 31 ed 3c
       0.055432547 -0.0041174456 0.059887376 0.028954037
000250 d9 bc fd 3c 84 75 ef bc 38 b8 76 bd d5 06 86 bc
       0.030973839 -0.02923084 -0.06023428 -0.01636068
000260 91 46 4c 3d 7e 12 fb 3c 29 dd 84 3d e8 ae 1b bd
       0.049871985 0.030648466 0.064874955 -0.0380086
000270 65 2a 96 bb a1 77 d9 bc d9 b0 3c 3d 8c 65 d4 bc
       -0.0045826905 -0.026546301 0.046067093 -0.025927328
000280 38 a9 db bc 14 73 df bc b1 26 20 3d be d7 45 bd
       -0.026814088 -0.027276553 0.0390994 -0.04830145
000290 94 3b a6 3b 14 e1 ec bc af 75 d6 bc 01 e1 d8 3b
       0.0050730202 -0.02891592 -0.026179163 0.0066186194
0002a0 2b 26 1f bb 1a 32 08 bd e8 b2 3a bd ea 47 51 bd
       -0.0024284224 -0.033250906 -0.045580775 -0.051093973
0002b0 14 99 2d 3d 55 5f ec bc 72 6e c4 3b 0c 66 53 3d
       0.042382315 -0.028854052 0.0059946114 0.05161099
0002c0 47 79 26 bd a8 43 9d bc 56 bc 0b 3d c4 81 7e bd
       -0.040643003 -0.0191973 0.034115158 -0.062135473
0002d0 8c 12 c9 bc b1 96 15 3d 64 a3 1f bd 2c 73 46 bd
       -0.024544977 0.036520664 -0.03897418 -0.04844968
0002e0 0f 15 75 3d 6c 63 9a 3c fe 5e 28 3d 97 9a fd 3c
       0.059834536 0.018846236 0.041106217 0.030957503
0002f0 bc 54 25 bd a7 e3 04 3d be e0 c8 bc 6b 06 22 3c
       -0.040364012 0.03244367 -0.024521228 0.0098892255
000300 e3 e5 a3 bc a1 7e a7 bc db 59 2b 3d a8 c5 71 bd
       -0.02000708 -0.020446124 0.04183374 -0.05902639
000310 f0 b7 b4 bc 70 77 fd 3b 28 33 40 3d 70 0c 6b bd
       -0.022060364 0.0077351853 0.046923786 -0.05738491
000320 f5 f3 09 bc 5a 6b 2b bd 7f 14 bc 3c 1c 90 29 bd
       -0.00841998 -0.041850425 0.022958992 -0.0413972
000330 12 32 2a bd b7 a3 28 bd 65 a6 4d 3d 0b 99 18 bd
       -0.041551657 -0.041171756 0.050207514 -0.03725533
000340 d6 9c 20 bd b4 4f 53 bd 35 88 d2 bc 0a eb e8 3c
       -0.03921207 -0.051589683 -0.025699714 0.028432388
000350 2c 6b 50 bd 3c 6b 39 bd 4e 68 b1 3c 4c 12 f0 bc
       -0.050883457 -0.045268282 0.021656182 -0.0293056
000360 3f 1e 1b 3d d2 1c 88 3c c0 3a c3 bc e7 a2 03 bc
       0.03787064 0.016615305 -0.023831725 -0.008034444
000370 18 31 63 3c 35 a9 03 3d 56 92 62 bd 04 5b 6e bd
       0.013866685 0.03214379 -0.055315338 -0.058192268
000380 09 44 23 bd 38 0a 49 bd 45 d1 19 3d 84 8a bc 3c
       -0.039859805 -0.04908201 0.03755309 0.023015268
000390 29 85 66 3d 17 43 f4 3b bf bf 1e 3c 21 ca 30 3d
       0.056279335 0.007454287 0.0096892705 0.043161515
0003a0 03 c3 36 3d 98 c0 eb 3c 40 97 24 3d 4c b6 11 3d
       0.04461957 0.02877836 0.040183306 0.035574242
0003b0 0f ad 88 3d f9 25 e2 3c d2 c3 75 3d 78 26 32 39
       0.06673633 0.027605997 0.060001202 0.00016989734
0003c0 5d 50 fd 3c f4 45 4a bd 56 b3 76 bd e5 14 b1 bb
       0.03092211 -0.04938312 -0.06022962 -0.005404102
0003d0 bc 25 f9 bc c0 0b e4 bb 14 c7 6e bd 7d 5e fe 3c
       -0.030413501 -0.0069594085 -0.058295324 0.031050915
0003e0 d6 75 0a 3d 0c ca 76 bd 81 c2 eb 3c cd 3f 6b bc
       0.033803783 -0.06025128 0.02877927 -0.014358473
0003f0 fe 3c 34 3d 87 24 b3 bc 6e 32 be 3c c4 ac 4d bd
       0.04400348 -0.021868004 0.023217406 -0.05021359

net.4.weight f4 [4, 256]
000000 63 09 07 bc e7 4f 38 bc 8e 27 24 bd 5d 47 94 ba
       -0.008241984 -0.011249519 -0.040076785 -0.0011312772
000010 b0 3e 24 bd 5e f8 4d bc f8 2e e9 3c be 03 1f 3d
       -0.040098846 -0.012571422 0.02846478 0.03882193
000020 5f e4 16 3d aa 1a 4e bd 09 7e ed 3a f8 80 48 3d
       0.036838885 -0.050318398 0.0018119226 0.04895112
000030 2a dd 1d bd 76 0c 74 3d 7c 2c c4 3c 1e ea 0b 3d
       -0.038540997 0.059582196 0.023946993 0.03415882
000040 75 65 4e bc 99 de 25 3d 08 57 f4 bc e7 cb a5 3c
       -0.012597431 0.04049549 -0.029826656 0.02023883
000050 ac 34 69 3d 6a bc ba bc 2d 6f c3 3b c1 8c a6 ba
       0.056934997 -0.022794921 0.005964181 -0.0012706743
000060 68 eb 04 3d 34 1e 2c bd b1 c8 0e bd e0 33 34 3c
       0.032451063 -0.04202099 -0.034859363 0.010998696
000070 76 12 2a bd c8 c7 45 bc ab 79 5e bc ba b7 5c 3c
       -0.041521512 -0.012071557 -0.013578813 0.013471538
000080 52 c3 9b 3b cc a3 12 bd 2f 31 fe 3c 29 06 0d bc
       0.0047535086 -0.03580074 0.031029312 -0.008607426
000090 a5 99 66 bb d1 d7 30 bd 3c bf 11 bc a2 b8 46 bd
       -0.0035186794 -0.04317457 -0.0088956915 -0.048515923
0000a0 d5 90 d4 bc 04 ac 5e 3c 9d 19 5f 3d ae 28 32 3d
       -0.025947968 0.013590816 0.054467786 0.043495826
0000b0 30 d3 3b 3c b5 28 1a 3d d6 66 1e bc ae c9 01 3d
       0.011463925 0.037636478 -0.009668073 0.031686477
0000c0 f8 f1 1f bd 4c b3 e2 ba ef 4f 09 bc dc 62 17 3d
       -0.03904912 -0.0017295866 -0.008380874 0.036959514
0000d0 4c 34 14 3d 32 77 5e bb b1 b1 38 3c e0 17 1a bc
       0.036182687 -0.0033945558 0.011272834 -0.009405106
0000e0 fa 29 57 3c b3 51 46 3c 8c 6f da bc 06 36 43 bc
       0.013132567 0.01210444 -0.026664518 -0.011914736
0000f0 d3 ef 84 3c ca 45 00 3d 98 b4 59 bd e2 cb 4a bd
       0.016227638 0.031316556 -0.053150743 -0.049510844
000100 df bf d5 3c 93 67 08 3d 6b d5 54 3c 08 c4 c1 3c
       0.026092468 0.0333019 0.012990336 0.023653045
000110 f8 ac 76 bd 1c 46 74 bd c3 68 d8 bc 8a 91 4f 3d
       -0.06022355 -0.059637174 -0.026417142 0.050675906
000120 88 65 3a bd 0f 22 43 bd e2 ad 4d 3d cf 16 e0 bc
       -0.045506984 -0.047639903 0.050214656 -0.027354626
000130 0a 4d 31 ba df 2d 4a bc d1 1e 17 3c 24 80 5b 3d
       -0.0006763494 -0.012340038 0.009223656 0.053589
000140 01 6a 16 bd 6a 4d 25 3d 78 17 42 3c 81 20 97 bc
       -0.036722187 0.04035703 0.011846416 -0.018448116
000150 6c 38 be 3c 27 ed 11 bd 0a f4 29 bd 03 95 07 bd
       0.023220263 -0.035626557 -0.0414925 -0.033101093
000160 16 a5 0e 3d 7b f7 b8 bc 93 bb 9f bc 8a c3 02 3d
       0.034825407 -0.022578945 -0.019498622 0.03192476
000170 08 dc fe 3c ac b3 e8 bc 33 69 43 bd 60 ca e8 3c
       0.031110778 -0.028405987 -0.047707748 0.028416812
000180 91 4e 28 bc ad b4 23 3d be 20 c3 3c af 99 e2 3c
       -0.010272638 0.039967228 0.023819324 0.027661173
000190 15 1b 90 3c a6 fb ff 3c 7a 02 38 bd ac 2f 47 bc
       0.017591039 0.031247925 -0.044924237 -0.012157362
0001a0 bd 11 bc bc a8 ff 13 bd c9 e2 16 3d 64 08 d1 bc
       -0.022957677 -0.036132485 0.036837373 -0.025516696
0001b0 be c4 c5 3a cf 08 6f bd 50 b0 33 bc 44 a6 64 3d
       0.0015088541 -0.05835801 -0.010967329 0.055822626
0001c0 b4 5f 62 3b 6a cc 25 3d 48 31 0e 3d be b0 61 3d
       0.0034541907 0.040478148 0.034714967 0.055100195
0001d0 7e fb 6d bc e4 d9 e6 3c 10 b6 a2 3c ea 6f 14 bd
       -0.014525292 0.02818007 0.019862205 -0.036239542
0001e0 7a 2d 66 3d 64 2b 58 bd 20 c7 9b ba 99 1f 25 3c
       0.056195714 -0.052775756 -0.0011884905 0.010078334
0001f0 79 5e 25 3d ec 85 76 bd 46 14 da 3c f4 5e 07 bc
       0.0403733 -0.06018631 0.026620995 -0.008262385
000200 e1 e1 02 bc d8 88 0d 3d e0 28 04 3d 3e 15 ce bc
       -0.007988424 0.034554332 0.032265544 -0.025156613
000210 b7 06 81 bb ac 6a e8 bb a6 24 e6 3c c7 83 3a 3c
       -0.003937568 -0.0070927944 0.028093647 0.011383957
000220 cc 6d 97 bb 1e 89 5c 3d 78 0d 0a bd 83 55 7b bb
       -0.004621243 0.053841703 -0.03370425 -0.003835053
000230 a4 3f 18 3c 07 2e b5 3a 80 b0 c0 ba fa 0f 6a 3d
       0.009292517 0.0013822921 -0.0014701039 0.057144143
000240 05 f2 cc 3c 16 1a 76 3d 08 7c e7 bb f2 c3 b1 bc
       0.025017748 0.06008347 -0.007064346 -0.02169988
000250 7d 86 ce 3c 15 62 14 bd 40 60 be ba ab 03 bf bb
       0.025210613 -0.03622635 -0.0014524534 -0.0058292947
000260 ef aa ab bc 94 db cf 3c 5b 60 b8 bc c2 50 2e 3d
       -0.02095553 0.025373258 -0.022506883 0.042557485
000270 0e 33 f4 3c 5d c8 48 3c b3 c8 5f 3d 26 c8 48 bd
       0.029809501 0.012254802 0.05463476 -0.049019
000280 3f f1 7d 3d 94 87 ea bc d4 fc 23 3c c4 44 17 bd
       0.06199765 -0.028629102 0.010009009 -0.036930814
000290 d5 c9 cb 3b 70 79 f7 bb 20 2d ad 3c 21 fd 93 3c
       0.0062191286 -0.0075523183 0.021139681 0.018065037
0002a0 c5 6b 14 bd 75 c5 04 3d 90 c0 d7 bc 41 c9 e3 bc
       -0.03623559 0.032414872 -0.026336938 -0.027805926
0002b0 1f 0c 39 3d 52 df 93 3c 48 72 9a 3c 83 3c 23 3d
       0.045177575 0.018050823 0.018853322 0.03985263
0002c0 f8 ae 63 3d 02 ff 54 3d 86 0d 15 bd 04 5f 70 bd
       0.055586785 0.052001007 -0.03638985 -0.058684364
0002d0 60 7a bf bc 0c 04 e4 bc 70 58 6e 3d e9 26 f6 bc
       -0.023373783 -0.027833961 0.05818981 -0.03004785
0002e0 9b f0 56 3d 1e e7 32 bd d2 4e ca 3c e5 2d 73 bd
       0.052475553 -0.04367744 0.024695788 -0.05936994
0002f0 5e 90 eb 3c 57 de 07 bd 41 15 41 bc 7e c7 db 3c
       0.028755363 -0.033171024 -0.0117848525 0.026828524
000300 ea fd 2b bd fa 36 2a 3a ca 38 f2 bc 7b 4f f3 bc
       -0.0419902 0.00064931775 -0.029568095 -0.029700985
000310 ae 4a 2a 3d 96 5b 85 3d 78 fb 73 bd 9f ca 36 3d
       0.041575126 0.06511609 -0.05956599 0.04462683
000320 64 6f 6b 3d 2c 7b 14 bd a9 02 6f bd 8c 43 3c bd
       0.057479277 -0.03625028 -0.058352146 -0.045962855
000330 6c b7 bd 3c dc b9 71 bd 6c 42 1f bc b8 88 f8 bc
       0.023158751 -0.05901514 -0.009720426 -0.03033863
000340 b7 85 2a bd 41 4b e8 bc ce 9a 63 bd fc f7 68 3d
       -0.041631427 -0.028356196 -0.055567555 0.05687712
000350 f2 8b 79 3d 6d 58 52 bd 0f 3b 5c bd e8 93 52 bd
       0.060924478 -0.05135386 -0.05376726 -0.051410586
000360 19 a6 a4 bc e7 f2 68 3d 3c 26 2b bd 20 ec 7d 3c
       -0.020098733 0.056872275 -0.04178451 0.015498191
000370 6e a7 b9 bc b6 51 24 bd 40 e0 cf 3b e8 fb 8a bc
       -0.022662845 -0.040116988 0.0063438714 -0.016965821
000380 fa a1 bc bc 1a 3d 60 bd 47 96 86 bc d3 d2 14 3a
       -0.023026455 -0.05474577 -0.01642908 0.0005677167
000390 24 7c 09 3c 96 01 55 3d 5c 57 3e bd 52 6f 7b bb
       0.008391414 0.052003466 -0.04647003 -0.0038365913
0003a0 6a 39 ca 3c 59 d1 53 bd 86 72 6a bb a2 0d a2 3b
       0.02468558 -0.05171332 -0.0035773828 0.004945473
0003b0 7e 09 fc 3c bd 25 5d bd 72 53 e2 3c 3f 7b 70 3d
       0.030766245 -0.05399107 0.02762768 0.058711287
0003c0 2e 21 51 3c 78 a2 31 bc bc a1 4c bd f5 60 0f bd
       0.012764258 -0.010841958 -0.04995893 -0.035004575
0003d0 c9 5c df 3c de 97 5f bd 00 da bb 39 1f ab 10 bd
       0.027265923 -0.05458819 0.00035829842 -0.035319444
0003e0 a3 ff 81 3d b8 90 20 bd fb 41 e9 3b f0 38 15 bd
       0.06347587 -0.039200515 0.007118461 -0.036431253
0003f0 f8 c5 16 3c de 56 d3 3c b6 ac 99 3c 1a 2e 55 3d
       0.009202473 0.025798257 0.018759113 0.05204592

net.4.bias f4 [4]
000000 e9 fa 3a 3d 20 e9 96 ba 2c be 6d bc 7a 8d 63 bd
       0.045649443 -0.0011513568 -0.014510673 -0.055554844
