dqn_learning/speed/models/model_5.pth (torch, 293015 bytes, 6 tensors)

weight f4 [256, 21]
00000000: ed4c fd3d d0b2 433c 2c0b b13c 43d0 bcbd
00000010: 3d22 433e 7414 bcbb 0c2d 2c3e 28d1 133a
00000020: 2834 debd 8f75 363e 940d af3d 16fb 0dbd
00000030: d231 b0bd d7e3 f3bd ebb4 5b3e d0fa 29be
00000040: bc1f 28be ee7a b23c edab 573e 5e72 edb6
00000050: 49f7 c83d b446 173e c8bc 273e 68f3 8dbd
00000060: ded8 1c3e faf4 0cbe 8146 443b 5cdb 223d
00000070: 98fb 723a 22b4 8cbc 6dd1 e83d ac88 b1bd
00000080: 6b38 0fbe e4ee 523e ad78 3ebe a7ec 29be
00000090: 3571 48be 1bfa ffbd 27b2 3fbc b4e9 5abe
000000a0: 4b17 11be 0d43 21be bc73 e63d 516c 513e
000000b0: ef73 b4bd a7a0 a8bd d299 203e 1618 0fbe
000000c0: 16bd 923d 03e5 433d 46ec 72bd 9117 2e3c
000000d0: 1a37 f43d c079 3b3d 4c13 803c b172 bb3d
000000e0: 126a 03be 3d74 693e 13fe 173e 8564 aabd
000000f0: 40a7 303d 1a07 20be fc9d 2d3e c740 a9bc
00000100: 90ae ebbd 13ba 2dbe 8577 b3bd e928 09be
00000110: 4b31 113e 4453 0cbe 9e24 26be 53ff c5bd
00000120: a98f 5f3e 935e 2fbc a8d3 d53d 17b9 043e
00000130: d3a3 c6bb cdb3 6ebc 8bfc 82bd a8b2 16be
00000140: 2c7e c0bd 41e9 e3bd d220 1f3e 6ffe 71bc
00000150: e9b3 943c 78f6 823d 7853 b7bc 2a07 0abe
00000160: b904 453e 93a0 8ebd 2f63 3ebd 48b7 eabd
00000170: b6c4 e23d c576 11be e9af e03d e1c4 cebd
00000180: 823b ac3d cf77 853d cab4 39be 353e 08be
00000190: 79e6 5cbe 8478 d53d c584 033e d4c8 843c
000001a0: e2d8 0e3e 5b5b 59bd 4aa1 533e d066 5c3e
000001b0: 457e bc3d e044 5a3e 1665 723c 3cf0 1bbe
000001c0: 9e9e cabd 3381 e1bd bfcc 593e d999 edbc
000001d0: afc7 30bd 4f80 1dbe f168 173d ae7b 92bd
000001e0: 381c 29be 366f 843d ee42 fc3d cd71 b4bd
000001f0: 1657 67bd 7199 853d c201 e73d 9661 41be
00000200: 50d9 143c 9867 c23c 0867 a9bd 6a6e 113d
00000210: e92d 2c3d a7ee 923d cc0a 283e 8f5a d5bc
00000220: e517 4abe a10c 53be 15f4 9e3d 4868 1bbe
00000230: 3958 40be 4ba3 03bd 5c59 3ebe 5d8b 173e
00000240: da98 f3bd 131e bb3d 7ff5 553d a95b 523d
00000250: d8a4 20be f61f ecbd ef4a 11be ab5e 343e
00000260: 8978 1d3e db9c 753b d2c4 a8bc f0ef 07be
00000270: 3cfa e33d fe0f 8dbd 895f 33be 8db7 1a3e
00000280: aca6 82bd 948b e93d 23d6 673d a9a5 853c
00000290: 9942 e73d 1395 853d 393b fb3d a082 3f3e
000002a0: a600 d8bd 7676 b83d 414c 453e 6f22 56bd
000002b0: 664d 2d3e 8703 873d a95d 2bbd d04a 4fbd
000002c0: e0a8 78bd a9c2 edbd 8db0 11be a04e e63d
000002d0: 0579 94bd e593 0b3e 532e 3f3c ac34 90bd
000002e0: 2742 09ba fc90 58be e75e 1abe 96ae 06be
000002f0: eb88 c7bd 3b67 5e3e a538 32be fade 17be
00000300: 3321 393e fc7c 573e 84c6 0e3e 3f7f e93d
00000310: 611c 14be 2784 12bd d5f8 51be 22bc 5a3e
00000320: 7e30 b23c 8837 d43d 5548 283e 26ec 193e
00000330: 42f0 2cbe 601e 37be a220 2c3d d6c3 363e
00000340: bde2 673e cc5f e63d c2c9 583e 0397 b93d
00000350: 12e2 043e 254b d63d 2aec a43d acc9 1bbd
00000360: 527e 173e 9398 1b3e 2254 343e 5f60 febd
00000370: d201 213e fa91 da3c 8c71 afbd 4e63 9f3d
00000380: 77e4 2d3c 87cf 613d 9695 06bc 7a1d 193e
00000390: 7fc0 b43d abee 103d 4545 163e f989 10be
000003a0: 4972 9d3d 737e 40be ac3e 54be 76fd a9bd
000003b0: ec65 183e e04b bb3b 8de2 cbbd 36f6 1b3e
000003c0: a96b 5b3e 5276 353e ef23 2c3d 4619 48bb
000003d0: 41ef 293e f0fc 273d 8e19 233d 30d2 2cbd
000003e0: 0806 23be f6e0 cc3d 0cc3 b6bd 1a75 4b3e
000003f0: 49c2 04be ae9f 03be cbb8 083e 4097 423e
0.12368188 0.011944488 0.021611772 -0.0921941 0.1905603 -0.005739743 0.16814059 0.00056387717
-0.10849792 0.17818283 0.08547512 -0.034663282 -0.086032525 -0.119086914 0.21455733 -0.16599584
-0.16418356 0.021787133 0.21061678 -7.0764645e-06 0.09812791 0.14773065 0.16380608 -0.06931192
0.15317103 -0.13765326 0.002994925 0.03975998 0.0009269058 -0.017175738 0.1136807 -0.08668646
-0.13986365 0.20598942 -0.18600722 -0.16594182 -0.19574435 -0.12498876 -0.01170019 -0.21378213
-0.14169042 -0.15748234 0.11252543 0.20451476 -0.08811175 -0.08233767 0.15683678 -0.13974032
0.071649715 0.047825824 -0.05930736 0.010625736 0.11924572 0.045770407 0.015634201 0.09152735
-0.12833431 0.22798248 0.14843015 -0.08319954 0.043128252 -0.15627709 0.16954798 -0.020660771
-0.115079045 -0.16965513 -0.08763031 -0.13394512 0.1417896 -0.13703638 -0.16224906 -0.0966784
0.21832146 -0.010703701 0.10440761 0.12961231 -0.00606201 -0.014569235 -0.06395825 -0.1471659
-0.093990654 -0.11128474 0.15539864 -0.014770134 0.018152194 0.063946664 -0.022378668 -0.13479295
0.19240083 -0.06964221 -0.046481308 -0.114607394 0.11072676 -0.14205463 0.10971052 -0.100961454
0.08409788 0.06516992 -0.18135372 -0.1330498 -0.21572293 0.10423377 0.12843616 0.016209044
0.13949922 -0.05306564 0.20666996 0.21523595 0.092037715 0.21315336 0.014794609 -0.15228361
-0.09893535 -0.11010971 0.2126951 -0.029004024 -0.043159183 -0.15380977 0.036965314 -0.07152496
-0.16514671 0.06466524 0.12317453 -0.08810768 -0.056479536 0.06523407 0.11279632 -0.18884882
0.009085014 0.023731038 -0.08271605 0.03550569 0.04203597 0.071744256 0.16410369 -0.026044158
-0.19735678 -0.20610286 0.07761399 -0.15176499 -0.18783654 -0.03213815 -0.18588775 0.14799257
-0.118943885 0.091365956 0.052236076 0.051356945 -0.15687883 -0.115295336 -0.14188741 0.17614238
0.15378012 0.0037477526 -0.020601664 -0.13275123 0.11131713 -0.06887816 -0.17516913 0.15109082
-0.063794464 0.114035755 0.0566007 0.016314344 0.11291999 0.06522574 0.12267155 0.18702173
-0.10546999 0.0900697 0.1926737 -0.052278932 0.16924056 0.0659247 -0.04183737 -0.050608456
-0.060707927 -0.11609394 -0.14227505 0.11245465 -0.07249645 0.13630636 0.011668759 -0.07041296
-0.0005235993 -0.21149057 -0.15075265 -0.13152537 -0.09742912 0.21719067 -0.1740442 -0.14831153
0.18079071 0.21043772 0.13942915 0.114012234 -0.1446395 -0.03577056 -0.20505078 0.2136083
0.021751639 0.10362154 0.16433842 0.1503149 -0.16888526 -0.17882681 0.04202331 0.17848143
0.22645088 0.112487406 0.21170714 0.09062006 0.12976864 0.104635514 0.08052857 -0.038034126
0.14794281 0.15194921 0.17610219 -0.12420725 0.1572335 0.026680935 -0.08566579 0.07782613
0.010613552 0.055129554 -0.008214375 0.1495265 0.08825778 0.03538386 0.14674862 -0.14115132
0.07687814 -0.18798237 -0.20727032 -0.08300297 0.1488263 0.005715832 -0.099553205 0.15230641
0.21427788 0.17720917 0.042026456 -0.0030532642 0.16595174 0.041012704 0.039819293 -0.042192638
-0.1592027 0.100038454 -0.08923921 0.1986889 -0.12964739 -0.12853882 0.13351743 0.1900301

bias f4 [256]
00000000: ce7b 58be e6e9 a93d d507 82bd 8f84 e13d
00000010: ca5c 2ebe 5a42 243e 12f5 25be 225b 1cbc
00000020: 9cc5 043e b93b 46be 09ec 0fbe 8c35 443e
00000030: f16e 2c3e 03cb c03d 400e ee3d 617c 31be
00000040: 818b 673c 428a 22bb cb29 383e a8ce 33be
00000050: 715e c5ba 6e6d a33c 2ee7 f23d 43b1 e3bd
00000060: 755c 8f3c c404 57bc a9d2 f4bd 9b49 e9bd
00000070: 6e70 96bd a56e 1ebe 063d 1abe 78a0 c6bd
00000080: 5ddc 363e 7ae0 aa3d aed8 fd3d 790d 77bd
00000090: a284 4bbe 729a babd 8b4a 01be ec3f c93d
000000a0: 25d4 f13d fbf2 063e 2622 c8ba 694c 07be
000000b0: f434 15be 76eb 0cbc 81bc f7bd 06bf 13be
000000c0: e9e5 eabd 90cb 2a3e f6d7 b43d a07f 95bd
000000d0: d68c 133e 108b 3c3e aebb 11be e5f7 093e
000000e0: bdb6 8bbb 6eb7 d1bd 9178 283e 6586 c3bc
000000f0: a473 30bd fbae babc 9f10 28be 1f2d 093e
00000100: 0f11 f43c bfa3 243d 7c32 50be 5e1c f7bc
00000110: c3a4 f23d 66a9 4abe c529 0e3e b353 f6bd
00000120: a07a 4a3e 5e48 9abd 1649 433e 9be9 cfbc
00000130: 70f9 c639 10e0 bbbd 7b9f 5c3e 67f2 3dbe
00000140: bd89 23be 5fb1 47be ac70 ef3d 5ca3 d73d
00000150: 8afa 7f3d 1894 45bd 50fa c4bd cc23 45be
00000160: d0a2 523e 802c e13d f099 ecbc c08b 48be
00000170: 894a 41bd 8992 783d c674 92bc 2cd1 443e
00000180: aca7 403e 90b7 67bb 35f7 01be ac88 0abd
00000190: 4373 dabc 8458 afbd c676 4ebe 801d b3bd
000001a0: b163 fb3d b892 e63b 3f9c ac3d 678c 8bbd
000001b0: c079 bd3c 36c5 0ebe 9258 bcbd 98bc 2b3e
000001c0: 8502 09be b33f cb3d e589 433d 7f1c 5c3e
000001d0: dd74 5e3e 5050 563e 754a f7bd 8e7c 3cbe
000001e0: 24ab 44be 8e68 c7bd 7e79 353c 05be 55be
000001f0: 48ee d2bd 4a53 dd3c 9e07 cd3c 3928 23be
00000200: 2445 633e aa5c 5fbe 1a61 333e c518 f8bd
00000210: c16a 4e3e 3401 1e3c ec70 02be 10a5 cabd
00000220: e344 2abe e3a5 e2bd c4dd 373e 46c8 0ebe
00000230: f164 31be 7c3d 5e3e 7923 533e 5346 853d
00000240: 9567 2e3d 1c35 333e 6c41 bb3d 25bc d53d
00000250: 01ff 46be 83ae 2dbe b073 eabd 5f6a 2dbe
00000260: d6a3 3bbe c63d b83b a72d 2b3e a45b bdbd
00000270: 8ccd 85bd 18ee 953d 873b e7bc 15b9 233e
00000280: 8d3a 08bd f028 103e 5658 8f3d 1dbc 173d
00000290: 9713 1c3e f839 b53d 155e fcbd dc06 3c3e
000002a0: 5e0a fbbb 0ddf 053e 5867 873d 5bad 5a3e
000002b0: 2d8b d1bd 86c9 2d3d 6d7a d23c cbbd a03d
000002c0: 94b7 8c3d 076a 343e 6b69 2abe fb59 1abe
000002d0: ed9a 53be 9a30 9cbd 82a2 9b3d 7fef 023d
000002e0: fa21 f4bd 0ad6 103e 3407 0abe f9d9 22be
000002f0: 1fe3 6f3d bbec 38bd 9277 ad3c 7ad6 cebc
00000300: 76cf 27be 8f9a 783d 2c6c 89bd c32c 243e
00000310: 96bb f8bd 6c0b 213e 78f4 fcbd c377 edbd
00000320: 5d2c 15be c800 45be 30fe 4dbe 48e0 dabd
00000330: 65c7 dc3d be38 703d 1e00 06be 53fe 0dbe
00000340: 091d a53d 7f3e ce3d ba43 f23c c54f 103e
00000350: 61a0 01be c8ed cbbc b349 a5bd 8a96 46bd
00000360: 1501 5d3e 3b47 373e 75c5 e53d 5e51 ac3d
00000370: 1b5b 503e 6a3a 2e3e f441 f2bd 0c76 f7bd
00000380: adfe f53c 94d5 80bc 32ba 2bbe 6c0a 2e3e
00000390: 8655 113e 26c5 27be 405a 16bc e724 04be
000003a0: ef37 313d 8a09 eebd c880 553e 333c 22be
000003b0: bdfb 423e 1997 ae3d ac02 4f3e 82a4 853d
000003c0: ad0e f43d 086e 99bd e9f4 99ba 5998 1abe
000003d0: b07d 3b3e c740 21bc 0c40 e2bd 33ea b23c
000003e0: 16b7 863d ce18 6fbd b826 2e3e 77c8 dcbd
000003f0: bb77 1d3d 6ba2 43bd e4eb 2c3e 4378 80bd
-0.21140978 0.08296566 -0.0634915 0.11011612 -0.17027584 0.16040936 -0.16206768 -0.009543212
0.12966007 -0.1935872 -0.14054884 0.19161052 0.16839196 0.094137214 0.11623812 -0.17332603
0.014132381 -0.0024801646 0.17984693 -0.17559302 -0.0015058053 0.019949641 0.118605 -0.11117794
0.017500142 -0.013123695 -0.11954243 -0.11390992 -0.07345663 -0.15471895 -0.15062341 -0.09698576
0.178575 0.08343597 0.12394844 -0.060315583 -0.19874814 -0.09111489 -0.12626092 0.09826645
0.118080415 0.13178627 -0.0015268966 -0.13212742 -0.14570981 -0.00860106 -0.12096501 -0.14428338
-0.11469633 0.16679215 0.08830254 -0.07299733 0.14409193 0.18412423 -0.1423175 0.1347347
-0.0042637275 -0.102400646 0.16452242 -0.023867795 -0.043079033 -0.022788515 -0.1641259 0.13396119
0.02979329 0.040195223 -0.20331758 -0.030164894 0.11847832 -0.19791183 0.13883121 -0.12027683
0.1977334 -0.07533334 0.19070849 -0.025379946 0.00037951348 -0.09173596 0.21545212 -0.185495
-0.15970512 -0.19501255 0.11691412 0.10529205 0.062494792 -0.048236936 -0.09618056 -0.19251937
0.2056992 0.10994816 -0.028881997 -0.1958456 -0.047190223 0.06068662 -0.017877948 0.19220418
0.18813962 -0.0035357215 -0.12691958 -0.033821747 -0.02666629 -0.08561805 -0.20162496 -0.08745861
0.12274874 0.007036533 0.08428239 -0.06813889 0.023129344 -0.13942418 -0.09196581 0.16771162
-0.13379867 0.09924259 0.04773893 0.21495245 0.21724267 0.20929074 -0.120747484 -0.18406889
-0.1920591 -0.09736739 0.011076329 -0.20873268 -0.10299355 0.027017254 0.025028046 -0.15933312
0.22194344 -0.21812692 0.1751751 -0.121140994 0.20157911 0.009643842 -0.12738389 -0.098947644
-0.1662784 -0.11066797 0.1795569 -0.13943586 -0.17323662 0.21703142 0.20619 0.06507554
0.042579252 0.17500728 0.091433376 0.10436276 -0.19433214 -0.16961102 -0.11447847 -0.16935109
-0.18324217 0.0056225983 0.16716634 -0.09245995 -0.065333456 0.073208034 -0.028226627 0.15988572
-0.033258963 0.14078116 0.069992706 0.037044633 0.15241848 0.08848947 -0.12322632 0.18361992
-0.007661148 0.13073368 0.06611508 0.21355192 -0.10231624 0.042428516 0.025693143 0.078487
0.06870952 0.17618571 -0.16641776 -0.15073387 -0.20664568 -0.076264575 0.07599355 0.031966683
-0.11920543 0.1414415 -0.1347931 -0.15903462 0.05856621 -0.04514764 0.02117518 -0.025248755
-0.16387734 0.060694274 -0.06710085 0.160327 -0.12145154 0.15727013 -0.12351316 -0.11595108
-0.14567704 -0.1923858 -0.20116496 -0.106873095 0.10780219 0.058647864 -0.13085982 -0.13866548
0.08062179 0.10070514 0.02957331 0.1409293 -0.12658836 -0.024893656 -0.08070698 -0.04848341
0.21582444 0.17898266 0.112193026 0.08413957 0.20347254 0.1701447 -0.11828986 -0.120830625
0.030028665 -0.015726842 -0.16770247 0.16996163 0.14192781 -0.163838 -0.009176791 -0.12904702
0.043266233 -0.11622913 0.20849907 -0.15843277 0.19041343 0.08524913 0.20215863 0.06525518
0.11916862 -0.0749169 -0.0011745963 -0.15097179 0.18309665 -0.009842104 -0.11047372 0.02184019
0.065778896 -0.058373265 0.17006958 -0.10780423 0.038444262 -0.047762316 0.1688686 -0.06272938

weight f4 [256, 256]
00000000: 6027 77bb 60d7 33bc 2cfb 96bc 149f 3e3d
00000010: 10c5 82bc 78f3 813c 00a5 fcbc 582b e7bc
00000020: 1ee6 663d 4416 c93c 0019 64ba 606e 30bc
00000030: 4426 2dbd 84d0 57bd 6831 f63c b861 e4bc
00000040: 009f d9bc 7899 70bc a8d2 cfbc 20cd 52bb
00000050: 182f 5dbd 801c 31bd 8811 8fbc 5832 5f3d
00000060: d2b4 41bd 3ae9 54bd 7c03 b13c 664c 50bd
00000070: 8044 e4bb 400d 253d 08ec 9cbc 8078 6ebd
00000080: fa2c 7fbd 2272 52bd 0aa4 6d3d 2200 513d
00000090: c014 da3b 00ac 03bb c05d 83ba d62a 643d
000000a0: 286d 6a3d 108b d83c f404 513d e0f1 e0bb
000000b0: b482 ebbc 84f0 cfbc 1063 553d f65f 06bd
000000c0: dcbb 143d 6c5a 2cbd e452 953c 906a 653d
000000d0: f0d9 c63b 8c7b dbbc 10de c03c c03d d5bc
000000e0: d207 37bd 3c5d 5ebd 9817 56bc 0029 353d
000000f0: 82e4 493d 0498 62bd 7243 333d 0081 c939
00000100: bae2 4dbd d805 71bc b08a 33bd a4c0 7abd
00000110: bc0a 4fbd c079 38bb 2479 7b3d 141f 803c
00000120: 3cf5 88bc f0fe 4b3d 106b 6c3c 788d 0c3d
00000130: 981a aa3c 6832 aebc 70d3 1a3c 98fc 673d
00000140: 5e82 4f3d 503f 16bd 48a6 63bc 5067 463c
00000150: b0a5 6d3d 027a 323d c875 60bc 0a6b 403d
00000160: 207c 5e3b d05f 9dbb a0f3 4b3b f85b 2abc
00000170: 0c9b 5b3d a052 c9bb 44f3 a93c dcfd 223d
00000180: 3c9c a1bc 6852 6d3d 7c55 9dbc 080d 7cbc
00000190: 683a 0b3c c874 1c3d 5620 113d e4da 823c
000001a0: ba61 0cbd 60cb 28bd 9883 05bc 1ebc 293d
000001b0: c6fd 573d 3e1f 2dbd 7849 e8bc 68bd 34bc
000001c0: c887 4fbd 1acb 69bd f85e 243c 085e 11bc
000001d0: 3834 b0bc 208b 063c 886f ecbc 805b 3dba
000001e0: d429 0dbd c04d fbbc c079 0d3c 84f6 c03c
000001f0: 620f 60bd 30fc 3bbd 0605 26bd a8c0 13bc
00000200: 3c51 903c 5e55 5dbd c07a a53a 4e60 503d
00000210: 8467 0fbd c4e1 cb3c a0cc 1e3b c4a0 9fbc
00000220: 34b2 2d3d 60f7 873c 00ec 5a3c c03c 203c
00000230: b0c6 bb3b 2a62 7abd ea01 4c3d f097 fc3c
00000240: a295 2dbd 9ee2 363d 2c73 9b3c 7a7c 543d
00000250: e0aa 263b 5e15 573d 80f5 3fba 3025 89bb
00000260: c4bb 5f3d b0cc 4d3d d26f 6e3d 2ef6 5f3d
00000270: b0a6 6f3d 30e2 fdbc 56e2 5bbd 7cc0 b8bc
00000280: 3c34 483d 0859 55bc 2c2b 9b3c d8d6 52bc
00000290: 30d7 e13b de8d 393d d02d 42bc 60e6 763c
000002a0: 4012 fcba 1eb8 283d bc2e 853c 7043 bfbb
000002b0: ccf7 1dbd 5079 74bd 00e8 563a 4418 4f3d
000002c0: 5865 7a3d ac86 dfbc 7091 f6bc 740a 51bd
000002d0: 98ce 153c 228f 77bd 9881 bbbc bcc9 a03c
000002e0: a8dd 3bbd 0e61 03bd 4a76 54bd 200e cebb
000002f0: 4020 d3ba 54d0 d63c 7406 9dbc 4036 193b
00000300: fc86 e8bc c028 cfbb c02c 75bc 9240 173d
00000310: c0d2 313c 7087 5a3c 34e7 b43c f8d6 78bd
00000320: a831 73bd 18d3 1cbd a8a0 003c 0629 17bd
00000330: 6418 9cbc 80cd 57bc 7684 3ebd 406a e63b
00000340: bcb7 ebbc 2092 54bb a08f 65bc d43f 62bd
00000350: f6f4 573d b8ea 6d3c 3459 a5bc 2003 77bc
00000360: aa7b 7abd 80e9 233a 986e d63c d0e5 323d
00000370: 64a3 99bc 9891 5a3c c230 3cbd 9465 e6bc
00000380: cae9 06bd 329b 7ebd c0cc 40bb 10ff e9bc
00000390: d011 623d 00ac 61bd b84d cd3c 3240 4b3d
000003a0: e044 14bb 70fa 633d 70ef 76bd 6000 963b
000003b0: 90a8 7fbd 48af 07bc b0f5 cbbb 1c40 3d3d
000003c0: 3004 1cbd 00c8 733a c0fc e23b 7005 c0bc
000003d0: e874 9dbc e872 89bc 40a5 d13c d69c 463d
000003e0: 6814 7c3d 5270 53bd 4cc9 0f3d 7c9f 1ebd
000003f0: b008 05bc 0894 4c3c 001d 693d 9457 b33c
-0.0037712678 -0.010976642 -0.018430315 0.046538427 -0.015963107 0.015863165 -0.030840397 -0.02821891
0.0563718 0.02454675 -0.0008701235 -0.010768503 -0.04227282 -0.05268909 0.030052856 -0.027878627
-0.026565075 -0.014685027 -0.025369003 -0.003216572 -0.05399999 -0.04324007 -0.017464414 0.05449137
-0.047291584 -0.051980235 0.021608107 -0.05085411 -0.0069661736 0.04029584 -0.019155517 -0.058220387
-0.062298752 -0.051378377 0.058017768 0.051025517 0.0066553056 -0.0020091534 -0.0010022447 0.055704914
0.057233006 0.026433498 0.051030114 -0.0068647712 -0.028748848 -0.025383241 0.052096426 -0.03280636
0.03631197 -0.04207842 0.018228002 0.05600983 0.0060684606 -0.02679231 0.023543388 -0.026030421
-0.044685192 -0.054288134 -0.013067149 0.044228554 0.049290188 -0.055320755 0.043765493 0.0003843382
-0.05026505 -0.014710866 -0.043833435 -0.061218873 -0.050547346 -0.002814874 0.061394826 0.01563982
-0.0167185 0.049803674 0.014429823 0.034314603 0.020764634 -0.02126427 0.009449825 0.056637377
0.050661437 -0.036681473 -0.013894625 0.012109593 0.05801934 0.043573387 -0.013699956 0.04697708
0.0033948496 -0.0048026815 0.0031120554 -0.010397904 0.05361466 -0.006143883 0.02074588 0.03979288
-0.019727819 0.057939917 -0.019205801 -0.015383966 0.008497812 0.03819731 0.03543123 0.015973516
-0.034272887 -0.04120958 -0.00814905 0.04143917 0.05273225 -0.042266123 -0.028355345 -0.011031486
-0.0506666 -0.05707846 0.010032408 -0.008872516 -0.021509275 0.008211881 -0.028861776 -0.00072234124
-0.03446372 -0.030676723 0.0086349845 0.023555048 -0.05470217 -0.0458948 -0.040532134 -0.009018101
0.01761686 -0.05403649 0.0012625083 0.050873093 -0.03501083 0.024887927 0.0024230853 -0.019485839
0.042406276 0.01659745 0.013361931 0.009780109 0.0057304725 -0.061128773 0.049806513 0.030834168
-0.04237903 0.044649713 0.018975817 0.051876523 0.002543144 0.05251061 -0.0007322654 -0.0041853413
0.054622427 0.050244033 0.05821211 0.054678135 0.058508575 -0.030991644 -0.053682648 -0.022552721
0.04887794 -0.013021715 0.018941484 -0.012868606 0.0068921074 0.04530131 -0.011851743 0.015069574
-0.0019231513 0.041191213 0.016257636 -0.0058368966 -0.038566396 -0.059686005 0.0008198023 0.05056025
0.061131805 -0.027285896 -0.030098647 -0.05103536 0.009143494 -0.060439236 -0.022888944 0.019627444
-0.045865685 -0.03207498 -0.05187062 -0.006288305 -0.0016107634 0.026222385 -0.019168116 0.0023378283
-0.028384678 -0.0063219965 -0.0149642825 0.036926813 0.010853469 0.013337955 0.022082902 -0.060751885
-0.059373528 -0.038287252 0.007850803 -0.036904357 -0.0190546 -0.013171554 -0.046513043 0.007031709
-0.028774135 -0.003243573 -0.014011294 -0.055236652 0.052723847 0.014521293 -0.020184137 -0.015076429
-0.06115309 0.0006252751 0.026175782 0.043676198 -0.018754669 0.013340376 -0.045944937 -0.028124608
-0.032937802 -0.062159725 -0.0029418916 -0.028564006 0.05519277 -0.055095673 0.025061473 0.04962177
-0.002262406 0.055658758 -0.06028694 0.0045776814 -0.062416613 -0.008281536 -0.0062243566 0.046203718
-0.03808993 0.00092995167 0.006927103 -0.023440093 -0.019220784 -0.016778424 0.025591493 0.048489414
0.0615429 -0.05162079 0.03510408 -0.038726315 -0.008119747 0.012486465 0.056912422 0.021892346

bias f4 [256]
00000000: 60a3 f8bc 0756 263d be2c c9bc 5260 2d3b
00000010: bea5 c2bc 58c0 ba3a 37f3 663c 499f 0ebd
00000020: fc35 663d b1e3 f63b fdf5 573d c817 763d
00000030: 5afb 2fbc 00b6 ecbc 94b2 8cbc 85e7 893d
00000040: 3963 5d3c 6e96 6bbc 6080 ad3a 4531 f03c
00000050: 51e1 613a c47f 3dbd 328b 453d 4035 a6ba
00000060: cfa0 f63c 62dd e93c 80c0 02bd 2e02 7c3d
00000070: b060 a43b 50ca 063c 4ead 673c b10f 1b3d
00000080: 83f1 6a3d b3d8 4ebd d55a cdbc b6b1 663d
00000090: bac8 763d 03f1 31bd f181 163c 0f18 3dbd
000000a0: b9dc 81bd 7c5e 88bc 9e60 fd3c d9f4 df3c
000000b0: 5529 ffbc f25a c3bb d495 743d 9160 06bd
000000c0: 95d8 7dbd ba01 303b 6dce 283c 4025 feba
000000d0: d769 39bc aeae bbbc 5286 9a3c 6b5a 7f3c
000000e0: 0631 6a3d 77ca c13b 54a7 a0bc 0c94 70bd
000000f0: 8339 c03c 6819 273c d6db f2bc 284d 88bd
00000100: bc5d 7aba f125 623d 0b1f 5b3d a242 2ebd
00000110: ba7b 46bc 0982 743d ee8d 80bc e086 a53b
00000120: f6b8 2ebd 0949 9b3c f8c8 47bd c460 c63a
00000130: d383 793d 625d 3ebd 21a3 de3c a6a9 823d
00000140: f465 cf3c 62b6 86bb c6ff 683d c954 013c
00000150: 63cd b7bc 289c 2f3c ca51 9cba 2067 81bc
00000160: 4970 bc3b 1d9a 8f3d 3b19 c53a 204f 7b3c
00000170: ba98 703d a5ef 72bd 4d49 103d 0834 8d3c
00000180: ecc7 723d 23a4 e6bc bfa2 55bd cea4 4e3c
00000190: fbbe ce3c 0186 34bd 36a1 803c c95d 0abc
000001a0: 0acd 86ba 65ad 0b3d 0015 603d b22b 74bc
000001b0: 8122 64bd b3c3 96bc 3c81 6dbb cc22 60bb
000001c0: ba61 643d f3bd 1fbd 7015 e13c 2567 38bc
000001d0: 60a5 213c 0685 773d 1838 b03c d024 25bd
000001e0: 1000 b0bb c5fa 31bd 9f14 2d3d 91a4 5e3d
000001f0: c7b6 13bd bf9d 6b3a dd5e 383c a718 5bbd
00000200: f0f3 7d3d 7464 66bc 43d9 443d 42c5 40bd
00000210: b07a 1d3c 42c2 61bd 4018 9e3a a7db 233d
00000220: e026 74bd a1ad 1f3b 010e 4abc bacd dcbc
00000230: a0c3 c03c 24b5 6a3c 0edc 7d3d 846f d9bc
00000240: d5ad 033c fc9e 183d 3269 4fb8 c99a 80bd
00000250: f7dc 8e3c e71a 103d 1429 183d 315b 603c
00000260: e78e 7b3d a055 f13c 9adf 7e3d 4a56 2fbd
00000270: b45a 253d 148e 183d 0434 9abc a5de bebc
00000280: 13c7 31bd 7f17 2dbd 9402 943d 5a69 3cbd
00000290: 7095 20bc ff1d 4d3d 05d0 313d 6c19 6e3d
000002a0: 4120 6ebd faf4 4c3d 6b19 b3bc 263c 8e3b
000002b0: 2532 883d d1c2 293c 8f5c 5d3d 7ad5 643d
000002c0: ea76 0e3b ac8e 1f3d ea2e 023d 5f56 63ba
000002d0: 8fc7 1a3d 81e1 663d c3f5 1b3c be2c 743d
000002e0: 210e 50bc 0407 9e3c 8d84 ee3b ee57 10bd
000002f0: 5360 3abd fb7f 753d f7d5 893c 1cbe 60bd
00000300: 0987 dd3b ab47 a23c 7ea1 99bb 1cca 50bd
00000310: ae22 49bd 6c0c 8a3d e48c f7bc 312a 54bd
00000320: 5a10 95bb 4089 6bbc 93b4 3fbc 2361 08bd
00000330: 55a8 b33c 87d0 6cbd 072c e13c a84d 41bd
00000340: 0892 5b3d cc08 8b3b 4eb0 1e3d d5af 3cbd
00000350: 830c 98bc 2b5d 253d 2680 8dbc 6982 a4bc
00000360: 6fd8 8d3d 36d4 063c 74cc 43bd 97df 593d
00000370: d000 193c e0e2 933c 70ce 23bd c514 073d
00000380: 695e 923c 7c79 8c3a 48c8 f7bc 8cde 883c
00000390: 2222 6abd 11d6 613c 1a77 74bd dd38 613d
000003a0: fb5a 233d e414 333c f290 2fbd 936b e7bc
000003b0: 2117 383c 8c46 debc 0cca 17bc 81e8 49bd
000003c0: 4260 d3bc de11 643d c83f f53a 8894 503c
000003d0: c85f c1bb 6c90 063c babc 46bd 60e4 6abb
000003e0: e0d2 8d3c c4ae 043d f942 32bd fa95 55bd
000003f0: 001f 0d3d 87c8 c4bc acc2 72bd d2bc 403d
-0.03035134 0.040609386 -0.024557468 0.0026455116 -0.023760673 0.0014247997 0.014096073 -0.034819875
0.056203827 0.007534467 0.052724827 0.060081273 -0.010741079 -0.028895378 -0.017174996 0.06733612
0.013512426 -0.014379127 0.0013237111 0.029320369 0.00086166436 -0.046264425 0.04822845 -0.0012680665
0.030105976 0.028547946 -0.031921864 0.061525516 0.005016409 0.008226946 0.01414044 0.03785676
0.05735923 -0.05049963 -0.025067726 0.056321822 0.06025002 -0.043442737 0.009186254 -0.046165522
-0.06340928 -0.016646616 0.03092986 0.027338432 -0.031147638 -0.0059617693 0.0597132 -0.032806937
-0.061974127 0.0026856498 0.010303122 -0.0019389763 -0.011316738 -0.022910442 0.018862877 0.015585522
0.05717566 0.0059140283 -0.019611038 -0.05873494 0.023464924 0.010198928 -0.029645842 -0.066553414
-0.00095507107 0.055211965 0.0534964 -0.042544015 -0.01211446 0.059694324 -0.015692677 0.0050514787
-0.04265686 0.018955724 -0.048775643 0.001513504 0.060916733 -0.046475776 0.027177395 0.06380014
0.02531717 -0.004111097 0.05688455 0.0078937495 -0.022436803 0.010718383 -0.001192623 -0.015796244
0.00575069 0.07011817 0.0015037426 0.015338689 0.0587394 -0.059310574 0.035226155 0.017236724
0.05927269 -0.028154438 -0.05215716 0.012612535 0.025237551 -0.04407311 0.015701871 -0.008445212
-0.0010284495 0.03410091 0.054707527 -0.014902996 -0.055696968 -0.018403864 -0.003624036 -0.0034200428
0.05575726 -0.03899951 0.027476043 -0.01125506 0.009866089 0.060429595 0.021511123 -0.04031831
-0.005371101 -0.043452043 0.042255994 0.05435616 -0.036062982 0.00089880446 0.011253086 -0.053490307
0.062000215 -0.014062036 0.04805876 -0.04706312 0.0096117705 -0.0551169 0.001206167 0.0400044
-0.059607387 0.0024364966 -0.01233244 -0.026953567 0.023530781 0.014325414 0.06197744 -0.026542433
0.00803705 0.037260994 -4.9450617e-05 -0.06279523 0.017439349 0.035181906 0.03714855 0.013693617
0.06141558 0.029459774 0.06222496 -0.0428069 0.040369704 0.03724487 -0.018823631 -0.023299525
-0.043402743 -0.042258736 0.07227054 -0.04599891 -0.009801254 0.050077435 0.043411274 0.058129713
-0.05813623 0.050038315 -0.021862706 0.0043406663 0.06650189 0.010361389 0.05404335 0.05586765
0.0021738359 0.038954422 0.031783022 -0.0008672233 0.03778797 0.0563674 0.009519043 0.059612982
-0.012698681 0.019290455 0.007278985 -0.035240106 -0.04550202 0.059936505 0.01682566 -0.054868802
0.006760482 0.019809565 -0.004688441 -0.050973997 -0.04910534 0.067406505 -0.03021855 -0.05179805
-0.0045490684 -0.014375985 -0.011700767 -0.03329576 0.021930853 -0.057816055 0.027486814 -0.0471932
0.053606063 0.004242992 0.038742356 -0.046066124 -0.018560654 0.040372055 -0.01727302 -0.020081716
0.06926047 0.008229306 -0.047802404 0.053191748 0.009338573 0.018052518 -0.039991796 0.03297879
0.017867284 0.0010717358 -0.030246869 0.016707681 -0.057161458 0.013783948 -0.059683897 0.05498587
0.039881688 0.010930274 -0.04286284 -0.028249538 0.011235983 -0.027133249 -0.00926448 -0.049294
-0.025802735 0.055681102 0.0018711025 0.012730725 -0.0059013106 0.008213144 -0.048519827 -0.0035841689
0.017312467 0.032393232 -0.0435209 -0.052144982 0.034453392 -0.0240214 -0.059267685 0.047055073

weight f4 [4, 256]
00000000: b4bd c03c 877a 0b3b ac6f fdb9 e829 2dbd
00000010: 524f a73c fa79 693d c861 09bd 27dc 42bd
00000020: b181 4f3d 84ee 4c3c 647c d63c 88a6 7f3d
00000030: 4407 e73c ad79 a0bc 7184 15bc a27e 963d
00000040: da32 823d 48aa b2bb bb76 6d3d 7ad8 2b3c
00000050: 8dbc 363d 0b41 d7bc 1a7a 1d3d cce3 cf3c
00000060: 1797 54bd 2ff2 933d 7621 6fbd 21db 87bc
00000070: 2d86 95bc 771b 833d af5c 4839 76c2 533d
00000080: cfa7 033d 1dc9 7c3b 7c2c 47bd 6ecd 8a3d
00000090: a855 7a3d b25c aabc 490f 153d 7222 d43c
000000a0: 7702 3ebc 783a 47bd 89f0 19bd 107f 993c
000000b0: e9b4 89bc ed59 a8ba d14c 3bbd f23c 2dbd
000000c0: bb01 063d f2e5 e0bc e8e5 863d f45a e13c
000000d0: 0437 a7bc 8b12 50bd 42a8 a73b cb24 40bc
000000e0: daf5 f7bc 1719 34bc d02e a83c 1891 523d
000000f0: 9f8a d03c c664 3cbd ff54 d9bc fde0 333d
00000100: 864c dd3c 4314 2f3d 8154 843d 00c2 423a
00000110: bf8c 163d 62c4 a5b9 6911 ce3c 0d0a ccbc
00000120: cf99 0bbc 0aa6 c3bc 9c93 cf3c 9dbd 4dbd
00000130: 4624 32bc e4f0 c3bc f7ae 2ebd 87ff 3b3d
00000140: 835a 193d afce 123b 2e5a fb3c 688a 5f3d
00000150: d8fa 3ebd 3ae7 173d 1150 27bc ed37 993c
00000160: ef24 9fbc 6b73 843d 3e9d 54bd 25a9 593d
00000170: 1f7d 23bb 4882 803c 081d 733c 1802 37bc
00000180: be17 92bc 6fb6 44bd 3504 fe3c 0aa1 b33c
00000190: 0975 43bc a297 c1bc 711b fabc a773 f3bc
000001a0: 720f c0bc 891c 1e3d 84cb 65bd fc49 933d
000001b0: afb8 ecbc 7df4 9dbc 43e6 363d d715 ee3c
000001c0: cbab c3bc e56c 743c ebe4 7f3d 1644 6b3d
000001d0: ae4f 7abd 38ab 003d 5a7c 913d d46e 093d
000001e0: cb19 9c3b 1ca8 2bbd 3429 b9ba 25de 483d
000001f0: fd98 d53c 47ee 513d c42b ca3c 91ee 883d
00000200: 24cf 883d 8211 343d 32f1 b7bc a624 6bbd
00000210: e8b7 18bd 25b3 d2bc 16a1 14bd 806b 033d
00000220: d5ad 733d 903e 54bd 866d 373d d714 1ebd
00000230: 3cc1 7cbd 0766 13bb 658b 6a3c 7432 a13c
00000240: 560e 3abd e0f1 23bd 0811 8abc a7a8 4fbd
00000250: c87a 053d 359f ebbc fb7b 23bb 55ec 173d
00000260: 82b0 893c 53dd c1bc b2fd 8e3c 7569 61bd
00000270: b3b2 dbbc 07b5 59bd 6b1f 1ebc f450 c6bc
00000280: 24cf c5bb d3f7 883d a4d6 5d3d 488c 2a3c
00000290: 80cf 7b3a 563c a9bc 99a8 5abd 321b 873d
000002a0: 3d08 40bd f227 22bd 5024 1bbc befc f73c
000002b0: ff84 5dbc 1cee b9b9 0235 37bd 54d3 7e3d
000002c0: 50e1 0cbd 60f6 60bd 1c9b 493d 5b0b cdbc
000002d0: 92e4 833d 99c7 273d 6ebb 563d 48a4 0b3d
000002e0: cf90 953d 323c 253d 0cc7 b4bc 4e97 283d
000002f0: ff64 933d 84c2 e13a e7f6 8f3d d4f1 d0bc
00000300: 96ff 10bd 476d 123d 6a25 01bc bc77 353c
00000310: 8c36 42bd 0366 3c3c 0a17 4fbd 5802 b93c
00000320: e5d8 793d 9cc8 a03c 4061 aa3c e417 4cbd
00000330: 27a0 11bc c660 a5bc 59b2 ee3c 7225 a13c
00000340: e146 1bbd af01 5c3c 0ee5 733d a0b4 d0bc
00000350: 7cfe fd3c 5261 cb3c d010 c73c 400f 543d
00000360: 4f6f 983d 7fb6 3c3d 1d76 4fbc 69ab 12bd
00000370: 903b 633c 6b5e 4fbd 5475 5b3c 5798 e23c
00000380: 4baf 6dbd b8c9 13bc 18b4 54bc 6a6f 2bbd
00000390: 30d4 2c3c 5837 233d e262 4b3d 92e8 673d
000003a0: b232 633c 738a 803d 00be f3bb b977 32bd
000003b0: 178b 643d a063 fabc 1eb5 d7bc 3a3f 263d
000003c0: 553b 9a3d 2ed0 60bd 4939 09bd 0c28 acbb
000003d0: 17e0 ccbc 9556 e4bb 8a2d 7d3d fcce 5cbd
000003e0: 85ec 3b3d 1693 953d 1969 833d b025 8b3b
000003f0: 4b45 283c a9b3 6d3d 61ac 76bd ccdd de3b
0.023527957 0.0021282749 -0.00048339122 -0.042276293 0.020423565 0.05700109 -0.033540517 -0.047573235
0.050660793 0.012508038 0.026182361 0.062414676 0.028201707 -0.01958927 -0.009125815 0.07348372
0.063573554 -0.005452428 0.05797456 0.010488624 0.04461341 -0.026276132 0.038446523 0.025377177
-0.051901903 0.07223927 -0.05838152 -0.016583981 -0.018252457 0.06401723 0.00019108014 0.051699124
0.032142457 0.0038572021 -0.048626408 0.06777464 0.061116844 -0.020796154 0.03639153 0.025895331
-0.011597267 -0.048639745 -0.037582908 0.018737346 -0.016809897 -0.0012844183 -0.045727555 -0.04229445
0.032716494 -0.027453396 0.0658682 0.02750919 -0.020411976 -0.050798934 0.0051164934 -0.011727522
-0.030268598 -0.01099231 0.020530134 0.051407903 0.025456725 -0.045994543 -0.026529787 0.043915737
0.027014028 0.042743932 0.0646143 0.0007429421 0.03675532 -0.0003161757 0.025154786 -0.024907136
-0.008520558 -0.023882885 0.02533894 -0.050229657 -0.010872906 -0.023918577 -0.04264733 0.045897987
0.037439834 0.0022401025 0.03068265 0.054575354 -0.046625942 0.03708575 -0.01021196 0.018703425
-0.019426791 0.06467327 -0.05190777 0.053139824 -0.0024946404 0.015687123 0.014838465 -0.011169933
-0.017833587 -0.048025545 0.031007865 0.021927375 -0.011929759 -0.023631874 -0.030530663 -0.029718233
-0.023444865 0.038601432 -0.05610229 0.07191846 -0.028896658 -0.01928162 0.04465319 0.029063148
-0.023885628 0.014918541 0.062474173 0.05743798 -0.061111145 0.031413287 0.07103796 0.03355296
0.004763817 -0.04190837 -0.0014126659 0.04903998 0.026073927 0.05125263 0.024679072 0.06686128
0.06680134 0.04396201 -0.022453878 -0.057407998 -0.03728476 -0.025720188 -0.036286436 0.032084942
0.05949195 -0.051817477 0.044782184 -0.038594093 -0.06170772 -0.0022491233 0.014315461 0.019677378
-0.045423828 -0.04002559 -0.016853824 -0.05069795 0.032587796 -0.02876244 -0.0024945724 0.03709062
0.016807798 -0.023665106 0.017454956 -0.055032212 -0.026818609 -0.053151157 -0.009651045 -0.024208523
-0.006036656 0.06687894 0.054159775 0.010409422 0.000960581 -0.020658653 -0.053383444 0.06596984
-0.046882857 -0.039588876 -0.009469107 0.030271884 -0.013520478 -0.00035463355 -0.044728287 0.062213257
-0.034394562 -0.05492246 0.04922019 -0.025029829 0.06440081 0.040961836 0.05242484 0.034092218
0.07303011 0.04034061 -0.02206757 0.04115992 0.07196998 0.0017224108 0.07029515 -0.025505938
-0.035399996 0.035748746 -0.007882455 0.01107591 -0.0474153 0.011498931 -0.05055908 0.022584125
0.060997862 0.019626908 0.020798326 -0.04982747 -0.008888281 -0.020187747 0.029137777 0.019671176
-0.037909392 0.013428136 0.059544615 -0.025476754 0.031005137 0.02482668 0.024300009 0.051772356
0.074431054 0.04607248 -0.012662438 -0.035808 0.013869181 -0.050627153 0.013394672 0.027660532
-0.0580285 -0.0090202615 -0.012982391 -0.0418543 0.010548636 0.0398477 0.04965485 0.05661828
0.013867067 0.06276407 -0.0074384212 -0.043571208 0.05579671 -0.030565083 -0.02633148 0.04058764
0.07530848 -0.054886036 -0.033501897 -0.0052537974 -0.025009198 -0.006968329 0.061811008 -0.053908333
0.04587986 0.07303445 0.0641653 0.004246436 0.010270427 0.058032665 -0.060222987 0.0068013426

bias f4 [4]
00000000: 6b4b e63c 3ae9 e53c b471 88bb c34a 0f3d
0.028112134 0.028065313 -0.004163945 0.034983408
