dqn_learning/speed/models/model_1.pth (torch, 293015 bytes, 6 tensors)

weight f4 [256, 21]
0	0xbe230f58	-0.15923822
1	0xbe1130c0	-0.14178753
2	0xbe5b6b35	-0.21427615
3	0xbd980b48	-0.07424027
4	0x3abd763b	0.0014454791
5	0x3d69a0b5	0.057038028
6	0x3dd46bd8	0.10372132
7	0xbe1cc617	-0.1530994
8	0x3e1ece4e	0.15508386
9	0x3e12d64b	0.14339559
10	0xbd7113da	-0.058856823
11	0x3e07fe2f	0.13280557
12	0x3d5d2dcb	0.05399875
13	0xbe115860	-0.14193869
14	0x3d52c0a0	0.051453233
15	0x3d1312b7	0.03590652
16	0xbe4ae179	-0.19812573
17	0x3bee24e8	0.007267583
18	0x3e1c7e53	0.15282564
19	0x3d83bf77	0.064330034
20	0x3d4f2f90	0.05058247
21	0xbe52e4cc	-0.20595092
22	0x3e214f3b	0.1575288
23	0x3e2155a8	0.15755332
24	0xbdd5e026	-0.104431435
25	0x3d7b19f8	0.061304063
26	0x3e3f2f38	0.18670356
27	0x3c0df578	0.008664481
28	0x3e550835	0.20803912
29	0x3c21b8ea	0.009870747
30	0xbe3d1154	-0.18463641
31	0x3ccbaa58	0.0248615
32	0xbe1b27f5	-0.15151961
33	0x3bc6c77c	0.006066261
34	0x3d9bc4bf	0.07605886
35	0xbdfd0874	-0.12355128
36	0x3df42ca1	0.11922575
37	0x3d642aeb	0.055704992
38	0x3d7c65be	0.061620466
39	0xbd5b00d3	-0.053467583
40	0x3ce4d1ad	0.027932012
41	0xbd86913c	-0.0657067
42	0x3ce1b8d6	0.027553957
43	0xbe0e848c	-0.1391775
44	0x3cb33706	0.021876823
45	0x3e3fa68f	0.18715881
46	0x3d695faa	0.056975998
47	0xbe067da6	-0.13133869
48	0x3d42db89	0.047572646
49	0xbdb0690d	-0.08613787
50	0x3e2de8ac	0.16983289
51	0xbd8ed50b	-0.069742285
52	0x3e5e3778	0.21700847
53	0xbded6ea0	-0.11593366
54	0xbda3aeb2	-0.07992305
55	0x3c356782	0.0110720415
56	0x3c172ba4	0.009226713
57	0x3d95f81b	0.07322713
58	0xbe51f53e	-0.20503709
59	0xbd18f87c	-0.03734635
60	0xbbeac93c	-0.0071651023
61	0x3e08a061	0.1334243
62	0x3e3432fa	0.17597571
63	0xbd409d10	-0.047024786
64	0x3dea0faa	0.11428769
65	0x3d3ec30c	0.04657273
66	0x3d5f7e14	0.054563597
67	0xbe10be62	-0.14135125
68	0x3c9f63e8	0.019456819
69	0xbbce0240	-0.0062868893
70	0xbe2f173e	-0.1709871
71	0xbc7fb780	-0.015607715
72	0xbc907180	-0.017632246
73	0xbe5989a3	-0.2124391
74	0xbca50140	-0.020142198
75	0x3d735734	0.059409335
76	0x3e320e9b	0.17388384
77	0xbcf7bc10	-0.030241042
78	0x3cbe1200	0.023201942
79	0xbd91d460	-0.071205854
80	0x3d868786	0.06568818
81	0x3dc2a816	0.09504716
82	0xbe0b673c	-0.136136
83	0x3e423463	0.18965296
84	0x3e1898ad	0.14901991
85	0x3e4f4f28	0.2024504
86	0x3c8c0e68	0.017096713
87	0x3d853652	0.065045014
88	0xbdf87120	-0.12130952
89	0xbd414af7	-0.047190633
90	0xbe1a8c6d	-0.1509263
91	0x3cb093c7	0.02155484
92	0x3e018861	0.1264968
93	0xbe096616	-0.13417849
94	0xbd586a25	-0.052835602
95	0xbd906928	-0.07051307
96	0x3d6fad82	0.05851508
97	0x3e06cf15	0.13164933
98	0x3e1ae2e4	0.15125614
99	0x3e48c549	0.19606508
100	0x3e590ebc	0.21197027
101	0xbdcc0ea7	-0.09963732
102	0x3e0bcdfb	0.13652794
103	0x3e10cbb2	0.14140204
104	0x3d7090f1	0.058731977
105	0x3e4118ed	0.18857165
106	0x3c4e8a20	0.012606174
107	0x3c37fb06	0.011229282
108	0x3d719c57	0.058986988
109	0x3dfeabc9	0.12435109
110	0x3d5f5d24	0.054532185
111	0x3df1612e	0.11786114
112	0x3da28ce2	0.079370275
113	0x3c6c03ea	0.01440523
114	0xbe2172d6	-0.15766463
115	0x3d0644b7	0.032780375
116	0x3e0efc62	0.13963464
117	0x3e2a5c62	0.16636804
118	0xbe0caca9	-0.1373774
119	0xbd78fcfd	-0.060788143
120	0x3cbdfb89	0.02319123
121	0x3d8e2de0	0.06942344
122	0x3d7c5032	0.061599918
123	0x3de72002	0.11285402
124	0x3c83dde3	0.016097015
125	0xbe4185dc	-0.1889872
126	0xbe547c26	-0.20750484
127	0xbda2c5f6	-0.07947914
128	0xbdde31fe	-0.10849379
129	0x3ddcd8ce	0.1078354
130	0x3c8b0bd3	0.016973412
131	0xbe0eb4dd	-0.13936181
132	0x3e3c5bb5	0.18394358
133	0x3d88053d	0.06641624
134	0x3d727166	0.059190176
135	0xbe069008	-0.13140881
136	0x3dca09f3	0.09865179
137	0xbc978346	-0.018495213
138	0xbd55e968	-0.052224547
139	0xbd2d0045	-0.042236585
140	0x3e2cdfa8	0.16882193
141	0xbe15b2a6	-0.1461893
142	0xbd71115e	-0.058854453
143	0x3da81775	0.08207599
144	0x3d4a1822	0.04933942
145	0x3e44ceb9	0.19219483
146	0x3e5ddf04	0.21667105
147	0x3db68596	0.08912198
148	0xbd920306	-0.07129483
149	0xbdef6df1	-0.116908915
150	0xbdb3b500	-0.087747574
151	0xbe16ae56	-0.14714941
152	0xbd163000	-0.03666687
153	0x3d7a4024	0.061096326
154	0x3e3cb371	0.18427826
155	0xbe492750	-0.19643903
156	0xbe0972a6	-0.13422641
157	0xbd682b5c	-0.056681976
158	0xbdb319c6	-0.0874515
159	0x3e30cf0f	0.17266487
160	0x3d67c054	0.056579903
161	0x3dbd827e	0.09253405
162	0xbe25add7	-0.16179596
163	0x3cb15740	0.02164805
164	0xbbf5cba0	-0.0075010806
165	0xbe21910e	-0.1577799
166	0xbdf7bd05	-0.120965995
167	0xbdf607d9	-0.120132156
168	0xbe4c2894	-0.19937354
169	0x3e367d2c	0.17821187
170	0xbe5d2961	-0.21597816
171	0x3dc0e410	0.094184995
172	0x3e2292cb	0.1587631
173	0xbdcda562	-0.1004131
174	0xbd0d1db3	-0.03445215
175	0xbe55d9de	-0.20883891
176	0x3df11db6	0.11773245
177	0x3e5d2e50	0.21599698
178	0x3d09134a	0.03346566
179	0xbdd7bc55	-0.10533968
180	0xbd6518ab	-0.05593173
181	0xbe1e39e8	-0.15451777
182	0xbe045dd2	-0.12926415
183	0xbde52b65	-0.111899175
184	0xbe0a0125	-0.13476999
185	0xbe20b206	-0.1569291
186	0x3df929f1	0.12166203
187	0x3db4e70e	0.08833133
188	0x3d47b5c9	0.04875735
189	0x3d186834	0.03720875
190	0x3e2b2b69	0.16715778
191	0xbdb31a84	-0.08745292
192	0xbd994cee	-0.07485376
193	0xbdc0456b	-0.093882404
194	0xbca51e38	-0.020156011
195	0x3e00ce19	0.1257862
196	0xbcd361f0	-0.025803536
197	0x3da49e6e	0.080380306
198	0xbe3ea0b9	-0.18615998
199	0x3d1bfb94	0.03808172
200	0x3e26f1e7	0.16303216
201	0xbdbbcac0	-0.09169531
202	0xbdd8b3f8	-0.10581201
203	0x3e0fd87f	0.1404743
204	0xbe329ea5	-0.1744333
205	0xbd38bc74	-0.045101598
206	0x3ca05cf0	0.019575566
207	0x3d8eb086	0.06967263
208	0x3d6e9b24	0.058253422
209	0xbc2c3170	-0.010509834
210	0x3c528301	0.012848617
211	0xbdbdd23d	-0.092686154
212	0xbd87c851	-0.06630004
213	0xbcbcedee	-0.023062672
214	0x3dc4dfd1	0.09613002
215	0x3e18a8a2	0.14908078
216	0x3ce79761	0.028270425
217	0xbd0501e5	-0.03247251
218	0x3db3c016	0.08776872
219	0x3dc39d99	0.09551544
220	0x3e5b91c7	0.21442328
221	0xbdb02e42	-0.08602573
222	0x3df9f74b	0.122053705
223	0x3ab4a477	0.0013781924
224	0x3e2ec6cf	0.17068027
225	0x3cd0a21a	0.025467921
226	0x3e2ae431	0.1668861
227	0x3e3824cb	0.17982785
228	0x3cf00337	0.029298408
229	0xbd83e7d3	-0.06440701
230	0xbd8ba5b6	-0.06818716
231	0x3e242290	0.1602881
232	0xbdc896b8	-0.09794372
233	0x3ce3b85e	0.027797874
234	0x3daae1f9	0.08343882
235	0x3e5d9975	0.2164057
236	0x3e5cfc46	0.2158061
237	0x3e528a59	0.20560588
238	0x3c3789b9	0.011202269
239	0xbdccf0fc	-0.100069016
240	0x3e5091b4	0.20368081
241	0xbd0d0871	-0.03443188
242	0xbd6600ed	-0.056153227
243	0x3e167d43	0.14696221
244	0xbd34eca5	-0.044170994
245	0xbe525589	-0.20540442
246	0xbce212c0	-0.027596831
247	0x3c691568	0.014226295
248	0x3d12cf13	0.035842013
249	0x3e50623a	0.2034997
250	0x3e4cad00	0.1998787
251	0xbd917dcb	-0.07104071
252	0xbe336e15	-0.17522462
253	0xbe26d310	-0.16291451
254	0x3d626ff3	0.055282544
255	0x3dd242d7	0.10266655

bias f4 [256]
0	0x3e5939b0	0.21213412
1	0x3e4babcd	0.19889756
2	0x3dae3a2c	0.08507189
3	0xbd2ee930	-0.042702854
4	0xbc900b7e	-0.017583605
5	0xbe095d07	-0.13414393
6	0x3da23a41	0.07921267
7	0xbe05437c	-0.13014024
8	0x3e029599	0.1275238
9	0xbe4c15cf	-0.19930194
10	0x3e4e8c1c	0.20170635
11	0xbdb57031	-0.088592894
12	0xbdb0a3dc	-0.08625004
13	0xbe1f09bd	-0.15531059
14	0x3c2cfc80	0.010558248
15	0x3d885422	0.06656672
16	0x3e414ed0	0.18877721
17	0xbd369c52	-0.044582672
18	0x3c4b95de	0.012425868
19	0x3e4a4055	0.19751103
20	0x3d3354a4	0.04378189
21	0x3b37be82	0.0028037135
22	0x3e02648c	0.12733668
23	0x3e2379f0	0.15964484
24	0x3e157764	0.14596325
25	0x3da58406	0.08081822
26	0x3e504260	0.2033782
27	0xbe07c615	-0.13259156
28	0xbc9c6d19	-0.01909499
29	0xbd935136	-0.07193224
30	0xbaacb572	-0.0013176634
31	0xbe207eaf	-0.15673326
32	0xbdb88ec9	-0.09011609
33	0xbde12621	-0.10993601
34	0x3de036d5	0.109479584
35	0x3e26f90c	0.16305941
36	0xbdbea04d	-0.09307919
37	0xbd546a86	-0.0518594
38	0x3e533df3	0.206291
39	0x3e450841	0.1924143
40	0x3c74c0fc	0.014938589
41	0x3d85721b	0.065159045
42	0xbe0a9786	-0.13534364
43	0x3c49710c	0.012295019
44	0xbe1067f2	-0.14102152
45	0x3b2b827e	0.0026170309
46	0xbcd21432	-0.025644396
47	0xbe497499	-0.19673385
48	0x3d0d9e64	0.03457488
49	0xbe407b57	-0.1879705
50	0xbdfe05b4	-0.124034315
51	0xbd254366	-0.04034748
52	0x3d32cf3a	0.043654658
53	0xbe340746	-0.175809
54	0x3e309c50	0.17247128
55	0x3da89a7f	0.08232593
56	0xbda93c0f	-0.082634084
57	0x3e13ea3f	0.14444827
58	0xbccfe573	-0.025377965
59	0xbd82c972	-0.06386079
60	0xbe496922	-0.19669011
61	0xbcbf504d	-0.02335372
62	0x3de4397d	0.111437775
63	0xbc2d33e6	-0.010571456
64	0xbdc11afb	-0.09428974
65	0xbe1288a0	-0.14309931
66	0x3e525797	0.20541225
67	0x3e2199bf	0.15781306
68	0xbd8c00dc	-0.068361014
69	0x3e0df94c	0.1386463
70	0xbda54e67	-0.08071595
71	0x3df90aba	0.12160249
72	0xbe40c0d2	-0.18823555
73	0x3bba4ca3	0.0056854053
74	0xbe29c059	-0.16577281
75	0x3daba2c1	0.08380652
76	0xbe5c2545	-0.21498592
77	0xbd962648	-0.0733152
78	0x3d8bdd69	0.0682934
79	0xbe029037	-0.12750326
80	0x3e2503f3	0.16114788
81	0x3bb7b14a	0.0056058513
82	0x3e4184e3	0.18898349
83	0x3d98cd11	0.07460988
84	0xbd19173c	-0.037375674
85	0x3d4a90e2	0.049454577
86	0x3e477280	0.19477272
87	0xbccc493b	-0.024937263
88	0x3e3b00f5	0.18262084
89	0xbe1b1274	-0.15143758
90	0x3e5c7217	0.21527897
91	0x3dfca1cc	0.12335548
92	0xbde0ad7a	-0.10970588
93	0x3e2c935b	0.16853087
94	0x3d69f5b5	0.05711909
95	0x3e4d61a0	0.20056772
96	0xbe3483c4	-0.1762839
97	0xbe47f147	-0.19525634
98	0x3e54149c	0.20710987
99	0x3dc81c34	0.09771004
100	0xbd0d5bfe	-0.03451156
101	0x3db40b42	0.0879121
102	0x3e1f504c	0.15557975
103	0x3db5293d	0.08845756
104	0xbd800260	-0.06250453
105	0xbda0cf4f	-0.07852041
106	0xbde54c31	-0.11196173
107	0xbaa32dd0	-0.0012449566
108	0xbe04ebf6	-0.12980637
109	0x3e2050a3	0.1565576
110	0xbcc7e796	-0.024402421
111	0xbd96524c	-0.07339916
112	0x3d95c4be	0.07312916
113	0xbdbb80d5	-0.09155432
114	0xbdb49c85	-0.08818916
115	0x3d305586	0.04305031
116	0x3dc52c71	0.09627617
117	0x3b88a819	0.0041704294
118	0x3e3bdbd4	0.18345577
119	0xbdcebaac	-0.100941986
120	0xbdd4b132	-0.1038536
121	0xbc94faab	-0.018185934
122	0x3e0beb21	0.13663913
123	0xbdc14144	-0.094362766
124	0x3e16f570	0.14742064
125	0x3e1d4ca1	0.15361263
126	0x3e266dbf	0.16252802
127	0xbe2cdd10	-0.16881204
128	0x3e4bc521	0.19899417
129	0xbe0eb0b4	-0.13934594
130	0xbd4a980f	-0.04946142
131	0xbe5b3fff	-0.21411131
132	0x3e24d3bf	0.160964
133	0x3e2bd84e	0.16781732
134	0x3e3a77b2	0.18209723
135	0xbc890fed	-0.016731227
136	0x3e56b759	0.20968379
137	0xbdde06a5	-0.10841111
138	0xbdf695a0	-0.120402575
139	0x3e14a589	0.14516272
140	0xbdcf2993	-0.101153515
141	0x3da86596	0.08222501
142	0x3d9352ec	0.071935505
143	0xbd820025	-0.06347684
144	0x3e502e53	0.20330171
145	0x3e2ba0be	0.16760537
146	0xbe2d783a	-0.16940394
147	0x3c93f158	0.018059418
148	0x3c8fac9b	0.01753836
149	0x3c6368cb	0.013879965
150	0x3d415a9f	0.047205564
151	0xbdd0829d	-0.101811625
152	0xbc579815	-0.013158818
153	0xbd046100	-0.03231907
154	0x3cb9cb09	0.022679823
155	0xbe40bc52	-0.18821838
156	0x3e46e78c	0.19424266
157	0x3d9e80da	0.0773942
158	0x3de7b6d3	0.11314168
159	0xbd4d5cc2	-0.05013729
160	0x3e10abbc	0.14128011
161	0xbde9c0ca	-0.11413725
162	0x36b99288	5.530488e-06
163	0xbe476c23	-0.19474845
164	0x3dd01670	0.101605296
165	0xbdf016f1	-0.11723126
166	0xbe0697e5	-0.1314388
167	0xbe047ee6	-0.12939033
168	0x3e409e28	0.18810332
169	0xbe4e281d	-0.2013249
170	0xbd81f0d2	-0.06344761
171	0x3c54a34c	0.012978386
172	0x3e0c2d7a	0.13689223
173	0xbce8539e	-0.028360184
174	0xbe31642a	-0.17323366
175	0x3e14e0b0	0.14538836
176	0x3e092a89	0.13395132
177	0xbdafa04b	-0.08575495
178	0xbcfe8cd9	-0.03107302
179	0xbe077947	-0.13229857
180	0xbcaf478b	-0.021396419
181	0xbd217704	-0.039420143
182	0x3e4ab098	0.19793928
183	0xbe14f0bd	-0.1454496
184	0xbe33f9b2	-0.1757572
185	0x3de20499	0.11036033
186	0xbd67ab8e	-0.05656009
187	0x3e536eec	0.20647782
188	0x3d861070	0.06546104
189	0xbdab2bf3	-0.08357992
190	0x3d0bc089	0.034119163
191	0x3e2f522d	0.17121191
192	0x3d1e4be7	0.038646605
193	0xbe3fad3c	-0.18718427
194	0xbe34cf6b	-0.17657249
195	0x3e52e7a6	0.2059618
196	0xbe52e2c9	-0.20594324
197	0x3e43e57b	0.19130509
198	0x3d258b04	0.04041578
199	0x3debda73	0.11516275
200	0x3ca89993	0.020581042
201	0x3e0a0e69	0.1348206
202	0xbd20b058	-0.039230675
203	0x3dd027e9	0.10163862
204	0x3b90ce1e	0.0044191023
205	0xbcfce2e6	-0.030869912
206	0x3e37800e	0.17919943
207	0xbe280e11	-0.16411616
208	0x3dcadc51	0.09905303
209	0x3e15a266	0.14612731
210	0xbe17ed5c	-0.14836639
211	0xbbbb7523	-0.005720751
212	0xbd3803af	-0.044925388
213	0x3c5d8e92	0.013522761
214	0x3e5064ec	0.20350999
215	0xbe5e22d2	-0.2169297
216	0xbe345ee3	-0.17614321
217	0xbe3f8a66	-0.18705139
218	0xbe243365	-0.1603523
219	0xbbaa0403	-0.0051884665
220	0x3d713ae2	0.058894046
221	0x3e56fea2	0.20995572
222	0x3cc934a0	0.024561226
223	0xbe0c7036	-0.1371468
224	0xbd9fc13e	-0.0780053
225	0x3c6f9f50	0.014625385
226	0x3e2344ef	0.15944265
227	0xbe2d7329	-0.16938461
228	0x3dfed7f8	0.124435365
229	0x3e32f3c6	0.17475805
230	0x3d706cc8	0.058697492
231	0x3e520a55	0.20511754
232	0xbe5a2732	-0.21304014
233	0xbe25f5f9	-0.16207112
234	0xbd5168a1	-0.051125173
235	0xbe5d14fb	-0.21590035
236	0xbdb7c77d	-0.08973596
237	0x3dc6b9fc	0.097034425
238	0x3db366ce	0.08759843
239	0xbe47b2a2	-0.19501737
240	0x3ac4f3b0	0.0015026238
241	0x3d1128dc	0.035439357
242	0x3df0b1cf	0.11752664
243	0x3c022079	0.007942312
244	0xbd009b97	-0.031398382
245	0x3e483a03	0.1955338
246	0xbd8e8be3	-0.06960275
247	0x3c937710	0.01800111
248	0xbe1db621	-0.15401508
249	0x3e09c5f2	0.13454416
250	0xbe0f17f9	-0.13973989
251	0xbe5a67e2	-0.2132869
252	0xbe03537d	-0.12824817
253	0xbe087fa4	-0.13329941
254	0x3df01f14	0.11724678
255	0x3e60f708	0.21969235

weight f4 [256, 256]
0	0x3a9537a4	0.001138438
1	0xbd366532	-0.0445301
2	0xbb7d5abc	-0.0038658818
3	0x3d1733b4	0.036914542
4	0xbd005f98	-0.031341165
5	0x3d3834b6	0.044972144
6	0x3d52ad6c	0.05143492
7	0x3d34d17e	0.0441451
8	0x3bc28fd7	0.005937557
9	0xba5eb080	-0.00084949285
10	0x3d74e54b	0.059788983
11	0x3d123095	0.035690863
12	0xbd71cc06	-0.059032463
13	0x3d537504	0.051625267
14	0xbc0df6d8	-0.008664809
15	0xbd81abe6	-0.06331615
16	0x3d0dfad3	0.034663033
17	0x3c311c3d	0.010809955
18	0xbd350c5b	-0.044201236
19	0x3d369c28	0.044582516
20	0xbd38673b	-0.045020323
21	0x3d585905	0.05281927
22	0xbce32ff7	-0.027732832
23	0xbc9b0625	-0.018923828
24	0xbd791ba7	-0.060817387
25	0xbd4b6803	-0.04965974
26	0x3a598921	0.0008298327
27	0xbcc56fad	-0.024101103
28	0xbd3b4a3b	-0.04572509
29	0x3c8c6ce2	0.017141763
30	0x3d62bb9c	0.0553547
31	0xbcf59c44	-0.02998174
32	0x3c4fce07	0.012683398
33	0xbccbc156	-0.024872463
34	0x3d318a5d	0.043344844
35	0x3ca20e32	0.01978216
36	0x3b86f1ae	0.004118166
37	0xbbf36a8c	-0.007428473
38	0xbd52fbe6	-0.05150976
39	0xbced9fef	-0.029006926
40	0x3d68d23e	0.056841128
41	0x3c8953b2	0.016763542
42	0x3d6527a4	0.055946007
43	0xbb9c199b	-0.0047637946
44	0x3ce3e3df	0.027818618
45	0x3d2e9d19	0.04263029
46	0xbc4682ee	-0.012116177
47	0x3d1f72c4	0.03892781
48	0xbc4d899f	-0.012545018
49	0x3d06a964	0.032876387
50	0xbcffb9a0	-0.031216443
51	0x3bf416c8	0.007449005
52	0xba962a63	-0.0011456724
53	0xbd63d838	-0.055626124
54	0xbd21e237	-0.039522376
55	0x3ccddee7	0.025130702
56	0x3d5cdd4e	0.05392199
57	0x3c30bf42	0.010787787
58	0xbca9be7b	-0.020720711
59	0xbc885368	-0.016641334
60	0xbcd6dbb4	-0.02622781
61	0x3d604b14	0.0547591
62	0x3d77854a	0.06042985
63	0xbd7dc0e3	-0.06195153
64	0xbd162beb	-0.036662977
65	0x3d60df14	0.054900244
66	0xbb5e1d80	-0.0033892095
67	0x3d4cbb00	0.049983025
68	0x3c96e63e	0.018420335
69	0x3d6fc093	0.058533262
70	0x3d7b5f22	0.061370023
71	0xbd2152e4	-0.03938569
72	0xbd4777a0	-0.048698068
73	0x3d15655a	0.03647361
74	0x3aae106e	0.0013280043
75	0x3d69674d	0.05698328
76	0xbc4abbf2	-0.012373911
77	0xbd27645f	-0.040867206
78	0x3c83c82b	0.016086658
79	0x3cae1542	0.02125037
80	0xbccf13b9	-0.02527796
81	0x3ce854c6	0.028360736
82	0x3af6a8c5	0.0018818608
83	0xbc91d53f	-0.017801879
84	0xbd13e176	-0.03610369
85	0xbd3e373a	-0.046439387
86	0xbd3557c5	-0.044273157
87	0xbc910362	-0.017701808
88	0x3d4721e3	0.0486163
89	0x3c8c6590	0.017138273
90	0x3d55f919	0.05223951
91	0x3cea6f1e	0.028617438
92	0x39cc9a00	0.0003902465
93	0xbd64ce3c	-0.055860743
94	0xbd4509c7	-0.048105028
95	0x3c0e093c	0.008669194
96	0xbd0537d2	-0.032523938
97	0x3d1889c8	0.037240773
98	0xbd44d164	-0.048051253
99	0xbd016580	-0.03159094
100	0x3d2dcb09	0.042429958
101	0xbb9354a4	-0.004496174
102	0x3b9ac4cd	0.0047231675
103	0x3d02b355	0.031909306
104	0xbd0c1765	-0.034202
105	0x3d78c358	0.06073317
106	0xbd6b44d6	-0.057438694
107	0x3c6a6a2c	0.01430754
108	0x3d2d4b62	0.04230822
109	0xbc00deec	-0.007865649
110	0x3d09c7ee	0.033637933
111	0xbd46ddb7	-0.048551288
112	0xbd3e6084	-0.046478763
113	0x3bb8d1dc	0.0056402516
114	0xbd53bd4a	-0.051694192
115	0xbd1d07d8	-0.03833756
116	0x3c46d6c2	0.012136163
117	0xbd29419b	-0.041322332
118	0x3d034dd6	0.032056652
119	0xbd114460	-0.035465598
120	0xbd71cca2	-0.059033044
121	0xbb736672	-0.003713992
122	0x3cf91127	0.030403687
123	0x3c841327	0.016122414
124	0x3cbbb03e	0.022911187
125	0x3d156fdd	0.036483634
126	0x3d003483	0.03130008
127	0x3d1fedeb	0.039045256
128	0x3ced82c4	0.028993018
129	0xbd342914	-0.043984488
130	0xbd801585	-0.062541045
131	0x3bc456c4	0.0059917886
132	0x3aac6d1d	0.0013155077
133	0x3bcdfc53	0.006286183
134	0xbd7f54d5	-0.06233676
135	0x3c21ae4c	0.009868216
136	0xb9fe85bf	-0.00048546304
137	0xbc390db5	-0.011294772
138	0x3c7ae9f1	0.015314565
139	0x3d51e617	0.05124482
140	0x3ca8b166	0.020592403
141	0x3d05a6c9	0.03262976
142	0x3cb9abd3	0.02266494
143	0x3cc44a9a	0.023961354
144	0xbc05ecbe	-0.0081741195
145	0x3d0aa6f1	0.033850614
146	0x3d0a1682	0.03371287
147	0x3cd26e38	0.025687322
148	0x3d24700f	0.04014593
149	0xbd7ae4e0	-0.06125343
150	0xbcd7ddbf	-0.026350854
151	0xbd0d1f4a	-0.034453668
152	0x3d07abf0	0.033122957
153	0xbd057f74	-0.032592252
154	0x3cc6470f	0.024203805
155	0xbd7add14	-0.061245993
156	0x3d6d64a2	0.0579573
157	0x3d7185a9	0.05896536
158	0x3c4b0b3b	0.012392814
159	0xbca43bcb	-0.020048043
160	0xbcd399aa	-0.025830109
161	0x3d1b668e	0.0379396
162	0xbca7ad8b	-0.020468494
163	0xbc6e1a60	-0.0145326555
164	0xbc910430	-0.017702192
165	0x3d19ac1f	0.037517663
166	0x3d675582	0.05647803
167	0x3ba96a20	0.005170122
168	0xbcc77d9b	-0.024351886
169	0x3afe5740	0.0019404665
170	0x3d3470ac	0.044052765
171	0x3cdf1c1b	0.027235081
172	0x3c4c3d15	0.012465735
173	0xbcb9a876	-0.022663336
174	0x3cd607c9	0.02612676
175	0xbc81352e	-0.015772428
176	0x3d64dda2	0.055875428
177	0x3bfb9e6e	0.0076787984
178	0xbd18c31f	-0.037295457
179	0xbbb4e99b	-0.005521012
180	0xbd6ab68c	-0.057302997
181	0xbb87fecd	-0.0041502477
182	0x3b02c47f	0.0019953547
183	0x3ba6a64d	0.0050857426
184	0x3bf5dc10	0.00750304
185	0xbd4e7121	-0.050400857
186	0x3c8aaa87	0.016927017
187	0x3cb1ca14	0.021702804
188	0x3d6c3135	0.057664115
189	0xbd4bd9c8	-0.04976824
190	0xbd5f6a77	-0.054544892
191	0xbd241597	-0.040059652
192	0xbce5e7c3	-0.028064614
193	0x3d1803c2	0.03711296
194	0x3cd182a7	0.025574995
195	0x3b01d30d	0.0019809634
196	0x3bfb9425	0.0076775723
197	0x3b88a1d0	0.00416968
198	0x3d242ebc	0.040083632
199	0xbca18a22	-0.019719187
200	0xbd5b65a6	-0.053563736
201	0xbd3f077e	-0.046638004
202	0xbd48bcd4	-0.049008206
203	0x3d69a2e6	0.057040118
204	0x3c64dd10	0.013968721
205	0xbbc6c0a1	-0.0060654436
206	0x3d4211b8	0.04738018
207	0xbb8055b9	-0.003916469
208	0x3c93c841	0.018039824
209	0x3d4be53c	0.04977916
210	0xbd426732	-0.047461696
211	0xbc829a6e	-0.015942778
212	0x3bff96c9	0.0077999574
213	0x3d22b94a	0.039727487
214	0xbc215e67	-0.009849167
215	0xbd607d65	-0.054807086
216	0x3cf05862	0.02933902
217	0x3d2b1db4	0.041776374
218	0x3d4fec12	0.050762244
219	0x3cbf39bf	0.023342965
220	0xbd58ac9a	-0.05289898
221	0x3d0343cd	0.03204708
222	0xbb3f3021	-0.0029172974
223	0x3cee35bc	0.029078357
224	0xbd7cfdfe	-0.061765663
225	0xba0f31b6	-0.00054624246
226	0xbd811656	-0.06303088
227	0x3c45b27c	0.01206648
228	0x3d049fd8	0.032379
229	0xbc7f0607	-0.015565402
230	0xbc2f8ac7	-0.010714239
231	0x3c3204d8	0.010865413
232	0xbcdf84f2	-0.027285073
233	0xbc616f9a	-0.013759518
234	0x3d06c6a4	0.032904282
235	0xbc50cdfe	-0.012744425
236	0xbb0a8bb3	-0.0021140396
237	0x3d182ac5	0.037150163
238	0xbd078771	-0.03308815
239	0x3d393a80	0.045221806
240	0x3d118485	0.03552677
241	0x3cbc6792	0.022998605
242	0x3c077aa3	0.008268985
243	0x3c63e392	0.013909237
244	0xbd816a85	-0.06319145
245	0x3c4d45b8	0.012528829
246	0xbce72719	-0.028216885
247	0xbd351216	-0.0442067
248	0x3cdf2297	0.027238173
249	0xbca1d1c9	-0.019753354
250	0x3d6d2cb8	0.057903975
251	0xbc8966b7	-0.016772611
252	0xbd564182	-0.052308567
253	0xbc8c67d4	-0.017139353
254	0x3d4dd044	0.050247446
255	0xbb6ba8e5	-0.0035958823

bias f4 [256]
0	0x3d4f9d4a	0.050687112
1	0x3d7e40bc	0.062073454
2	0x3caeecb0	0.021353096
3	0x3c0956cf	0.008382513
4	0xbcad52d9	-0.021157669
5	0x3c01408b	0.007888923
6	0x3cd09be7	0.025464965
7	0x3d5cb4a4	0.05388321
8	0xbbc03df8	-0.0058667623
9	0x3d0e45e7	0.034734633
10	0x3d537194	0.05162199
11	0x3cdb812b	0.02679499
12	0xbd782715	-0.060584147
13	0xbd2cb1bc	-0.04216169
14	0xbd579982	-0.05263663
15	0xbb36d2f6	-0.0027896739
16	0xbd0b7225	-0.034044404
17	0x3d48a9aa	0.04898993
18	0x3d133f23	0.035948884
19	0x3ab21370	0.0013586115
20	0xbcb1240c	-0.021623634
21	0x3d74460d	0.059637118
22	0x3d17484f	0.036934193
23	0x3d434e6d	0.047682215
24	0xbd590a61	-0.052988414
25	0x3cc4294e	0.023945477
26	0xbcf347d5	-0.029697338
27	0xbd75133a	-0.05983279
28	0xbd6007fc	-0.054695114
29	0xbcc8e698	-0.024524018
30	0xbb52dec6	-0.003217624
31	0x3d4784a5	0.048710484
32	0xb2bdc214	-2.2090752e-08
33	0x3c961f74	0.018325545
34	0x3d640087	0.055664565
35	0x3c798ca9	0.01523129
36	0x3caaaa9c	0.020833306
37	0xbd1360d8	-0.03598103
38	0x3c9c4931	0.01907787
39	0xbc14d19c	-0.009083178
40	0xbc5e7147	-0.013576812
41	0x3cc9ad76	0.024618845
42	0xbc4a0b6c	-0.012331825
43	0x3c2e53ef	0.0106401285
44	0xbd780605	-0.060552616
45	0x3d07c63a	0.033148028
46	0xbc1a1184	-0.00940359
47	0x3d5418ab	0.051781338
48	0x3c9dd2cc	0.019265555
49	0x3cee7870	0.029110163
50	0xbca450d0	-0.020058066
51	0x3d67c114	0.056580618
52	0xbc5e6133	-0.013572979
53	0x3d4824b7	0.04886314
54	0x3d55f184	0.05223228
55	0xbb4c631b	-0.0031187
56	0xba49264a	-0.0007673247
57	0xbc5739e1	-0.013136358
58	0xbd23e202	-0.04001046
59	0x3c9ac733	0.018893814
60	0x3d6c475e	0.05768525
61	0xbc9dbbd6	-0.019254606
62	0xbd1e496e	-0.038644247
63	0xbd4b3958	-0.049615234
64	0x3d3ddaaa	0.046351112
65	0x3c0f5f96	0.008750817
66	0x3cb4e99b	0.022084048
67	0x3d400037	0.046875205
68	0xbd124296	-0.035708033
69	0xbd3f3fa8	-0.046691567
70	0xbd041571	-0.03224701
71	0x3c85a7c4	0.016315348
72	0xba909240	-0.0011029914
73	0x3d5b3063	0.053512942
74	0x3bb52962	0.005528615
75	0x3cd43d2a	0.025908072
76	0xbb7dabdd	-0.0038707175
77	0xbc46f990	-0.012144461
78	0x3c743910	0.014906183
79	0x3d4ec611	0.05048186
80	0xbd7aec90	-0.06126076
81	0x3d494f5d	0.049147952
82	0x3d7c6894	0.06162317
83	0x3ccd9bfb	0.025098791
84	0xbd60effe	-0.054916374
85	0x3c875a72	0.01652262
86	0x3d386510	0.045018256
87	0xbd16efc8	-0.036849767
88	0xbd3c17a8	-0.045920998
89	0x3c399ffe	0.011329649
90	0x3c3919eb	0.011297683
91	0xbd153872	-0.036430784
92	0xbd600e6a	-0.054701246
93	0xbd1d6820	-0.03842938
94	0xbd7cdeec	-0.061736032
95	0x3d201a45	0.039087553
96	0xbd681b90	-0.05666691
97	0x39917610	0.0002774452
98	0x3adb3d2e	0.0016726607
99	0xbc3d2899	-0.011545324
100	0x3d420046	0.047363542
101	0x3c058d91	0.008151428
102	0x3d71cabd	0.059031237
103	0x3d703f90	0.058654368
104	0x3d642fd8	0.05570969
105	0x3d1ef65e	0.038809173
106	0x3d28b3d2	0.041187115
107	0x3d015f49	0.03158501
108	0x3c0f7437	0.008755735
109	0xbcbc461e	-0.022982653
110	0x3b729b34	0.0037018778
111	0xbd740d18	-0.0595828
112	0x3d2646a5	0.040594716
113	0xbc3117bd	-0.010808882
114	0x3c1fb7d8	0.009748422
115	0x3d0ff6f8	0.035147637
116	0x3a34b9c4	0.00068941363
117	0xbc419bd9	-0.011816942
118	0x3d091c37	0.033474173
119	0xbd49ac6a	-0.049236692
120	0x3b8a7682	0.004225553
121	0xbcbf86b0	-0.023379654
122	0xbc69285d	-0.014230815
123	0x3d65a8cd	0.056069184
124	0x3baf05fc	0.0053412896
125	0x3d690d15	0.05689724
126	0x3d185b19	0.037196252
127	0x3d2576c5	0.04039647
128	0x3c84874d	0.016177798
129	0xb8182000	-3.6269426e-05
130	0x3c0c9ba4	0.0085820295
131	0xbd5dc089	-0.054138694
132	0x3d3b290a	0.045693435
133	0xbd41e671	-0.047338907
134	0x3b263436	0.002536071
135	0xbcd83929	-0.026394444
136	0x3caacf8d	0.020850921
137	0xbd07917a	-0.03309772
138	0xbcbe5143	-0.023232108
139	0xbd1dcf8b	-0.038528007
140	0x3d4a4cc8	0.04938963
141	0x3d46c73c	0.04852985
142	0x3d0c94c0	0.034321547
143	0xbca21aec	-0.019788228
144	0x3d651bb5	0.055934627
145	0xbbccb682	-0.0062473426
146	0x3d752eaa	0.059858955
147	0x3cfd261b	0.03090196
148	0x3cdee637	0.027209384
149	0xbcf2896d	-0.029606545
150	0xbd76b838	-0.06023428
151	0xbc810902	-0.015751366
152	0x3d521270	0.051287115
153	0x3ce2d339	0.02768861
154	0x3d7d9c95	0.061916906
155	0xbd1afe06	-0.037839912
156	0xbbd6d945	-0.0065566623
157	0xbce30a98	-0.027715012
158	0x3d3a9548	0.045552522
159	0xbcd4658c	-0.025927328
160	0xbce8e338	-0.028428659
161	0xbcd9b4fe	-0.026575562
162	0x3d24acde	0.04020392
163	0xbd45d7be	-0.04830145
164	0x3bff7f22	0.007797138
165	0xbcece114	-0.02891592
166	0xbcd2b17b	-0.025719395
167	0x3bd04bee	0.006356708
168	0xbac91531	-0.0015341399
169	0xbd112168	-0.03543225
170	0xbd3bed1e	-0.04588043
171	0xbd50a85d	-0.050941814
172	0x3d2d2021	0.04226697
173	0xbcde84f0	-0.027162999
174	0x3be9bc68	0.0071330555
175	0x3d451d8f	0.048123892
176	0xbd23225c	-0.03982769
177	0xbc9d43a8	-0.0191973
178	0x3d0ee21e	0.03488361
179	0xbd7b2e4a	-0.06132344
180	0xbcc9128c	-0.024544977
181	0x3d16ff98	0.036864847
182	0xbd1c004a	-0.038086213
183	0xbd459416	-0.04823693
184	0x3d6bddb4	0.05758448
185	0x3c901279	0.017586933
186	0x3d228027	0.039672997
187	0x3d0421da	0.032258846
188	0xbd2260e8	-0.0396432
189	0x3d101bc3	0.035182726
190	0xbcb658f4	-0.022259213
191	0x3c304c46	0.0107603725
192	0xbcb3d318	-0.021951243
193	0xbca96a08	-0.020680442
194	0x3d30be7d	0.043150414
195	0xbd6e5fd8	-0.058196872
196	0xbcb4b7f0	-0.022060364
197	0x3bd43f36	0.006477262
198	0x3d41e557	0.047337856
199	0xbd719c87	-0.058987167
200	0xbc26a3e7	-0.010170913
201	0xbd2ace5f	-0.041700717
202	0x3cc9db64	0.024640746
203	0xbd2f6ddf	-0.04282939
204	0xbd2a3212	-0.041551657
205	0xbd29190f	-0.041283663
206	0x3d58b649	0.052908216
207	0xbd19c4e7	-0.037541296
208	0xbd22fa69	-0.03978959
209	0xbd51106a	-0.051041044
210	0xbccd7321	-0.025079312
211	0x3cef3d63	0.029204076
212	0xbd55c799	-0.052192304
213	0xbd33aa48	-0.043863565
214	0x3cb9e5a9	0.022692518
215	0xbcf0124c	-0.0293056
216	0x3d102edc	0.03520094
217	0x3c6e19ed	0.014532548
218	0xbcbadff9	-0.022811877
219	0xbc05f2f1	-0.0081755975
220	0x3c660fed	0.014041883
221	0x3d086295	0.03329714
222	0xbd629256	-0.055315338
223	0xbd6e5b04	-0.058192268
224	0xbd2e28b1	-0.042519275
225	0xbd490a38	-0.04908201
226	0x3d18c956	0.037301384
227	0x3cceae07	0.025229467
228	0x3d61a272	0.05508656
229	0x3b89c17d	0.004203974
230	0x3c3c7c46	0.0115042385
231	0x3d32c177	0.043641534
232	0x3d30e41a	0.043186285
233	0x3cfe0c7f	0.031011818
234	0x3d197538	0.037465304
235	0x3d0a6d1f	0.033795472
236	0x3d7ccdad	0.061719585
237	0x3cded76d	0.027202332
238	0x3d69ae48	0.057050973
239	0xbaac44b7	-0.0013143037
240	0x3ce1e635	0.027575592
241	0xbd4a45f4	-0.04938312
242	0xbd76b356	-0.06022962
243	0xbba83910	-0.0051337555
244	0xbcfc5f34	-0.030807115
245	0xbbe40bc0	-0.0069594085
246	0xbd6ec714	-0.058295324
247	0x3d0175fb	0.031606656
248	0x3d058844	0.032600656
249	0xbd76ca0c	-0.06025128
250	0x3ce26ef3	0.027640795
251	0xbc80b443	-0.015710955
252	0x3d255be0	0.040370822
253	0xbcc5a643	-0.024127131
254	0x3cb69607	0.022288335
255	0xbd4dacc4	-0.05021359

weight f4 [4, 256]
0	0xbc29abbe	-0.010355888
1	0xbc4879cf	-0.012236073
2	0xbd2aaa75	-0.041666467
3	0xbb65ca7b	-0.0035063315
4	0xbd28233b	-0.041049223
5	0xbc57e678	-0.013177507
6	0x3cdd8a67	0.027043534
7	0x3d1acc06	0.03779223
8	0x3d0ff61e	0.035146825
9	0xbd57a762	-0.052649863
10	0x3a733470	0.0009277528
11	0x3d3a9c82	0.045559414
12	0xbd28a71f	-0.041175004
13	0x3d70615e	0.058686607
14	0x3cb11345	0.021615634
15	0x3d0151a2	0.03157199
16	0xbc767e28	-0.015044726
17	0x3d1b5983	0.037927162
18	0xbcfb10b2	-0.03064761
19	0x3c95c9b2	0.018284652
20	0x3d6934ac	0.056934997
21	0xbcbb6735	-0.022876361
22	0x3b837b13	0.0040124743
23	0xbb3139b6	-0.0027042455
24	0x3cf630f1	0.030052634
25	0xbd2f06f4	-0.04273124
26	0xbd13eacd	-0.036112595
27	0x3c3433e0	0.010998696
28	0xbd2a1276	-0.041521512
29	0xbc45c7c8	-0.012071557
30	0xbc746757	-0.014917216
31	0x3c35f5db	0.01110598
32	0x3b053c21	0.002033003
33	0xbd1a4fca	-0.03767375
34	0x3cf7209c	0.030166917
35	0xbc1b10df	-0.009464472
36	0xbb78f83f	-0.0037989763
37	0xbd327117	-0.043564882
38	0xbc2d9964	-0.010595653
39	0xbd49aab9	-0.04923508
40	0xbcdb88df	-0.026798664
41	0x3c3ff411	0.011715905
42	0x3d56b5f1	0.052419607
43	0x3d2800d0	0.0410164
44	0x3c3bd330	0.011463925
45	0x3d15eaa2	0.036600716
46	0xbc3b8e32	-0.011447476
47	0x3cf53024	0.029930182
48	0xbd241da2	-0.040067323
49	0xbb5c542f	-0.0033619513
50	0xbc1ba0ad	-0.009498757
51	0x3d16b4f3	0.03679366
52	0x3d0bdae4	0.034144297
53	0xbb8def40	-0.0043314993
54	0x3c16b83a	0.0091991965
55	0xbc1a17e0	-0.009405106
56	0x3c16efd1	0.00921245
57	0x3c2fe918	0.010736726
58	0xbce09200	-0.027413368
59	0xbc6a75f9	-0.014310353
60	0x3c757583	0.01498163
61	0x3cf9e793	0.030505931
62	0xbd59b498	-0.053150743
63	0xbd4acbe2	-0.049510844
64	0x3cb9ffc3	0.022704965
65	0x3d05b953	0.032647442
66	0x3c44ffbd	0.012023863
67	0x3cad3145	0.021141658
68	0xbd76acf8	-0.06022355
69	0xbd78d545	-0.060750265
70	0xbceb69f0	-0.028737038
71	0x3d4c05f2	0.049810357
72	0xbd3a6588	-0.045506984
73	0xbd478b72	-0.04871697
74	0x3d404ec0	0.0469501
75	0xbcf45110	-0.02982381
76	0xbae04463	-0.0017110225
77	0xbc59fa21	-0.013304264
78	0x3bcf28c8	0.006322
79	0x3d508b01	0.050913814
80	0xbd1a5478	-0.037678212
81	0x3d209106	0.039200805
82	0x3c222dfb	0.009898658
83	0xbca15419	-0.019693421
84	0x3ca92393	0.020646846
85	0xbd148d7b	-0.03626774
86	0xbd2d71ba	-0.042344786
87	0xbd0a53b1	-0.03377122
88	0x3d0e516c	0.03474562
89	0xbcc11607	-0.023570074
90	0xbcabff25	-0.020995686
91	0x3cfb5b90	0.030683309
92	0x3cfedc08	0.031110778
93	0xbce8b3ac	-0.028405987
94	0xbd453b6b	-0.04815237
95	0x3cd734ec	0.026270352
96	0xbc481bdc	-0.012213673
97	0x3d1b487f	0.037910935
98	0x3cabeb6c	0.020986281
99	0x3cd91bc5	0.0265025
100	0x3c7e9df6	0.0155405905
101	0x3ce4c46c	0.027925692
102	0xbd3e48fe	-0.04645633
103	0xbc69b547	-0.014264411
104	0xbcc63db0	-0.024199337
105	0xbd1531dc	-0.036424503
106	0x3d09b58e	0.03362041
107	0xbcdc8b51	-0.0269219
108	0x3a28a35e	0.0006433035
109	0xbd758495	-0.059940893
110	0xbc33b050	-0.010967329
111	0x3d5f22ad	0.05447643
112	0x3a1af192	0.00059106306
113	0x3d1bc46e	0.038029127
114	0x3d0e3148	0.034714967
115	0x3d59fe44	0.053221002
116	0xbc6e8c27	-0.014559782
117	0x3ccb57bb	0.024822107
118	0x3c97aafe	0.018514153
119	0xbd146fea	-0.036239542
120	0x3d5b0af1	0.05347723
121	0xbd5a084a	-0.05323056
122	0xbb06ec95	-0.0020587791
123	0x3c14709d	0.009060052
124	0x3d1cd6ad	0.03829067
125	0xbd78cf98	-0.06074485
126	0x3cc8ca30	0.024510473
127	0xbc2cde69	-0.010551074
128	0xbc234873	-0.009966004
129	0x3d0d88d8	0.034554332
130	0x3cf44e1a	0.029822398
131	0xbcdf25f1	-0.027239772
132	0xbb9f1532	-0.0048548216
133	0xbc11a327	-0.008888996
134	0x3cd68568	0.02618666
135	0x3c194c00	0.009356499
136	0xbbe45de8	-0.0069692023
137	0x3d5c891e	0.053841703
138	0xbd102f27	-0.035201218
139	0xbbc07f79	-0.005874571
140	0x3bf2c54e	0.0074087745
141	0xb9aeac89	-0.00033316415
142	0xbac0b080	-0.0014701039
143	0x3d66afc4	0.056319967
144	0x3cbac211	0.022797616
145	0x3d6b37af	0.05742615
146	0xbc09cc5c	-0.0084105395
147	0xbcba0bbc	-0.022710674
148	0x3cb7440a	0.02237131
149	0xbd1f4d8c	-0.038892314
150	0xbabe6040	-0.0014524534
151	0xbbfdd9f0	-0.0077469274
152	0xbcad4d8c	-0.021155141
153	0x3cbbef54	0.022941269
154	0xbcc7dcc3	-0.02439726
155	0x3d29e3fa	0.04147718
156	0x3ce2f456	0.0277044
157	0x3c3cd067	0.011524296
158	0x3d58d162	0.052934058
159	0xbd48c826	-0.049019
160	0x3d76829c	0.060183153
161	0xbcfad92c	-0.030621134
162	0x3c037449	0.00802333
163	0xbd1744c4	-0.036930814
164	0x3ba43849	0.0050115925
165	0xbbf77970	-0.0075523183
166	0x3cad2d20	0.021139681
167	0x3c86699b	0.016407778
168	0xbd183bac	-0.037166283
169	0x3cf3fb6b	0.029782971
170	0xbcdfcdb9	-0.027319776
171	0xbce4512f	-0.027870743
172	0x3d31f930	0.043450534
173	0x3c8b72fd	0.017022604
174	0x3c834213	0.016022718
175	0x3d17fbab	0.037105244
176	0x3d63aef8	0.055586785
177	0x3d54ff02	0.052001007
178	0xbd1d6eb6	-0.03843566
179	0xbd705f04	-0.058684364
180	0xbcbf7a60	-0.023373783
181	0xbce68ef4	-0.028144337
182	0x3d6e5870	0.05818981
183	0xbcf6da6e	-0.030133452
184	0x3d4fed96	0.05076369
185	0xbd37e431	-0.044895355
186	0x3cb8b3cd	0.022546673
187	0xbd77ef9f	-0.060531255
188	0x3ce88557	0.028383894
189	0xbd0e5dc9	-0.03475741
190	0xbc4eab8e	-0.012614144
191	0x3ccf0105	0.02526904
192	0xbd31cb50	-0.043406785
193	0xba613975	-0.00085916306
194	0xbcf6da1a	-0.030133296
195	0xbcffe773	-0.031238293
196	0x3d2a4aae	0.041575126
197	0x3d819338	0.06326908
198	0xbd7897d6	-0.060691677
199	0x3d2a3b20	0.041560292
200	0x3d5e0243	0.054201376
201	0xbd147b2c	-0.03625028
202	0xbd739d1a	-0.059475996
203	0xbd453926	-0.048150204
204	0x3cbdb76c	0.023158751
205	0xbd749050	-0.05970794
206	0xbc307abc	-0.01077145
207	0xbd00d65a	-0.03145442
208	0xbd3279af	-0.043573078
209	0xbceb81ce	-0.02874842
210	0xbd65359a	-0.05595932
211	0x3d68f7fc	0.05687712
212	0x3d703f29	0.058653984
213	0xbd55b6ba	-0.052176215
214	0xbd622020	-0.055206418
215	0xbd5293e8	-0.051410586
216	0xbcb5cf44	-0.022193559
217	0x3d5da1e6	0.054109477
218	0xbd2c0c22	-0.04200376
219	0x3c5ca8d1	0.013467983
220	0xbcba5dde	-0.022749837
221	0xbd25f61d	-0.040517915
222	0x3bcfe040	0.0063438714
223	0xbc8afbe8	-0.016965821
224	0xbccb05fb	-0.024783125
225	0xbd603d1a	-0.05474577
226	0xbc910381	-0.017701866
227	0xbaafff75	-0.0013427573
228	0x3bd1c530	0.0064016804
229	0x3d47a4df	0.048741218
230	0xbd46a111	-0.04849345
231	0xbbac7be4	-0.0052637924
232	0x3cc065fc	0.02348613
233	0xbd58d855	-0.052940685
234	0xbbaed344	-0.0053352434
235	0x3b46fa90	0.003036175
236	0x3ce4d76e	0.027934756
237	0xbd5f4406	-0.05450823
238	0x3ccf9cb0	0.02534327
239	0x3d6bd980	0.05758047
240	0x3c21c396	0.0098732915
241	0xbc31a278	-0.010841958
242	0xbd4ca1bc	-0.04995893
243	0xbd0febd8	-0.035137028
244	0x3cd49207	0.025948538
245	0xbd5f97de	-0.05458819
246	0x39bbda00	0.00035829842
247	0xbd153bff	-0.03643417
248	0x3d7a9a34	0.061182216
249	0xbd2090b8	-0.039200515
250	0x3b8b9f06	0.0042609004
251	0xbd1c1486	-0.03810551
252	0x3be988af	0.0071268897
253	0x3cbc6741	0.022998454
254	0x3c87d8b2	0.01658282
255	0x3d552e1a	0.05204592

bias f4 [4]
0	0x3d32fff9	0.043701146
1	0xbb76644c	-0.0037596403
2	0xbc896957	-0.016773863
3	0xbd6b9060	-0.057510734
