dqn_learning/wait/models/modelstatedict_1.pth (torch, 292191 bytes, 6 tensors)

net.0.weight f4 [256, 21]
000000 17 0d 22 be 42 dc 86 3d 60 36 16 3c 40 11 e7 bc
       -0.15825306 0.065849796 0.009168237 -0.028206468
000010 e0 de da bc 3c d6 37 bd 46 d1 a9 bd 8c 2c 1e 3d
       -0.026717603 -0.044882044 -0.08291869 0.038616702
000020 07 08 c6 bd 24 b3 84 bd f2 eb ea 3d 2c a6 ae bd
       -0.096695 -0.06479481 0.11470784 -0.085277885
000030 99 99 5d 3e 00 8e f0 bb e8 d2 05 bd 15 30 42 be
       0.21640624 -0.0073411465 -0.03267184 -0.18963654
000040 c8 21 58 bd 40 df 33 3c 4c 0e 9c bd 36 0f 9a 3d
       -0.05276659 0.01097852 -0.076199144 0.075224325
000050 55 31 22 3e ae a3 3c be 30 90 6f bc bc 19 09 bd
       0.15839131 -0.18421814 -0.014621779 -0.033471808
000060 65 4d 11 3e 10 16 f1 bc dd e9 53 3e 90 7e 3f bc
       0.1418968 -0.029429466 0.2069468 -0.01168789
000070 8e 77 ab bd 36 0c e2 3d 88 f5 4e be 07 8d 25 3e
       -0.083724126 0.11037485 -0.2021085 0.16167079
000080 e5 5a 30 be 84 18 74 3d b8 65 0b bd a8 01 f9 bc
       -0.17222174 0.059593692 -0.034032553 -0.030396298
000090 cf 77 51 3e d5 dc 13 3e 18 81 f9 bc 4a 02 b3 bd
       0.2045586 0.1443971 -0.030457065 -0.08740671
0000a0 5f af 05 3e f0 68 a9 bc ea 4f 3e be 84 96 7e 3d
       0.1305518 -0.02067992 -0.18585172 0.06215526
0000b0 46 2c 12 3e b0 75 a6 3d ac 17 2a 3e be d0 88 3d
       0.14274701 0.08127916 0.16610593 0.066804394
0000c0 d6 0d 7f 3d 86 69 48 be e0 5f 5a 3e 9c dc 2a 3d
       0.062269054 -0.19571504 0.21325636 0.041714296
0000d0 57 ac 93 3d 5c ba 40 bc a9 6e fd bc af d8 56 bd
       0.072106056 -0.011763182 -0.030936556 -0.05245274
0000e0 51 2f 1b 3d 73 f4 60 3d 05 f8 af b9 f5 bf 25 3e
       0.03788692 0.054920625 -0.0003356339 0.16186507
0000f0 df 0e 30 be 11 4b 10 3e 0d c8 24 bd 06 4d a3 3d
       -0.17193173 0.14091136 -0.040229846 0.079736754
000100 25 26 2c 3e 77 12 9e bd 97 52 39 3e 4e 04 89 bd
       0.16811426 -0.07718366 0.18097912 -0.06690274
000110 50 a7 f8 bc 33 bc 3d 3d 51 13 10 3e 69 1e 48 be
       -0.030353218 0.04632206 0.14069869 -0.1954285
000120 24 3c e0 bc ea 26 5b 3d c0 81 bb bd 6d 14 e8 bd
       -0.027372427 0.05350391 -0.09155607 -0.11332021
000130 2e 99 73 3d 8b a3 e9 bd 06 d8 31 3e 9c 74 9b bd
       0.059472255 -0.114081465 0.17367563 -0.07590601
000140 ae 40 3c 3d 98 e6 23 3e 1d 16 1e 3d ba 0a 1f be
       0.04596012 0.16005933 0.038595308 -0.15531436
000150 da 26 5d be 79 bf 14 be aa 55 0c 3e cc 47 5b be
       -0.21596852 -0.14526166 0.13704553 -0.21414107
000160 6b 9e 45 3d 4e e8 fb 3b e3 45 10 3e 9f 13 07 3e
       0.048246782 0.007687605 0.1408916 0.13191079
000170 a3 5b b2 3c 36 9f e4 3a c0 4d ff bd 57 1e 37 be
       0.021772211 0.0017442468 -0.124660015 -0.17882667
000180 81 42 4e be 72 b5 cd bd 93 15 89 bd 22 8c bd 3d
       -0.20142557 -0.100443736 -0.06693568 0.09255244
000190 eb e5 52 be 0e 8f 22 be 37 ad d6 3c 33 05 ea bd
       -0.20595519 -0.15874884 0.026205642 -0.11426773
0001a0 70 72 7b bd e9 ba db bd b0 76 09 3c e0 2a d0 bd
       -0.061388433 -0.1072901 0.008390114 -0.10164428
0001b0 36 f5 e2 3d 5c 25 5c 3e b0 82 5f 3e 1c 84 44 3e
       0.110819265 0.21498626 0.21827197 0.1919102
0001c0 f6 2b b1 bd 64 0b da 3d a7 dd 49 3e 9d dc 02 be
       -0.08650963 0.10646704 0.1971346 -0.1277947
0001d0 46 a3 c5 bd c4 8d 2d 3d 8f 10 45 3e 98 84 be bd
       -0.096502826 0.042371526 0.19244598 -0.09302634
0001e0 e6 f8 b2 3d d2 c1 da 3d 17 4c 56 be b2 e1 25 3e
       0.0873888 0.106814995 -0.20927463 0.16199377
0001f0 16 f2 14 3e 0e fb b1 bd 7d a4 82 bd 83 85 54 be
       0.14545473 -0.08690463 -0.0637903 -0.20754056
000200 ab c7 2c be f0 f9 3f 3e 0f 46 32 3e 12 7f 53 be
       -0.16873042 0.18747687 0.17409538 -0.20653942
000210 ea e8 20 bd c5 41 20 be 73 4f 0b bc 9c 21 ce bd
       -0.039284624 -0.15650089 -0.008502829 -0.10065004
000220 fb 29 5e be 98 c7 f6 bc 7d 88 85 3d ac 17 16 be
       -0.21695702 -0.03012447 0.06520174 -0.14657468
000230 06 3f 5f 3e 46 28 12 3e d9 96 9b 3d ee 61 14 be
       0.21801385 0.14273176 0.07597131 -0.14490482
000240 0f a5 2c 3e b3 51 54 3e d3 c1 f8 3d 9c 59 ab 3d
       0.1685984 0.20734291 0.12146344 0.08366701
000250 c0 a1 12 bb 78 ca d7 bb 43 5e 30 3e 9a 18 56 be
       -0.0022374243 -0.0065854155 0.17223458 -0.20907822
000260 6c e1 4c be 2e 41 f8 3d 12 dd a6 bd 09 68 7f bd
       -0.20007867 0.12121807 -0.081476346 -0.062355075
000270 ed 75 8c bd 7c a9 4e be 1c 96 af 3d 4f e4 0c 3e
       -0.0685843 -0.2018184 0.08573553 0.13758968
000280 70 db 50 3e 31 5e a4 3c 9c 64 c4 bd 7f 12 07 be
       0.20396209 0.020064445 -0.09589502 -0.1319065
000290 05 16 5b bd a1 d7 d7 bd c1 74 44 be b6 9b e9 bd
       -0.053487796 -0.10539175 -0.19185163 -0.11406653
0002a0 4a 1d 78 3d 00 50 ab 38 b8 75 59 be 1f ff 11 3e
       0.060574807 8.1688166e-05 -0.21236312 0.14257477
0002b0 d3 89 f7 bd 3f 07 07 be 01 9b 2d 3d d5 82 7b bc
       -0.12086835 -0.13186358 0.04238415 -0.015351017
0002c0 08 eb 34 be b3 15 10 bc c6 83 47 be 02 af 5d 3e
       -0.17667782 -0.008794236 -0.19483861 0.21648791
0002d0 fc 49 c0 bd e2 57 26 3d 65 63 71 3d 02 f0 45 3d
       -0.093891114 0.040611155 0.05893268 0.048324592
0002e0 04 ed 38 3c 63 96 33 be 4c 0b 18 be 45 1c 1a be
       0.011286978 -0.17537837 -0.1484806 -0.15049846
0002f0 4f aa c0 bd 77 89 c6 bd fc c1 19 3d 30 d4 19 be
       -0.09407484 -0.09694188 0.037538514 -0.1502235
000300 51 21 08 3d e8 f7 34 be 5d af 0e be f9 cd 2a 3d
       0.033234898 -0.17672694 -0.13934083 0.041700337
000310 b8 00 52 3e 95 13 38 bc b4 d9 f2 3c 8c fb f5 3d
       0.20508087 -0.0112351375 0.029644825 0.120108694
000320 35 d1 fe bd f8 fc 53 3e 4b 10 c8 bd 27 91 49 be
       -0.12442247 0.20701969 -0.09768733 -0.19684277
000330 38 8e 2f 3d dc 69 14 be 77 86 24 3e e0 5c 2a 3e
       0.04286024 -0.14493507 0.1606692 0.16636992
000340 eb 36 84 bc 6f 68 ed 3c 35 43 19 be 84 a0 a5 bd
       -0.016139468 0.028980462 -0.14967044 -0.080872566
000350 ff 60 54 be 87 f9 1a be 78 df 3f 3e e3 d6 2e 3e
       -0.20740126 -0.1513425 0.1873759 0.1707416
000360 9d da e9 bd 45 f2 40 3b 39 17 da 3d 00 28 d0 bc
       -0.1141865 0.002944128 0.106489606 -0.025409698
000370 25 91 31 be 3f ac 4a 3e 41 0c 4e bd 52 d3 11 3e
       -0.17340524 0.19792269 -0.050304655 0.14240769
000380 c1 8a 2b bd 83 0d e7 3c 2e 82 3d 3e df 96 c2 3d
       -0.041880373 0.028204685 0.18506691 0.095014326
000390 71 4f 19 3e 29 df 1f 3e 1f fa 35 3e 50 1f 51 bd
       0.1497171 0.15612473 0.17771195 -0.051055253
0003a0 4f a6 11 3e f2 7f 0b be 10 1c 77 bc ea f9 dc 3d
       0.14223598 -0.13623026 -0.015082374 0.10789855
0003b0 34 92 1e bd 78 d9 d5 bd bc 24 18 bd 89 5b d3 bd
       -0.03871365 -0.104418695 -0.037144408 -0.10320193
0003c0 82 dc ab bd 2e a1 90 bd bb 5b 32 3e e0 a4 ec bd
       -0.08391668 -0.070619926 0.17417805 -0.11554885
0003d0 51 57 40 3e ce 4a e4 bd cf 21 d2 bd eb ca 16 3e
       0.18783309 -0.1114708 -0.10260355 0.14725845
0003e0 46 b9 55 be c2 aa 85 3d bc 76 92 bd ee 00 1e be
       -0.20871457 0.0652671 -0.07151553 -0.15430042
0003f0 f0 5a 59 bc 7e 67 81 3d fc bc 3b 3e 64 e8 38 be
       -0.01326631 0.06318568 0.1833381 -0.180574

net.0.bias f4 [256]
000000 ff dd c0 bd c0 38 5c be 64 6f c3 bd ab c7 4c 3e
       -0.094173424 -0.21506023 -0.095427305 0.19998042
000010 f4 fd c0 bc 1d a8 35 3e f4 5e 3d 3a bc 83 ed 3d
       -0.023558594 0.17739911 0.0007223927 0.11597392
000020 5e f4 54 3e 7a 87 9a 3d 16 0f 83 3d 2c 85 3c bd
       0.20796344 0.07545371 0.06399362 -0.04602544
000030 21 2c 56 3e 8f 58 49 be 5a 29 d6 bd 8d a7 0e 3e
       0.20915271 -0.19662689 -0.10457106 0.13931103
000040 c5 e1 db bc fe ff 78 bd 7d 88 2c 3e 2f ae 31 bc
       -0.026841054 -0.06079101 0.16848941 -0.010844751
000050 96 07 19 bd e2 56 02 3e 5e b8 2d 3e 7f 3d 40 be
       -0.03736075 0.12728456 0.16964862 -0.18773459
000060 a1 42 12 be 40 8a 0b be d1 af 5a 3d f7 e4 6f 3d
       -0.1428323 -0.13626957 0.053390328 0.058567967
000070 9c 25 c3 3d 24 dd 33 bd 22 1a 82 3d a3 56 34 bd
       0.09528658 -0.043912068 0.06352641 -0.044027936
000080 b8 74 76 3d 63 e0 e5 bd 35 ff a9 3d 1b 66 00 3e
       0.060169905 -0.11224439 0.0830063 0.1253895
000090 c8 34 25 3e c4 8a 11 3e 93 b5 e5 bd de 3c 00 3e
       0.16133416 0.14213091 -0.11216273 0.12523219
0000a0 68 af 95 3d a6 d7 b0 3d e5 80 36 3e 17 57 21 be
       0.07308847 0.08634882 0.17822607 -0.15755878
0000b0 50 11 20 bd e8 fe f1 3d 60 0f 2a bd 8a 3a d1 3d
       -0.03907901 0.11816198 -0.04151857 0.102162436
0000c0 27 11 e7 3d e8 5e 2f be 6d 6a fe 3d 39 83 27 bc
       0.112825684 -0.17126048 0.12422643 -0.010224157
0000d0 3f b8 3c 3d 70 d8 37 be b1 bd a0 3d 17 86 0b be
       0.04607415 -0.17953658 0.07848681 -0.1362537
0000e0 bd 76 17 be a8 d2 af 3d 7a 5d d1 3d 9e 23 6d bd
       -0.14791389 0.08585101 0.10222907 -0.057895295
0000f0 55 14 a2 ba 6f 91 91 3d ad 75 f2 3d b7 c5 d7 bd
       -0.0012365679 0.071078174 0.11838851 -0.10535758
000100 be 48 cd bd 9e 88 4b be 89 2c 27 bd e8 4d 14 3e
       -0.1002364 -0.19876334 -0.040813956 0.14482844
000110 04 ce a3 3d 40 9c 0f bc 1b ae cf bd c4 fd 30 be
       0.07998279 -0.00876528 -0.1014063 -0.17284304
000120 09 0f c1 bd 49 a2 d0 3c 20 79 04 3e c9 05 5f 3e
       -0.09426696 0.025468009 0.1293683 0.2177955
000130 cc 1b 29 3d 4d 53 c3 bc ad db 05 3d 89 77 4a 3e
       0.041286275 -0.023843432 0.032680202 0.19772162
000140 20 53 67 bd 6d 02 0c 3d 3c e9 f1 3d fd 3d 16 be
       -0.05647576 0.034182 0.11812064 -0.14672084
000150 08 aa 2f bb c0 b0 05 be ba 79 c2 3d 05 56 89 3d
       -0.0026804227 -0.13055706 0.09495874 0.0670586
000160 b8 51 ff bc 53 76 51 be d2 f6 97 3d f5 c9 cf bd
       -0.031166896 -0.20455293 0.07420124 -0.10145942
000170 14 1a 05 3e bf 13 84 3d 2a bc 50 bd ed 99 16 3e
       0.1299823 0.06449079 -0.050960697 0.14707156
000180 1d 0f 30 be 2c 7d 25 be f5 35 43 be 91 8c ee 3d
       -0.17193265 -0.1616103 -0.19063552 0.11647905
000190 54 a2 5b 3e 41 5d 48 3e e6 93 1f be 2c 55 8e bd
       0.21448642 0.19566824 -0.15583763 -0.06949839
0001a0 54 a1 99 3d f0 5b 18 3e da 5c 9a bd 18 83 a3 bd
       0.07501474 0.14878821 -0.07537241 -0.079839885
0001b0 1a 42 ee bc 23 ad 16 3e f8 2a 52 3e e6 13 37 3e
       -0.029084254 0.14714484 0.20524204 0.17878684
0001c0 0a fc d2 3d 91 15 2e 3e 5c 7a 38 be 7c 21 5c 3e
       0.10301979 0.17000414 -0.18015426 0.21497148
0001d0 3c e0 3d bd 5b a5 37 3e f2 2f 21 3e 6c df 58 3e
       -0.046356425 0.17934172 0.15740946 0.21178979
0001e0 e7 91 a3 3d 1c a4 ef bd 9a 0f b2 bd e4 1a 1a 3e
       0.07986813 -0.11701223 -0.08694382 0.1504932
0001f0 cd 86 c9 3d 82 91 b2 3d 2f 64 4b 3c 76 81 89 bc
       0.09840164 0.0871916 0.012414022 -0.016785365
000200 07 81 70 3d c7 f0 43 3e 40 27 4a be c7 d9 36 be
       0.0587168 0.19134818 -0.19741535 -0.17856513
000210 86 20 22 3e 61 c3 28 3e 69 54 48 be 71 c4 c3 bd
       0.15832719 0.16480781 -0.1956345 -0.095589526
000220 71 86 83 bc af 3e a0 bd fe ef 18 be 8c 59 b7 bd
       -0.016055318 -0.07824456 -0.149353 -0.089526266
000230 3a 67 b5 bc 0d bf 74 3d 1c d3 af 39 ea f0 f3 3d
       -0.022143949 0.059752513 0.0003353589 0.11911185
000240 28 86 1e 3c a6 4d 44 3e f5 5b f7 bd c4 7e 11 3e
       0.00967554 0.19170246 -0.12078086 0.14208513
000250 de 27 2b 3b 96 35 12 be cd b5 a8 bd 3a 37 2e be
       0.0026116292 -0.14278254 -0.08237801 -0.17013255
000260 50 de 01 3e f5 47 a6 3d 66 58 31 be 28 b1 40 3e
       0.12682462 0.081191935 -0.17318878 0.1881758
000270 57 df 11 3d e0 9c 25 be 7d 60 f1 bd e1 fe 4c be
       0.035613384 -0.16173124 -0.11785982 -0.20019104
000280 29 9d c8 bd 0c bc 08 3d f7 ba 3a 3d fd d4 12 3d
       -0.09795601 0.03338246 0.04558846 0.035847653
000290 32 db 88 bd a7 a8 40 3e e4 e3 04 bc 80 80 49 3e
       -0.06682433 0.18814336 -0.008110974 0.19677925
0002a0 00 d0 71 bd a9 ba 51 3d 5a 9c 0b 3e b4 10 67 bc
       -0.059036255 0.051203404 0.13633862 -0.014103103
0002b0 84 df 22 bd 67 14 b1 3c b5 4a 0e 3e a5 6c dc bc
       -0.039763942 0.021616174 0.13895686 -0.026907274
0002c0 7b ed eb bc ab 09 84 bd d3 ce 22 3d e5 db 4b be
       -0.028799763 -0.064471565 0.039748024 -0.19908102
0002d0 5d c5 5b 3e a1 b3 81 3d 85 17 ef 3d 5b ba 56 be
       0.21462007 0.063330896 0.11674408 -0.20969526
0002e0 c2 a9 1d 3d 1c eb 5f bd 06 f6 c9 bd b3 d0 27 bd
       0.03849197 -0.054667577 -0.09861378 -0.040970515
0002f0 10 a7 0a be a7 d4 f4 bd cc 29 73 3d ef f7 12 3e
       -0.13540292 -0.11954623 0.059366032 0.14352392
000300 3e cf 28 be e2 a3 3a 3e 48 46 5c be b3 5f db 3d
       -0.16485307 0.18226579 -0.21511185 0.107116126
000310 5a ce 58 bd cf b3 f9 bd 05 2f 11 bd d0 56 62 bc
       -0.052931167 -0.12192499 -0.035445232 -0.013814643
000320 27 22 b4 bd 3e 8e 1e be af 06 2e be a3 71 b3 3b
       -0.087955765 -0.15483949 -0.16994737 0.005476193
000330 34 0d 11 be 73 03 f4 3d 29 0e 20 be 07 68 f1 3d
       -0.14165193 0.119147204 -0.15630402 0.1178742
000340 97 3a 83 bd a1 94 eb bd 3e 18 09 bc f6 e3 15 3d
       -0.064076595 -0.11502958 -0.008367596 0.036594354
000350 51 d4 27 3d 17 da a3 3d 38 35 0f be 23 4f 1e 3e
       0.040973965 0.08000582 -0.13985145 0.15459876
000360 f6 4e f4 3d eb 9c 28 3e d3 9f 14 bd ab 09 98 bd
       0.11929123 0.1646611 -0.036285233 -0.07423719
000370 b3 95 3d be 11 53 2b 3e 6c a1 5c 3d 9c 33 14 bb
       -0.18514137 0.16730906 0.05386488 -0.002261377
000380 05 80 62 3d fa 08 25 be e4 18 b1 3d 39 19 04 be
       0.05529787 -0.16116706 0.08647326 -0.12900247
000390 52 9a 41 bd 42 5b 44 be 18 1c 03 3e 4f 75 dc bd
       -0.047266312 -0.19175437 0.12803686 -0.10764562
0003a0 60 71 07 3e 29 2a 45 be e2 f7 cb 3d bf 2b 29 3e
       0.13226843 -0.19254364 0.09959389 0.16520594
0003b0 33 55 1a 3d 64 3e af 3c ab b9 91 3d 03 6d 40 3e
       0.03767891 0.021392055 0.071154915 0.18791585
0003c0 7e a6 6e 3d bf a1 9c bd 8e 3c 9a 3d 4f 6e 3b bd
       0.058264248 -0.07648038 0.07531081 -0.045759495
0003d0 cd 3a ab bc 4d ff e3 3d 22 4c 2d be da 96 2d be
       -0.020902062 0.11132679 -0.16923574 -0.16952077
0003e0 e1 a9 f0 3d 3b 09 06 be 3d 18 1e 3e 31 66 a8 38
       0.11751152 -0.13089459 0.15438934 8.029899e-05
0003f0 91 d1 f2 3d 34 e0 54 be 3c 13 fe 3d 43 4b df bd
       0.11856378 -0.20788652 0.124060124 -0.10903027

net.2.weight f4 [256, 256]
000000 c6 0c 0b bd 02 f1 48 bd 37 1f e3 3a b6 a7 00 3d
       -0.03394773 -0.049057968 0.0017328028 0.03140994
000010 0f 9b 55 3d 06 50 7f bd 7e 26 24 bd 88 9b 40 3d
       0.05214983 -0.062332176 -0.04007577 0.047023326
000020 09 f3 44 bd 50 54 58 bd c0 32 76 3d 7a e7 77 3d
       -0.04808334 -0.05281478 0.060106993 0.060523488
000030 12 6d 9d 3c d3 ed 23 3d f4 bc 2a 3d ba 51 9a 3b
       0.019217048 0.04002173 0.041684106 0.0047094496
000040 91 bd b1 bc df 9e 74 bc 6f 3c 23 3c cc b3 36 bd
       -0.021696838 -0.014930456 0.009963139 -0.04460506
000050 fe 01 67 3d 46 fe 16 3d f4 fc a3 3a 2a a9 31 bc
       0.056398384 0.036863588 0.0012511299 -0.0108435545
000060 73 d3 59 bd 48 ee 3b bd 83 55 5b 3d e3 1d 56 bd
       -0.05318017 -0.04588154 0.053548347 -0.052274596
000070 43 7c 80 bd e0 69 9e bc 7c 9a 45 bd 65 6d 76 bd
       -0.06273701 -0.019337595 -0.04824303 -0.06016292
000080 81 a6 ca 3c 19 70 41 3c a7 81 37 3d a0 8f 5e bd
       0.024737598 0.011806511 0.04480138 -0.05433619
000090 f2 b1 3e bd 67 dd 00 3d 5e 49 85 bc 03 25 7b 3c
       -0.04655642 0.031461146 -0.016270336 0.0153286485
0000a0 7d 97 05 bd 7b d9 4c 3d 51 fa 68 bd 4f ab 33 3d
       -0.032615174 0.050012093 -0.056879345 0.043864544
0000b0 16 77 51 bd 9e f2 17 bd e0 90 67 bb 7e 35 5d bd
       -0.05113896 -0.037096612 -0.0035334155 -0.054006092
0000c0 95 bd 98 bc 72 98 01 3d bb 5f 29 bd 6f 28 44 3d
       -0.018645087 0.031639524 -0.04135106 0.047890123
0000d0 8e 0d 03 3d 88 fb 7c 3d 19 1c 28 3d 26 a9 9c 3c
       0.03199535 0.061763316 0.04104242 0.019123625
0000e0 6c ae 36 3c f3 79 3b 3d cb 4a 62 3c 95 18 70 bd
       0.011149984 0.045770597 0.013811777 -0.058617193
0000f0 f8 e3 2e 3d 27 2e da bc 6d de 65 ba 86 8d ae 3c
       0.042697877 -0.026633335 -0.0008768801 0.021307718
000100 d3 34 03 bd 80 5b ea bb 72 8d 23 bd bd 97 46 3c
       -0.0320328 -0.007152021 -0.039929815 0.012121138
000110 dc ac b2 bc 4c a1 41 3d 98 e1 af 3c 20 20 6e bd
       -0.021810941 0.047272965 0.021469876 -0.058136106
000120 21 c9 27 3d 1c 0f cc bc f7 42 46 3c 63 45 50 3c
       0.040963296 -0.024909548 0.012100927 0.012711856
000130 d0 e3 b2 3b f2 f5 8a 3c 85 04 47 bd 9f f3 47 3c
       0.0054592863 0.016962979 -0.048588295 0.01220408
000140 06 16 20 bd 28 6e 95 3c 0d bb 0d 3d 60 23 2b bc
       -0.039083503 0.018241003 0.034602214 -0.010445446
000150 c8 b1 2c bc 06 80 67 bd dc 15 bb bc 5f bf 77 3d
       -0.010540433 -0.056518577 -0.022837572 0.06048524
000160 40 64 7a 3c b5 97 16 bc a7 b0 fd bb 7e 23 52 3d
       0.0152826905 -0.009191443 -0.007742006 0.05130338
000170 96 9f f7 3c 38 07 6b 3d cc db 2a bd 5a 58 f0 bc
       0.030227464 0.05737993 -0.04171352 -0.029339004
000180 5c fe 41 bd 1c 40 31 bd 00 09 47 3c b9 0b 26 3c
       -0.047361717 -0.04327403 0.012148142 0.010134631
000190 34 31 78 3d 26 98 f5 bc 62 b0 7e 3d 6f 39 fc bc
       0.0605938 -0.029979777 0.06217993 -0.030789105
0001a0 73 09 6f 3d 16 01 fb bc a6 0d 6d 3d 0a e8 33 3d
       0.05835862 -0.030640166 0.057874344 0.04392246
0001b0 cf 51 4e 3d 3f 83 d9 3c fc b5 40 3c 63 14 4d 3d
       0.050370988 0.02655184 0.011762138 0.05006827
0001c0 01 e0 bd bc 57 2a d9 bc 40 f8 36 3d fa 84 06 3c
       -0.023178102 -0.026509447 0.044670343 0.008210415
0001d0 31 4f a2 b9 24 99 fa 3c 79 e3 c9 3c 0a 54 b0 bb
       -0.0003095805 0.030590601 0.0246446 -0.005381112
0001e0 36 89 af 3c eb 99 39 3c 64 4f b4 3c 22 81 ff bc
       0.021427732 0.011328201 0.022010513 -0.031189505
0001f0 0b 94 57 3d 42 ee 9b bc dc 49 72 3d 31 5e 2a bd
       0.05263142 -0.019034509 0.05915247 -0.041593734
000200 c3 4f 37 3d bb c3 05 bc 6a 4f 8b 3c e8 ae d5 bc
       0.0447538 -0.008164342 0.017005641 -0.026084378
000210 c5 fa 5d bc 5d b5 7b 3d 80 b8 7e 3d 3e f2 0b 3c
       -0.013548558 0.06145226 0.06218767 0.008541642
000220 ee a9 17 bd 12 5c 63 bd 7f 40 ae ba d6 7a 6f bd
       -0.037027292 -0.055507727 -0.0013294368 -0.058466755
000230 31 d1 63 3d ec fa 9e 3c 27 64 69 bd 2c cb 13 3d
       0.055619422 0.019406758 -0.05698028 0.03608243
000240 92 db e4 3c 14 5d e9 3c 1e 49 33 3d 0e b9 07 3d
       0.02793673 0.028486766 0.0437709 0.033135466
000250 3f fe 55 bd e4 98 a0 3c 80 00 0e 3d 94 7b 31 3d
       -0.05224442 0.019604154 0.034668446 0.043330744
000260 9b b0 58 3d fc cb 1e bd 84 47 6c 3d 83 d9 76 3c
       0.0529028 -0.038768753 0.05768539 0.015066507
000270 75 6b 08 bd fd 1b c6 bc 48 17 3e 3d fd 10 76 bd
       -0.033305604 -0.024183268 0.04640892 -0.060074795
000280 82 86 0b bd 7c d7 4c 3d 73 9c ea 3c 13 8f d3 bc
       -0.034063824 0.05001019 0.028639054 -0.025825059
000290 48 1d 7c 3d 58 2c 7b bc ee fd 67 3d d9 d2 cf bc
       0.061551362 -0.015330397 0.05663865 -0.025369095
0002a0 bc fc 5b bd 8b 58 1c bd 9e a4 5d 3d ec d3 b5 bc
       -0.053707823 -0.03817038 0.05411207 -0.022195779
0002b0 2c 9a 39 bd 3c 84 3e bd bc 24 16 bd df f5 50 3d
       -0.045313045 -0.046512827 -0.036656126 0.05101573
0002c0 76 8b 00 3d b7 36 09 3d 58 1e 76 bd cc 6d 73 bd
       0.031383 0.033499446 -0.06008753 -0.059430882
0002d0 d6 4f 0a bc e8 72 30 3d 18 0e 88 3c d9 f0 ee bc
       -0.008441886 0.043078333 0.016608283 -0.02916758
0002e0 55 65 20 3c bf 1a 17 3d 1a 35 16 bd 5c d9 4b bd
       0.009789784 0.03689074 -0.036671735 -0.049767837
0002f0 7d f9 53 3d 78 e0 3c 3c cc 04 94 bc 36 35 57 3d
       0.051751602 0.011528127 -0.018068694 0.05254098
000300 b8 ae 0f bd 93 a7 e2 bc 50 b7 c9 bb 46 5c 84 bc
       -0.035078734 -0.027667796 -0.0061558858 -0.01615728
000310 89 d0 4d 3d e1 5b 4a bd 7a ac c7 bc b2 63 e2 bc
       0.050247703 -0.04940403 -0.024374235 -0.027635429
000320 8b e4 4a 3d 10 b4 bc 3b 90 f9 1f bd a1 6c 41 3d
       0.04953436 0.00575877 -0.03905636 0.047222737
000330 ee fc c2 3c b0 e2 17 bd d0 b4 19 bd bd 89 55 bc
       0.023802247 -0.03708142 -0.03752595 -0.013033328
000340 94 38 53 3d 11 89 9e bc d8 ff f8 3c 66 a7 40 bd
       0.05156763 -0.019352468 0.030395433 -0.047034644
000350 69 61 b1 bb b9 fe 36 3d 58 47 71 3d 46 99 26 3d
       -0.0054132235 0.044676516 0.05890593 0.040673517
000360 1f 93 cf 3c 75 9c f5 bc 5d 0b 69 3d 68 a3 a9 3c
       0.025338707 -0.029981831 0.056895602 0.020707801
000370 d8 cb f4 3c a6 b0 4d 3d d5 80 47 bd 45 92 42 bd
       0.029882357 0.050217293 -0.04870685 -0.047502775
000380 08 f3 52 3d 60 6f 6d 3b 2c c8 47 3d ca 8a 1b 3c
       0.051501304 0.0036229715 0.048774883 0.009493539
000390 62 70 db bc d8 b7 52 3c 4e 1b f5 3c 0c f2 04 bd
       -0.026786987 0.012861215 0.029920246 -0.032457396
0003a0 40 1a 6f 3d b9 cb d9 bc 0c 76 57 3d fc b7 48 3d
       0.058374643 -0.0265864 0.052602813 0.049003586
0003b0 a1 9c b7 bc 7c 88 32 3a d7 93 8c 3c 24 16 49 bc
       -0.022413554 0.0006810499 0.01716034 -0.012273345
0003c0 0c c4 2d bd 49 0f 3d bb cd b3 25 bd 9c 5a ed 3c
       -0.042423293 -0.0028848222 -0.040454675 0.02897387
0003d0 7f 0d d0 3c a6 81 c3 bc 28 67 54 bc a0 51 46 bd
       0.02539706 -0.023865532 -0.0129640475 -0.048417687
0003e0 b9 df 4a 3d 58 7a 2c 3c a3 a1 a7 bc dc f8 80 3d
       0.049529765 0.010527216 -0.020462817 0.06297466
0003f0 1a a1 59 bd b4 2c 37 bd 3f cc 77 bd 15 d7 71 bd
       -0.053132154 -0.044720367 -0.06049752 -0.05904301

net.2.bias f4 [256]
000000 cb d9 3a bd 0b 72 02 bd 25 e1 39 bc 81 66 71 3d
       -0.04561786 -0.03184704 -0.011345183 0.058935646
000010 de cb 5f 3d 4a b0 ba 3c 4f 9d 56 3d d4 57 e0 bc
       0.054637782 0.02278914 0.052396115 -0.02738563
000020 60 e2 bf bc 83 6a 67 3d ec 60 fc 3c fb 99 44 bd
       -0.023423374 0.056498062 0.030807935 -0.04799841
000030 00 88 cb b9 22 72 8e 3b c8 dc 00 bd 1b 9b 53 3d
       -0.00038820505 0.004347102 -0.031460553 0.051661592
000040 1c 2f 58 3d 80 f0 9f bc 45 0a c9 bc c9 50 f0 bc
       0.052779302 -0.019523859 -0.02454103 -0.029335396
000050 30 b5 89 3c 7c 7f 5d bd 85 7f 37 3c 04 c2 e3 3c
       0.01681003 -0.054076657 0.011199837 0.027802475
000060 be 8c 1c bd 85 16 ee 3b ef 3f e6 bc 8a 5b 9c bc
       -0.03822016 0.007265868 -0.028106658 -0.019086618
000070 a1 16 d1 3b 33 2d 7d bd 90 ea 84 3b 1b d0 de 39
       0.0063808714 -0.061810683 0.0040562823 0.0004249819
000080 16 5c 2d 3d 4a 91 57 3d ba 2a 98 bb cb 86 ab bc
       0.042324148 0.052628793 -0.0046437653 -0.020938298
000090 52 74 57 3d f1 14 02 bd d4 78 5b bc e6 36 45 bd
       0.052601166 -0.031758253 -0.013395507 -0.04814806
0000a0 01 37 bf 3b 22 32 1f 3d 0e 9e 7c 3c 4d b0 55 bc
       0.0058354144 0.03886617 0.015418543 -0.013042522
0000b0 32 c1 26 bd fc 9f 1c bd 9a 87 6f bd 5c 50 31 3c
       -0.04071159 -0.03823851 -0.05847893 0.010822382
0000c0 fa 7d 5d bd 42 60 40 3b ae 07 76 bd a0 fb 61 bd
       -0.05407522 0.002935425 -0.060065918 -0.05517161
0000d0 6b 5b 18 bd 21 e5 68 3d a8 92 a0 3c e7 8f 46 3d
       -0.037196558 0.05685914 0.019601181 0.04847708
0000e0 70 82 92 bc b5 b6 32 bc 59 44 5b 3d d8 a5 b7 bc
       -0.017884463 -0.010907819 0.05353198 -0.022417948
0000f0 12 ae 82 3c f8 02 12 3c c3 2c 12 3c 20 22 5f bc
       0.015952144 0.008911841 0.008921805 -0.013618976
000100 36 67 7e bc 4c 5c 29 bd a4 ce 5f bc 20 c1 e5 ba
       -0.015527537 -0.041347787 -0.013660107 -0.0017528869
000110 8c 70 e7 bc 8a 0f 34 3d e0 40 61 3d 08 0b e8 3c
       -0.028251909 0.04396013 0.05499351 0.028325573
000120 d3 42 92 bc e6 43 46 bd 94 98 3b 3d 4a f1 fd bc
       -0.01785413 -0.048404597 0.045799807 -0.030998845
000130 0d 80 c3 bc 5c b3 92 bc 48 59 1e bd a3 0a 54 3d
       -0.02386477 -0.01790779 -0.038659364 0.051767956
000140 83 63 69 3b 66 bc 06 bd 9a 32 76 ba bf 0f 80 bd
       0.0035612292 -0.032894515 -0.00093916955 -0.06253003
000150 22 f6 58 3d 6c 76 be 3c aa 6a b1 3c 62 66 29 bc
       0.052969106 0.023249827 0.021657307 -0.010339351
000160 f6 da 4c 3c 2b 66 87 3c 85 75 10 3d 09 72 2a 3d
       0.012503376 0.01652821 0.035268325 0.04161266
000170 52 93 42 bd 05 bf 68 3d 96 6b 36 ba 22 a7 6d bd
       -0.047503777 0.056822795 -0.00069587806 -0.05802072
000180 99 58 62 bc 4d 87 1d 3d 00 43 9c bc 8a 63 25 3c
       -0.013815069 0.03845911 -0.019074917 0.010094533
000190 08 05 14 3d 6e b6 69 bd df 22 5f bd 55 f4 1f bd
       0.03613761 -0.057058744 -0.054476615 -0.039051373
0001a0 42 11 1e bd 88 e0 ec bc b3 ed 72 3d a8 f2 ef 3b
       -0.038590677 -0.028915659 0.05930872 0.007322628
0001b0 4b 16 37 3d be 3f 65 3d 78 5c 27 3d 8f 1c b1 3c
       0.044698995 0.055968992 0.04085967 0.021620063
0001c0 ce 2e 75 bd fa 58 9f 3c d9 db 4f 3d f7 ad 43 bd
       -0.05985909 0.019451607 0.050746772 -0.047773328
0001d0 d6 78 5f 3d 45 3f 28 3d b3 bf 61 3b 4c c0 d3 3c
       0.054558598 0.041075964 0.0034446537 0.02584853
0001e0 84 d1 36 3d 44 8a 6e bd a0 4c 20 bd 54 fa 08 bd
       0.044633403 -0.05823733 -0.039135575 -0.033441857
0001f0 b8 cb a0 bc 09 74 06 bd 63 60 7e 3d 03 6c 6d bd
       -0.01962839 -0.032825503 0.06210364 -0.057964336
000200 7d 68 04 3d 38 be 55 bd 61 1f 81 3d 72 94 a6 3c
       0.03232621 -0.05218336 0.06304813 0.020334456
000210 3a 9b 5b bd 54 0f b0 3c ad e8 09 ba 83 33 84 bc
       -0.053614832 0.021491684 -0.00052608066 -0.016137844
000220 d4 57 4e bc 44 b1 71 bd 68 0e b6 3c aa b1 20 3d
       -0.012594182 -0.059006944 0.022223666 0.039231934
000230 ba 3a 45 bb 39 32 ca 3b 41 7f 67 3c 83 da 04 bd
       -0.0030094818 0.006170538 0.014129461 -0.03243495
000240 8a 45 0d 3c 5d 02 b7 bc 5d 75 73 3d 24 54 5b bd
       0.008622536 -0.022339994 0.0594381 -0.05354704
000250 c3 63 5f 3d f2 54 41 bd 06 de 9a bc a0 79 ac bc
       0.0545385 -0.04720015 -0.018904697 -0.02105409
000260 d8 45 51 bc 20 ce 09 bd 39 c2 50 3d a2 0e 6b 3d
       -0.012773 -0.03364384 0.050966475 0.057387
000270 26 57 a8 bb 0f fe 78 3d 69 c6 4a 3c d6 23 28 bd
       -0.005137342 0.060789164 0.012376406 -0.0410498
000280 61 28 ea 3c 81 ca f1 bc 2a 57 76 bd 5e c1 e1 3b
       0.028583707 -0.029515507 -0.06014172 0.0068895062
000290 aa 89 2c 3d bf f8 35 3c 96 6e 13 3d 8c 4c 65 3d
       0.042123474 0.011106669 0.035994135 0.055981204
0002a0 5c 9a 47 3d 88 8e 0b bc 92 ae bb 3c c0 9e 56 bd
       0.048731193 -0.008517869 0.02291039 -0.05239749
0002b0 a7 06 77 3d 1d 7f 1f 3d 27 0b 8b 3c 3e 97 1a bd
       0.06030908 0.038939584 0.016973091 -0.037741892
0002c0 b0 e1 18 3c 8a 15 6e bd 9c 40 8b bc f7 a6 77 3d
       0.009331152 -0.05812601 -0.016998582 0.060461964
0002d0 4e 56 0e 3d 2d a0 25 bd 62 a1 10 3d e3 74 68 3b
       0.034750275 -0.04043596 0.035310157 0.003547006
0002e0 10 e3 75 3d dc 00 21 bd 93 20 41 bd 5a 1d 97 bc
       0.060030997 -0.03930746 -0.047150206 -0.018446613
0002f0 6f a9 d3 bc be 82 1f bd 1c eb e2 bc e5 09 6e bc
       -0.025837628 -0.038943045 -0.0277 -0.014528726
000300 36 a7 49 3d de aa 6c 3c 9f a4 8f 3b d9 54 32 3a
       0.04923173 0.014445035 0.004383638 0.00068028044
000310 84 35 ff bc 30 0f d3 bb 2f f4 27 3d a1 ac b4 3b
       -0.031153448 -0.0064410195 0.041004356 0.005513743
000320 1f 9d 92 3c 34 21 41 bd 9c 7f 03 3d d6 b5 61 bd
       0.017897187 -0.047150806 0.03210412 -0.055105053
000330 d3 7e 42 3d 6b cc 2d 3d 96 37 3f 3d 4e 64 62 3c
       0.04748423 0.042431276 0.04668387 0.01381786
000340 a4 5c 74 3d ea c9 53 bd c1 ba 12 bc cc a6 8b 3c
       0.05965866 -0.051706232 -0.008955658 0.017047308
000350 26 1e db 3c 15 72 56 3d 65 24 6b bd 1f f2 39 3d
       0.026747774 0.05235489 -0.057407755 0.04539692
000360 8a 64 42 3d 6e 63 3b 3d 8d 2e 35 bd 32 57 54 bd
       0.047459163 0.04574912 -0.044233847 -0.05184097
000370 7b e4 9d bc b8 ab 33 3d 24 77 cb bc 5b bf 56 3d
       -0.019273987 0.043864936 -0.024837084 0.052428585
000380 e8 f2 44 3c 1f 75 54 bd d7 04 11 bd a8 b1 9e bb
       0.012020804 -0.051869508 -0.035405006 -0.0048429556
000390 fa 83 81 3d 95 ce 99 bb ca 48 1e bd c0 1d 39 3d
       0.06324001 -0.004693816 -0.038643636 0.045194387
0003a0 19 4a bb 3b d6 f8 d5 bb 28 bd 10 3d 58 d9 1b 3d
       0.0057156202 -0.0065299077 0.035336643 0.038049072
0003b0 bc 68 54 bc 2f 99 e4 3c a9 96 f8 bc 92 6a 34 3c
       -0.012964424 0.027905075 -0.030345278 0.0110117365
0003c0 54 4e 7a bd 29 fd 98 3b be 50 77 bd 94 66 3d bd
       -0.061109856 0.004668851 -0.060379736 -0.046240404
0003d0 0c 6b 7d bd 48 53 4f 3c c6 88 05 3b 1a 19 2b 3d
       -0.061869666 0.012654133 0.0020375713 0.041771986
0003e0 d2 e3 61 bd 1d ea 66 bb ed 95 74 3d be 47 51 bd
       -0.055148907 -0.0035234757 0.059713293 -0.05109381
0003f0 dc 86 2f bd 44 a9 e2 3c c7 73 44 3d 6a 77 0b bd
       -0.04285322 0.027668603 0.047961976 -0.03404943

net.4.weight f4 [4, 256]
000000 fc 47 56 3d 5b 7e 6d 3d 16 2b 03 3d b1 8d a8 bc
       0.052314743 0.05798183 0.03202351 -0.020575376
000010 e3 bf 23 3d b0 6d 5d 3d 56 f5 f3 bc 94 18 04 3d
       0.03997792 0.054059684 -0.029780071 0.032250002
000020 cc d9 80 bc a9 5b 21 bc 6f 81 42 3d 7a 4e 8d bc
       -0.015728854 -0.009848514 0.04748672 -0.017249335
000030 64 28 de bc cf b1 7a bd 78 b7 18 bc 65 3d 5b bd
       -0.02711887 -0.061204728 -0.009321086 -0.053525347
000040 33 70 3a bc a0 67 6f bd c4 b4 e0 bc 39 d0 d0 3c
       -0.011379289 -0.058448434 -0.027429946 0.025489913
000050 62 01 0e 3d 64 61 b0 3c 27 5c 41 3c ef 04 3d bc
       0.034669288 0.021530814 0.011801756 -0.011536821
000060 2a 53 12 3d 1a 3d dd 3c 5b 98 00 3d ac 56 12 3d
       0.035723843 0.027006675 0.031395297 0.035727188
000070 56 7e 3f 3b 11 c7 42 bc d6 00 42 bd 34 df 23 bd
       0.002921959 -0.011888281 -0.04736408 -0.040007785
000080 0a e9 71 bc 7c 72 ea bc c0 6c 33 bd 31 c1 75 bd
       -0.0147650335 -0.028619044 -0.043804884 -0.059998695
000090 3a 43 df 3c 45 4a 22 bd ea a4 5a bd 5f 7f 73 bd
       0.027253736 -0.03962161 -0.05337993 -0.059447642
0000a0 a0 22 33 bb 3c fb 81 3c c4 e8 16 3d 9a f1 3a 3d
       -0.002733387 0.015866868 0.036843076 0.045640565
0000b0 2b 2b 68 3d 20 5f 36 bc 1b 6f e1 3c 67 cb 20 bd
       0.056681793 -0.011131078 0.0275188 -0.03925648
0000c0 28 31 09 bc d4 d6 70 3d 7c 4e 68 3d e0 c9 40 bb
       -0.008373536 0.058798626 0.056715474 -0.0029417202
0000d0 49 87 e3 3c af 1e b6 bc b4 ed 1b 3d 04 60 3f bb
       0.02777447 -0.022231428 0.03806849 -0.0029201517
0000e0 8d 6c 6d bd 12 17 5e 3d 78 c1 4c 3d 03 d1 3b bd
       -0.05796485 0.05422122 0.049989194 -0.045853626
0000f0 b3 25 ec 3a a6 9f 41 3d 4d 78 58 bd 48 b4 40 3c
       0.0018016606 0.047271393 -0.052849103 0.011761732
000100 43 3f 3c bd f9 d9 2b 3d e8 bb 02 3d f9 cd 1d bd
       -0.04595877 0.04195592 0.031917483 -0.03852651
000110 c0 bd ce bb db 2d 2f 3c ac 3c 21 3d 0a 65 24 3d
       -0.006309241 0.010692085 0.0393645 0.04013542
000120 cb e5 9a 3c 14 37 15 3d c0 59 24 3b 11 eb b8 bb
       0.018908402 0.03642948 0.002507791 -0.0056432565
000130 27 32 02 3d 4d 9f 17 3d cc 60 27 bd 00 b7 47 bd
       0.03178611 0.037017155 -0.040863797 -0.048758507
000140 7c 22 4e 3d 80 12 c4 bc 85 5e 06 bd 9e 21 4b 3d
       0.050325856 -0.023934603 -0.032804985 0.049592607
000150 26 62 7f bd 3c e8 65 3d f3 fa fd 3c 1d 30 7b bd
       -0.06234946 0.05612968 0.031003451 -0.06132518
000160 5e a6 57 bd 8c 21 cf 3c 84 65 a5 b9 d0 d4 4e 3d
       -0.052648894 0.025284551 -0.00031546887 0.050495923
000170 b8 cc 2d bc 40 aa 2f bd c1 b2 bd 3c 26 38 7d bd
       -0.010607891 -0.042886972 0.023156526 -0.061821125
000180 8a f9 65 bd 2b d9 37 bc 36 8f 57 3d 44 7c 13 bd
       -0.056146182 -0.0112212105 0.05262681 -0.03600718
000190 53 d6 4a 3d 40 8e ad bb 4c 94 b8 3c 36 53 45 3d
       0.0495208 -0.0052964985 0.022531651 0.04817506
0001a0 ab 1b 66 3d 08 01 f9 3c 64 28 7e 3d 76 97 aa 3c
       0.05617873 0.030396 0.06205024 0.020824175
0001b0 fe 97 5f 3d ea a2 5c 3d 37 c3 6a bd 9a 5b db bc
       0.05458831 0.053866304 -0.057315078 -0.026777077
0001c0 22 51 0d bd 0b 4d d8 bc 5e d5 60 bd 2e d9 e2 bc
       -0.034501202 -0.026403924 -0.054890983 -0.02769145
0001d0 5b 1c ce ba d8 aa 06 bd 84 b7 12 bd 0d 78 43 bd
       -0.0015725003 -0.032877773 -0.035819545 -0.04772191
0001e0 c1 e7 72 bd 1c 1b 5b 3c 08 1c 2f 3c 17 91 1c 3d
       -0.05930305 0.013373163 0.0106878355 0.038224306
0001f0 42 8d 1c 3d c9 28 58 bc b7 09 c6 bc 55 a4 cb 3c
       0.03822065 -0.013193318 -0.024174554 0.024858633
000200 a5 20 ec 3c b8 df 39 bd 5c 88 44 bd b7 7f 69 bd
       0.02882416 -0.04537937 -0.047981605 -0.057006564
000210 00 78 a2 bc 60 d1 5f 3b 61 76 04 bc ac f3 a4 bc
       -0.019832611 0.0034151897 -0.008084864 -0.020135723
000220 27 31 70 bd 8c 72 51 bd 6f de 65 3d e0 1f 72 bc
       -0.058640625 -0.05113463 0.056120332 -0.014778107
000230 bf ef 2d 3d 9a 94 4e bd 2a bb 28 bd a3 2f 06 3c
       0.042464968 -0.050434686 -0.04119412 0.008190068
000240 28 39 7c 3c 3e de 44 3d 69 b0 d3 bc d6 fa 62 3d
       0.0153944865 0.04806351 -0.025840955 0.055414997
000250 53 f7 7a 3d 4c e5 35 3c fc 3b 2a 3d 8a 18 23 3d
       0.061271023 0.011102032 0.04156111 0.039818324
000260 a0 de ad bb 62 49 70 3d 99 88 ba 3a 8a d8 52 3d
       -0.00530608 0.058663733 0.0014231383 0.05147604
000270 9b f7 20 3d e0 45 0a 3d e0 14 90 3b c0 d4 c8 bc
       0.039298635 0.033758044 0.0043970197 -0.02451551
000280 cb 66 a7 bc 50 9a 4f bc fa a8 77 bd cc 0f bd 3c
       -0.020434758 -0.012671068 -0.060463883 0.023078822
000290 6d 5d 74 bd f7 85 c8 bc fa 3d 45 bd 9a 4f 0c 3d
       -0.05965941 -0.024477942 -0.04815481 0.0342556
0002a0 59 b2 1d 3d f0 d4 db bb c3 50 07 bd b0 0c 14 bd
       0.038500164 -0.0067087337 -0.033036005 -0.036144912
0002b0 91 b4 2e bd ab 10 48 bd 53 4a 12 bd 52 22 41 bd
       -0.04265267 -0.04884402 -0.035715412 -0.04715187
0002c0 18 b4 eb 3c 92 70 51 3d bc 57 0c bd cc 41 a9 3c
       0.028772399 0.051132746 -0.034263358 0.020661257
0002d0 19 3a 48 bd ff c9 e0 3c 99 a2 82 bc e4 70 ab bc
       -0.04888353 0.02744007 -0.015946673 -0.020927854
0002e0 92 c7 84 3c 22 9e d4 3c c0 03 b4 bb 74 96 5b 3d
       0.016208444 0.02595431 -0.005493611 0.05361028
0002f0 1e e0 77 bd 32 28 28 bb 24 a7 76 bd 15 97 3c 3d
       -0.06051647 -0.0025658724 -0.06021799 0.04604252
000300 c0 ee 6c 3d 7c 12 9d b9 28 d5 35 3d 6f b6 26 bd
       0.057844877 -0.00029959145 0.044392735 -0.040701326
000310 8a 0d 6a bd 1c 7a 55 3d f4 3c 39 3d 7b 6b 91 bc
       -0.057141818 0.052118406 0.045224145 -0.017751446
000320 6a e4 2f 3d 2a d8 30 bd e5 6f 4d bd fa 7c 5c 3d
       0.042942442 -0.0431749 -0.05015554 0.053830124
000330 a6 57 52 3d 92 78 35 3d c4 a1 e3 ba 4b e1 f4 bc
       0.05135312 0.044304438 -0.0017366935 -0.029892584
000340 dc 80 8c bc e0 5e a8 3c f9 83 12 bc cc 2f c9 3c
       -0.017151289 0.020553052 -0.008942598 0.024558924
000350 29 c9 4f bc 20 bd c1 3c f0 14 6f bc be 54 d4 3c
       -0.012682238 0.023649752 -0.014592394 0.025919314
000360 6e 49 28 3d bd 4a 52 bd 2d 0e 12 3d 78 48 5b bc
       0.041085653 -0.051340807 0.03565805 -0.013383977
000370 ac 0f 13 3d 71 2b 1a 3d 08 9f 4a bd a3 ce 94 bc
       0.035903618 0.037639085 -0.04946807 -0.018164938
000380 38 ed 80 bc df 8f 4a 3d 6c 8d cf 3c 5a 79 34 3d
       -0.015738115 0.049453612 0.02533599 0.044061042
000390 d1 06 3e bd c5 40 30 bd 41 8c 12 3d 8a 09 55 3d
       -0.04639322 -0.04303052 0.035778288 0.05201105
0003a0 10 7c 0d 3c d3 70 43 3d 01 47 92 39 bf d6 f3 3c
       0.008635536 0.04771502 0.00027900192 0.029765485
0003b0 10 c6 b4 bc dc 8b 48 3c 7c 89 87 3c e9 35 24 3d
       -0.0220671 0.012240376 0.01654505 0.040090475
0003c0 44 c9 09 bd 96 16 d8 bc b2 df 51 bd ae 1b 67 bd
       -0.033639207 -0.026377957 -0.051238723 -0.05642288
0003d0 f4 4a c4 3c 78 0e 5a bd ce 50 66 bd 63 25 66 bd
       0.023961522 -0.053236455 -0.056229405 -0.056188
0003e0 dc fa 46 bd 5e 4c 42 3d 70 aa a9 3c 48 cb 98 3c
       -0.048579082 0.04743611 0.020711154 0.01865162
0003f0 a4 be f2 3c 75 a2 0d 3d fe 42 37 3d df 7b da bc
       0.02963192 0.03457876 0.044741623 -0.026670394

net.4.bias f4 [4]
000000 53 8a 15 3d 4e a8 49 3d fe 4f 77 3d 6b 97 3c 3d
       0.03650887 0.049232773 0.06037902 0.04604284
