dqn_learning/wait/models/model_5.pth (torch, 293015 bytes, 6 tensors)

weight f4 [256, 21]
0	0xbd036834	-0.032081798
1	0x3bbcef20	0.0057658106
2	0x3d9bfcc2	0.07616569
3	0x3ddef50e	0.10886584
4	0x3e4a5335	0.19758303
5	0xbe3fe896	-0.18741068
6	0xbdb09e62	-0.08623959
7	0xbe2ec9d4	-0.17069179
8	0xbe0b741d	-0.13618512
9	0xbdc99f6f	-0.09844863
10	0xbe12c8a1	-0.14334346
11	0x3dc79cfe	0.09746741
12	0xbe4089c1	-0.18802549
13	0x3e5d1e60	0.21593618
14	0xbe0bd8a8	-0.13656867
15	0x3ca7ad68	0.020468429
16	0x3e036a12	0.12833431
17	0x3e02d790	0.12777543
18	0x3e4a5e57	0.1976255
19	0x3e1a10b3	0.15045433
20	0xbe57ca4a	-0.21073261
21	0x3d9d9a66	0.07695465
22	0xbe5d5ecc	-0.21618193
23	0xbc371b30	-0.011175916
24	0x3dc188da	0.094499305
25	0x3db90122	0.09033419
26	0xbe06c513	-0.13161115
27	0xbe058216	-0.13037905
28	0x3c925cc8	0.017866507
29	0x3d073b24	0.033015385
30	0x3de1ad86	0.11019425
31	0xbe385fc8	-0.18005288
32	0xbe4a7df2	-0.19774607
33	0x3d4ba3a4	0.049716607
34	0xbe156946	-0.1459094
35	0xbe12e288	-0.14344227
36	0xbe126aa2	-0.1429849
37	0x3db59726	0.0886672
38	0xbe04e79d	-0.12978978
39	0x3e28bcef	0.16478322
40	0xbe3308cd	-0.17483826
41	0xbd8e1e60	-0.06939387
42	0xbe2003eb	-0.15626495
43	0x3cdf4c12	0.027257953
44	0xbe011935	-0.12607272
45	0xbe23b813	-0.15988187
46	0xbe4e852e	-0.20167992
47	0x3dacc412	0.08435835
48	0xbe1ab668	-0.15108645
49	0x3e2b4ca4	0.16728455
50	0xbe47352a	-0.19453874
51	0xbd837da0	-0.064204454
52	0xbe054331	-0.13013913
53	0x3e238a03	0.15970616
54	0x3e155431	0.14582898
55	0xbe1063ff	-0.14100645
56	0xbe180602	-0.14846042
57	0xbe0f02d1	-0.13965918
58	0x3dbd9293	0.092564724
59	0x3c65e953	0.01403268
60	0x3d854c1d	0.06508658
61	0x3e471d91	0.19444872
62	0xbdbca8eb	-0.09211906
63	0xbe173b71	-0.14768769
64	0xbe1b88d1	-0.1518891
65	0x3d1cf6bb	0.038321238
66	0xbe575940	-0.2103014
67	0xbda88d63	-0.082300924
68	0xbc976cd5	-0.018484512
69	0xbdc16ec0	-0.09444952
70	0x3ddf67d1	0.10908473
71	0xbca3bd83	-0.019987827
72	0xbcf96d99	-0.030447768
73	0x3e2a6289	0.1663915
74	0xbd6f6d9e	-0.05845415
75	0x3e0a4ff3	0.1350706
76	0xbdac8309	-0.084234305
77	0x3ded9c9c	0.116021365
78	0xbdc08523	-0.09400394
79	0x3e052533	0.13002472
80	0xbe302ddc	-0.17204994
81	0xbe53fe08	-0.20702374
82	0xbe292410	-0.16517663
83	0xbcdad016	-0.026710551
84	0xbe0a3f17	-0.1350063
85	0xbdbc1e2e	-0.09185444
86	0xbc74eb00	-0.0149486065
87	0x3df12c46	0.117760226
88	0xbd60467c	-0.05475472
89	0xbd7a5f50	-0.061126053
90	0xbe4497f8	-0.19198596
91	0x3dd21b22	0.102590814
92	0x3da4b452	0.08042206
93	0x3b8efd60	0.0043637007
94	0x3df69d42	0.12041713
95	0xbdac511a	-0.084139064
96	0x3df64886	0.120255515
97	0xbdaab700	-0.08335686
98	0x3d12bdbc	0.035825476
99	0x3dce3fbe	0.100707516
100	0xbe46885a	-0.19387951
101	0xbe08b6f7	-0.13351046
102	0xbe490318	-0.19630086
103	0xbe239ee6	-0.15978584
104	0xbe4bd888	-0.19906819
105	0xbd96b931	-0.07359541
106	0xbe0da674	-0.13833028
107	0xbe4c4a28	-0.19950163
108	0x3d58cb00	0.05292797
109	0xbcab2f7c	-0.020896666
110	0x3d8a2ac1	0.06746436
111	0x3e21f8ed	0.15817614
112	0x3e591bab	0.2120196
113	0x3e5d6852	0.21621826
114	0xbd42c2eb	-0.04754917
115	0xbe4d0d31	-0.20024563
116	0x3e17820b	0.14795701
117	0x3e2c4e64	0.16826779
118	0xbde2b311	-0.110693105
119	0xbd8469a7	-0.06465464
120	0xbca32f6d	-0.019920075
121	0x3dc7ffde	0.097656
122	0x3dbbef7b	0.09176537
123	0xbde7fdfc	-0.113277406
124	0xbdd44345	-0.10364393
125	0x3da1d010	0.07901013
126	0xbddb22de	-0.1070001
127	0xbd028ecd	-0.031874467
128	0x3dcd340f	0.10019695
129	0x3e0b1e7a	0.13585845
130	0xbd55eb0f	-0.052226122
131	0xbc9df6dd	-0.019282753
132	0x3e263dac	0.16234463
133	0xbe53deeb	-0.20690505
134	0xbbd1298a	-0.0063831257
135	0xbdc11991	-0.094287045
136	0x3e0a187d	0.13485904
137	0x3e46e0e6	0.1942173
138	0x3e215ddb	0.1575846
139	0x3c92929e	0.017892178
140	0x3cd60d69	0.026129441
141	0xbd9e014b	-0.0771509
142	0xbc8c3558	-0.01711528
143	0xbda7dbec	-0.08196244
144	0x3e621fc6	0.22082433
145	0x3c8485f3	0.016177153
146	0xbe09bc55	-0.13450749
147	0x3c9156e3	0.017741626
148	0x3e33d069	0.17559971
149	0xbd6c40c6	-0.05767896
150	0x3e2cd0d2	0.16876534
151	0xbdbb4f2a	-0.09145959
152	0x3e2d3424	0.16914421
153	0xbd3e1e3e	-0.04641556
154	0x3e5a4f44	0.213193
155	0x3e11b371	0.14228608
156	0x3d94c4d0	0.072641015
157	0x3cac0716	0.020999473
158	0x3c28fe0b	0.010314475
159	0xbddb0b16	-0.10695474
160	0x3dea5c7c	0.11443421
161	0xbca96090	-0.020675927
162	0x3e0d50e1	0.13800384
163	0xbd796947	-0.060891416
164	0xbd16191c	-0.03664504
165	0x3e267375	0.16254981
166	0x3e06ed13	0.13176374
167	0x3e3ed30e	0.18635198
168	0xbe2b4945	-0.16727169
169	0x3d4fe1f6	0.050752603
170	0xbdb2e9f9	-0.08736033
171	0x3e0fa8db	0.14029257
172	0xbd0f01de	-0.03491389
173	0x3e434c52	0.19072083
174	0x3e05fd71	0.13084961
175	0xbd65a5e6	-0.056066416
176	0x3e3d23a0	0.18470621
177	0xbe52faee	-0.20603535
178	0x3e17f195	0.1483825
179	0xbd053aa2	-0.03252662
180	0xbddadf69	-0.10687143
181	0xbd9579eb	-0.07298645
182	0x3da5b3d7	0.08090942
183	0x3e57bcea	0.21068159
184	0xbd88f839	-0.0668797
185	0xbe41831e	-0.18897673
186	0x3e0402e2	0.12891725
187	0x3e1d7fe5	0.15380819
188	0x3e638076	0.22216973
189	0x3dc93768	0.09825021
190	0xbda8a530	-0.08234632
191	0x3dea01b5	0.11426107
192	0x3cc0c9d8	0.023533747
193	0xbe4cc10b	-0.19995515
194	0xbdec5250	-0.11539137
195	0x3db9392b	0.09044107
196	0x3e11d350	0.14240766
197	0xbc5b1c19	-0.013373398
198	0x3d5a7afe	0.05333995
199	0x3cf59ea6	0.029982876
200	0xbe2b3adb	-0.1672167
201	0xbe56adc7	-0.20964728
202	0x3e55a2e7	0.20862924
203	0x3de61879	0.112351365
204	0xbe2c2b84	-0.16813475
205	0x3d54f4d6	0.051991306
206	0x3d50aac6	0.050944112
207	0xbe544da0	-0.20732737
208	0x3e0d3543	0.13789849
209	0x3e3b430a	0.18287292
210	0x3cd1931e	0.025582846
211	0xbd9a4882	-0.07533361
212	0x3e1def8c	0.15423411
213	0xbe055122	-0.13019231
214	0xbe5dd2a9	-0.21662392
215	0xbca5e6ba	-0.02025162
216	0xbdef4e60	-0.11684871
217	0xbe497ffb	-0.19677727
218	0xb9088cda	-0.00013022442
219	0x3cb0cb1e	0.021581229
220	0x3a735ef4	0.00092838635
221	0x3d7a5af8	0.06112191
222	0x3d18fb3b	0.037348967
223	0x3dfdd6e4	0.12394503
224	0xbe3b7483	-0.18306164
225	0xbdfae2cb	-0.122502886
226	0xbd7b8363	-0.061404597
227	0xbd433ca1	-0.047665242
228	0x3e5b2c84	0.214037
229	0xbbe676e5	-0.0070332163
230	0xbe32b32e	-0.17451164
231	0xbdbe42e0	-0.09290099
232	0x3e150127	0.14551221
233	0x3da0c9fe	0.07851027
234	0xbd746770	-0.05966896
235	0xbc70c580	-0.014695525
236	0xbe45e1ed	-0.19324465
237	0x3d3884b4	0.04504843
238	0xbdef77fb	-0.11692806
239	0xbe0565b2	-0.13027075
240	0xbc4aeb00	-0.01238513
241	0xbe2b62f4	-0.16736966
242	0xbe4f86d1	-0.20266272
243	0x3c035230	0.0080152005
244	0x3dd6b85e	0.10484384
245	0xbde99c90	-0.11406815
246	0x3df2b61a	0.11851139
247	0xbd4e2f38	-0.050338
248	0xbdaf23a0	-0.08551717
249	0xbd016dd8	-0.031598896
250	0x3e335ec3	0.17516617
251	0x3debd502	0.115152374
252	0x3d95df2a	0.07317956
253	0xbe416d93	-0.18889455
254	0x3db3aa5c	0.08772728
255	0x3dfd634a	0.123724535

bias f4 [256]
0	0xbe1c2768	-0.15249407
1	0xbe106792	-0.14102009
2	0x3e3733e9	0.17890896
3	0x3e28710a	0.16449371
4	0xbe28ea68	-0.16495669
5	0xbe3aa786	-0.18227968
6	0xbc5251f6	-0.012836924
7	0xbdad123c	-0.084507436
8	0xbdbd1b6d	-0.09233747
9	0x3d61f89b	0.05516873
10	0xbc0c8cd5	-0.008578499
11	0xbe242422	-0.16029409
12	0xbdb269dd	-0.08711598
13	0xbc8ca521	-0.017168583
14	0x3da16d62	0.07882191
15	0x3e5f25f8	0.21791828
16	0xbdce09f0	-0.10060489
17	0xbe0781b3	-0.1323307
18	0x3d86e368	0.06586343
19	0x3de8bc3b	0.11364027
20	0x3e6c7c1d	0.2309422
21	0xbdb23665	-0.08701781
22	0xbe28c146	-0.16479978
23	0xbe1534b3	-0.14570884
24	0xbb9dfc56	-0.0048213406
25	0xbe314082	-0.17309764
26	0xbd25b433	-0.040455054
27	0x3bcb0512	0.006195673
28	0x3be4c32a	0.006981273
29	0xbc6402f1	-0.013916717
30	0xbdbbcf9a	-0.09170456
31	0xbca63cc7	-0.020292653
32	0x3e1727be	0.14761254
33	0x3d06e363	0.032931697
34	0xbc8db795	-0.017299453
35	0xbda2ab67	-0.07942849
36	0x3e0f4fc5	0.13995273
37	0x3e13b1b2	0.14423254
38	0xbe4f79c9	-0.20261301
39	0x3c82f385	0.01598526
40	0x3da6e8c6	0.08149867
41	0xbe0720fa	-0.13196173
42	0x3e62b9b6	0.22141156
43	0xbe49f561	-0.19722511
44	0x3e17d4d6	0.14827284
45	0xbdca777c	-0.09886071
46	0x3d4a71f6	0.049425088
47	0xbdffd70c	-0.12492189
48	0x3e12b9e1	0.1432872
49	0x3da82ad4	0.08211294
50	0xbdffc9eb	-0.12489685
51	0xbe3c112d	-0.18365927
52	0x3e50bef9	0.2038535
53	0xbd60d101	-0.05488682
54	0x3dc38884	0.09547523
55	0xbe2c550f	-0.16829322
56	0x3d9b47db	0.07582065
57	0x3e2a094a	0.16605106
58	0x3df1ab17	0.11800211
59	0xbdce4935	-0.10072557
60	0xbd2c8854	-0.0421222
61	0xbe0ef738	-0.13961494
62	0xbe426a26	-0.18985805
63	0x3e588044	0.2114268
64	0x3c7dc44c	0.015488695
65	0x3d92b928	0.07164222
66	0x3e081d74	0.13292485
67	0xbe62a8d3	-0.22134714
68	0x3d773143	0.060349714
69	0x3bc22e14	0.005925903
70	0x3e035cdb	0.1282839
71	0x3d485859	0.04891238
72	0x3d8b15c5	0.067912616
73	0x3c47b0dd	0.012188164
74	0xbcd8ed12	-0.026480231
75	0xbdacb0b0	-0.08432138
76	0xbde912c0	-0.113805294
77	0x3e1c47a7	0.15261708
78	0xbd86d86d	-0.06584249
79	0xbc9e59c3	-0.019329911
80	0xbe481b3d	-0.1954164
81	0xbe5900f5	-0.21191771
82	0xbda3ea37	-0.08003657
83	0xbb0ac494	-0.0021174299
84	0xbcac17f2	-0.021007512
85	0x3da588dd	0.08082745
86	0xbdd36b6c	-0.103232235
87	0xbd24dc35	-0.04024907
88	0x3e2bc674	0.16774923
89	0x3d490c7d	0.049084175
90	0xbcca0760	-0.02466172
91	0xbe2253f0	-0.15852332
92	0xbd56f961	-0.05248392
93	0x3da2c895	0.07948414
94	0x3da49123	0.08035495
95	0xbe033cec	-0.12816209
96	0x3ddc5812	0.107589856
97	0x3e2a8b29	0.16654648
98	0x3dc2e8ef	0.09517085
99	0xbe1d5168	-0.15363085
100	0x3deaad0f	0.114587896
101	0xbdb7ebbc	-0.0898051
102	0xbdbea55d	-0.09308884
103	0x3d9ae420	0.07563043
104	0xbce4dc49	-0.027937071
105	0xbe3521c3	-0.1768866
106	0xbc20ee00	-0.009822369
107	0x3cb1df11	0.021712812
108	0x3e4cd3cd	0.2000267
109	0xbe0c3464	-0.1369186
110	0x3e2924fb	0.16518013
111	0xbdcd3b26	-0.10021047
112	0x3d5e2c08	0.05424121
113	0xbe4275d7	-0.18990265
114	0xbdd2c08f	-0.10290634
115	0xbd85e2d5	-0.065374054
116	0x3e48b4fa	0.19600287
117	0x3e3b74a8	0.1830622
118	0xbe24e399	-0.16102447
119	0x3dd30f09	0.10305602
120	0x3e500485	0.20314224
121	0x3dcfec94	0.101525456
122	0xbc481793	-0.012212652
123	0x3c812f1f	0.01576954
124	0xbd083486	-0.033253215
125	0xbcddc3fa	-0.027070988
126	0x3cb0b041	0.02156842
127	0x3dc793d2	0.09744991
128	0xbe48a279	-0.19593228
129	0xbe002b66	-0.12516555
130	0x3d7bf6b4	0.06151457
131	0xbdf98662	-0.121838346
132	0x3e3a86bd	0.18215461
133	0x3e1d9548	0.15388978
134	0xbde56b03	-0.112020515
135	0x3c0b8dcb	0.008517693
136	0xbcd1e726	-0.025622915
137	0x3e496932	0.19669035
138	0xbe10f367	-0.1415535
139	0xbca264e8	-0.019823506
140	0xbe07a54d	-0.13246651
141	0xbdb7594c	-0.08952579
142	0xbe511ce1	-0.20421173
143	0x3c5428eb	0.012949209
144	0xbc5898c2	-0.013220014
145	0xbe078ce9	-0.13237347
146	0xbc97ab2e	-0.018514242
147	0x3e577562	0.21040872
148	0xbdafacb6	-0.08577864
149	0x3e545fce	0.20739672
150	0xbd3156f0	-0.0432958
151	0xbde4e273	-0.11176004
152	0xbe18c1e4	-0.14917713
153	0xbe24f1e6	-0.16107902
154	0xbe2b382f	-0.16720651
155	0x3dee7411	0.11643232
156	0xbe511646	-0.20418653
157	0x3cba946c	0.022775851
158	0x3d85373c	0.06504676
159	0xbc8a9b7b	-0.016919842
160	0xbd4811b2	-0.048845
161	0xbc43057b	-0.011903162
162	0x3e4434e8	0.19160807
163	0xbdf68892	-0.120377675
164	0xbe243cd4	-0.16038829
165	0x3dfc3dbd	0.12316463
166	0xbe382d10	-0.1798594
167	0xbe0e274c	-0.13882178
168	0xbdeabd72	-0.11461915
169	0x3d6609fc	0.056161866
170	0x3e53bc0e	0.20677206
171	0xbda53c16	-0.08068101
172	0x3e19acea	0.15007368
173	0x3e09cb67	0.13456498
174	0x3e2d4831	0.1692207
175	0xbde9a0dc	-0.114076346
176	0x3dc21a85	0.094777144
177	0xbd8a17cb	-0.067428194
178	0x3e0111f5	0.12604506
179	0xbd2471c4	-0.040147558
180	0x3c07b755	0.008283456
181	0xbdae7072	-0.08517541
182	0xbe57d62e	-0.21077797
183	0xbdcf7998	-0.10130614
184	0xbdfa741c	-0.12229177
185	0xbd37ed3b	-0.044903975
186	0x3be141be	0.006874292
187	0xbca360d1	-0.019943627
188	0xbd410a98	-0.047129244
189	0xbe0125f1	-0.1261213
190	0xbd223d01	-0.03960896
191	0xbe02216b	-0.1270806
192	0x3e5ddedb	0.21667044
193	0xbdc01e4c	-0.09380779
194	0xbe504645	-0.20339306
195	0xbe145440	-0.14485264
196	0x3d06c2c9	0.032900605
197	0x3dca5d52	0.09881081
198	0xbe1cc015	-0.15307648
199	0xbd230d01	-0.039807323
200	0xbd8c9f26	-0.06866293
201	0xbe02f920	-0.12790346
202	0x3d2b3828	0.0418016
203	0xbca9e494	-0.020738877
204	0xbb76a99b	-0.0037637714
205	0xbe13abaf	-0.14420961
206	0xbe486b82	-0.19572261
207	0x3e06eb29	0.13175644
208	0xbdc9d463	-0.09854963
209	0xbd3cff4c	-0.046141908
210	0x3e207495	0.15669473
211	0x3e484259	0.1955656
212	0xbe0ef055	-0.13958867
213	0x3dc7e701	0.097608574
214	0xbdb87ba3	-0.09007957
215	0x3deba5c0	0.11506224
216	0xbe54ac4e	-0.20768854
217	0x3e2b9230	0.16754985
218	0xbd90ff80	-0.07079983
219	0xbde4ebf1	-0.11177815
220	0x3d98b534	0.07456437
221	0xbe5c88f9	-0.21536626
222	0x3dd28540	0.10279322
223	0x3e31dccb	0.17369382
224	0x3dc0f5ae	0.0942186
225	0xbe23fa7a	-0.16013518
226	0x3d0f78c3	0.035027277
227	0x3c81823e	0.015809175
228	0xbdd47b55	-0.10375086
229	0xbe13ed27	-0.14445935
230	0xbe4d1e22	-0.20031026
231	0xbe1e5567	-0.15462266
232	0xbdb19ec3	-0.086728595
233	0xbe4d4467	-0.20045625
234	0x3e58c893	0.21170263
235	0x3dd4f83a	0.10398908
236	0xbe3a7bc5	-0.18211277
237	0xbe3b0e2c	-0.18267125
238	0xbe515a0a	-0.20444503
239	0xbd53f012	-0.05174262
240	0x3e631706	0.22176751
241	0x3c5358fe	0.012899635
242	0xbc09b290	-0.008404389
243	0xbe201f72	-0.15636995
244	0xbe4180e7	-0.18896829
245	0xbe041e99	-0.12902297
246	0xbd12ad62	-0.035809882
247	0xbe31bef6	-0.17358002
248	0x3e62e3d3	0.2215722
249	0x3e579b73	0.21055393
250	0x3d485568	0.048909575
251	0x3d988ff1	0.0744933
252	0x3d266e1c	0.040632352
253	0xbe1cdb9b	-0.15318148
254	0xbd4fd7b7	-0.05074283
255	0xbe1ed439	-0.15510644

weight f4 [256, 256]
0	0xbd630c3b	-0.055431586
1	0xbbf7acb0	-0.0075584278
2	0x3d08a97f	0.03336477
3	0xbd7f739c	-0.062366113
4	0xbd00cee4	-0.031447306
5	0xbd38c5eb	-0.045110624
6	0xbd2990c3	-0.04139782
7	0x3ccd6aa2	0.02507526
8	0xbd1c498a	-0.03815607
9	0x3cb3140e	0.021860149
10	0xbc48e9c0	-0.012262762
11	0x3ccd87c8	0.02508916
12	0x3d117911	0.03551585
13	0x3c6201eb	0.013794403
14	0x3b03b94c	0.002009946
15	0x3cd7e282	0.026353125
16	0xbd597383	-0.053088676
17	0xbca9eca4	-0.020742722
18	0x3cc66e24	0.024222441
19	0xbcf560f1	-0.029953452
20	0xbc7cd446	-0.015431469
21	0x3d4c2b7e	0.049846165
22	0xbc417ef8	-0.011810057
23	0x3cbf5665	0.023356626
24	0x3d6c4149	0.05767945
25	0x3d76f166	0.06028881
26	0xbd0ddc06	-0.03463366
27	0xbc9245f2	-0.017855618
28	0xbc2622aa	-0.0101401005
29	0x3ba98080	0.005172789
30	0x3d3c913b	0.04603694
31	0xbd567bd7	-0.052364197
32	0xbcd1ad97	-0.02559547
33	0xbd252105	-0.040314693
34	0xbcf6184e	-0.030040886
35	0xbcf6e9a8	-0.030140713
36	0x3c6ce198	0.014458083
37	0xbd52aeaf	-0.051436123
38	0x3d0bcbf7	0.034130063
39	0xbcca938c	-0.024728559
40	0x3c49d218	0.012318157
41	0x3d23adfc	0.039960846
42	0x3c9ada36	0.01890288
43	0xbd3d07e0	-0.04615009
44	0xbd4ec30e	-0.050478987
45	0xbd812fde	-0.06307958
46	0xbcf001a0	-0.02929765
47	0xbbd58ed0	-0.0065172687
48	0x3d29e6e1	0.04147995
49	0x3d1a977a	0.037742116
50	0xbc2eb5d2	-0.0106634665
51	0xbc16fe25	-0.009215866
52	0x3ae076aa	0.0017125208
53	0xbca579f5	-0.020199755
54	0xbd5794ca	-0.05263213
55	0xbd6a4868	-0.05719796
56	0x3c4d4ddc	0.01253077
57	0x3ca73ae4	0.020413823
58	0xbd5746f4	-0.0525579
59	0x3d62607a	0.05526779
60	0xbcf71935	-0.030163387
61	0x3c9b18ec	0.018932782
62	0xbd468dc6	-0.04847505
63	0xbd4a6ec9	-0.04942206
64	0x3d4354db	0.047688346
65	0x3d26ec29	0.040752564
66	0x3c9a18a5	0.01881058
67	0x3d8569e8	0.06514341
68	0x3c525a18	0.012838863
69	0x3cfc1f2d	0.030776585
70	0xbcdc956a	-0.026926715
71	0x37bd44ef	2.2562655e-05
72	0xbcf50413	-0.02990917
73	0x3cdb8889	0.026798503
74	0xbd0d4d75	-0.034497697
75	0xbd47f13a	-0.048814036
76	0x3cf36b82	0.02971435
77	0x3c83e58d	0.01610067
78	0xbcb9ca1d	-0.022679383
79	0xbd314f89	-0.04328874
80	0x3ba70075	0.00509649
81	0x3d1daf32	0.038497157
82	0xbd113da4	-0.035459176
83	0x3cc724bf	0.024309514
84	0xbd67ea00	-0.056619644
85	0xbba04ab0	-0.004891716
86	0xbc7668aa	-0.015039602
87	0x3d0d0f7e	0.034438603
88	0xbca79697	-0.020457549
89	0x3b0f64c9	0.002188014
90	0xbcc3a448	-0.023882046
91	0xbcdf0eca	-0.027228732
92	0xbd29c479	-0.041447137
93	0x3d80a998	0.062823474
94	0xbd2bd3b4	-0.041949943
95	0xbca68d5c	-0.020331077
96	0xbd5c39b1	-0.053765956
97	0xbb076be9	-0.0020663685
98	0x3c40a68a	0.011758456
99	0x3d230ac1	0.039805178
100	0xbd68fc76	-0.05688139
101	0xbb58a8ec	-0.003305967
102	0x3ca0e1b9	0.019638883
103	0xbd34cb8b	-0.044139426
104	0x3a07da02	0.0005182327
105	0xbc8ac450	-0.016939312
106	0xbcc2015c	-0.023682289
107	0xbd47ad29	-0.048749123
108	0x3c810ee5	0.015754173
109	0x3d7b30f2	0.061325975
110	0x3d751273	0.059832048
111	0x3c574e59	0.013141238
112	0xbc822b42	-0.015889768
113	0xbd5526fa	-0.052039124
114	0x3cd3c7e5	0.025852153
115	0xbd61ea0d	-0.05515485
116	0x3bee3b46	0.0072702495
117	0xbceb0cad	-0.028692568
118	0x3c3eae37	0.011638216
119	0x3c8a0edc	0.016852789
120	0x3d0fca73	0.03510518
121	0xbb1d6cf8	-0.002402125
122	0xbd1a2505	-0.03763296
123	0x3d5b155e	0.053487174
124	0x3c84171e	0.016124304
125	0x3d6dcb6e	0.058055334
126	0x3d06d8f3	0.032921743
127	0x3d39f00f	0.045394953
128	0xbce48c81	-0.027899029
129	0x3d352e5c	0.044233665
130	0xbd543f27	-0.05181804
131	0xbd6ba778	-0.057532758
132	0x3d1db2be	0.03850054
133	0xbb9895a4	-0.0046565104
134	0xbcb3c687	-0.021945251
135	0x3d0f0317	0.034915056
136	0xbb39266b	-0.0028251659
137	0xbc935263	-0.017983621
138	0xbca3fd8a	-0.020018358
139	0x3d2ec74d	0.042670537
140	0xbcb53dbd	-0.022124166
141	0xbd44fe31	-0.04809398
142	0x3bc1bed0	0.005912639
143	0x3c38e197	0.011284254
144	0xbd50d480	-0.050983906
145	0xbc49f592	-0.012326615
146	0xbd6a2e27	-0.05717292
147	0x3c397170	0.0113185495
148	0x3c882f73	0.016624188
149	0xbcc3ebac	-0.023916088
150	0xbc1ec0b0	-0.009689495
151	0xbad71ac6	-0.0016411177
152	0x3d540b12	0.05176837
153	0x3cc04074	0.023468234
154	0x3d2bbfc7	0.04193094
155	0x3cb4717a	0.022026766
156	0x3cf873a1	0.030328574
157	0xbd3e3c7b	-0.046444397
158	0x3d541296	0.051775537
159	0xbd63ced4	-0.05561717
160	0xbc875df1	-0.016524287
161	0x3d1ac674	0.037786916
162	0x3c0d78d6	0.008634767
163	0x3d1a2183	0.037629616
164	0xbbb18c72	-0.0054183537
165	0xbd55788f	-0.052116927
166	0xbcf2612e	-0.029587355
167	0xbcc713f1	-0.024301501
168	0x3cc6d11d	0.024269635
169	0x3b292842	0.002581135
170	0x3cb132d3	0.02163068
171	0xbd4484d5	-0.04797824
172	0x3d4f0fe9	0.050552282
173	0xbd10a66d	-0.035314966
174	0x3d3ad2c4	0.045611158
175	0x3c8c5a63	0.017132943
176	0xbd0af521	-0.03392518
177	0x3d7a9ca0	0.061184525
178	0xbd1b0073	-0.037842225
179	0x3cd3ae70	0.025840014
180	0xbc2ee3e5	-0.0106744515
181	0xbd48b891	-0.04900414
182	0x3d11b7e6	0.03557577
183	0x3b41cea0	0.002957262
184	0xbc1e257a	-0.00965249
185	0x3d0740a5	0.033020634
186	0x3c89c2d5	0.016816536
187	0xbd0963b8	-0.033542365
188	0x3cb7372e	0.022365179
189	0xbc31cd8e	-0.010852231
190	0xbd365798	-0.04451713
191	0x3d7fadb2	0.062421508
192	0x3a689d17	0.0008873506
193	0x3d16a6da	0.036780216
194	0x3c6c7898	0.014433049
195	0xbcf22905	-0.029560575
196	0x3cff46ff	0.031161783
197	0xbd3f2b99	-0.046672437
198	0x3d0cc68e	0.034369044
199	0xbd28c711	-0.04120547
200	0xbb958950	-0.004563488
201	0xbcc00bb2	-0.023443077
202	0x3ca394d7	0.019968433
203	0x3d55fa32	0.052240558
204	0x3d677385	0.056506652
205	0x3d70a21a	0.058748342
206	0x3b661860	0.0035109743
207	0x3ca81e51	0.020522268
208	0xbc2753f0	-0.010212883
209	0xbd36fb84	-0.044673458
210	0x3d85f298	0.06540412
211	0xbc51fed7	-0.012817106
212	0x3cf72f70	0.030173987
213	0xbcf148d7	-0.029453678
214	0x3c32eff9	0.010921472
215	0xbce2f8fe	-0.02770662
216	0x3d5025e8	0.0508174
217	0xbc995c64	-0.018720813
218	0x3cf71803	0.030162817
219	0x3d3b1259	0.045671795
220	0xbc31260e	-0.010812296
221	0xbd205653	-0.039144825
222	0xbc1afaaf	-0.009459182
223	0xbc51a609	-0.0127959335
224	0xbcd94601	-0.026522638
225	0xbd1edff9	-0.038787816
226	0xbd70dfcb	-0.058807176
227	0x3d27aefe	0.04093837
228	0xbc76ac15	-0.015055676
229	0x3d2b106d	0.04176371
230	0x3d4112af	0.04713696
231	0x3c63fcd5	0.01391526
232	0x3d2fb1f1	0.042894308
233	0xbd066f88	-0.03282121
234	0x3bb21f70	0.0054358765
235	0xbca4bcd0	-0.020109564
236	0xbcf21157	-0.029549284
237	0xbced8005	-0.028991709
238	0xbd7166bb	-0.058935862
239	0xbc296601	-0.010339261
240	0xbcc830a1	-0.02443725
241	0x3ce84d85	0.028357277
242	0xbd673ff0	-0.05645746
243	0xbcc60633	-0.024172878
244	0x3d843351	0.064551
245	0x3d6d283b	0.057899695
246	0xbd62c1d9	-0.05536065
247	0x3d865e0b	0.06560906
248	0x3d1416a4	0.036154404
249	0x3bcb9c68	0.0062137134
250	0xbc5cc758	-0.013475262
251	0x3d023755	0.03179105
252	0xbd119932	-0.03554649
253	0x3d07aff3	0.033126783
254	0x3cc3b947	0.023892058
255	0x3c21916a	0.00986133

bias f4 [256]
0	0x3d49749e	0.04918348
1	0xbd7c4288	-0.061586887
2	0x3d82361e	0.06357978
3	0xbcdb99f7	-0.026806815
4	0xbd330b36	-0.043711863
5	0x3d3d83cb	0.046268266
6	0xbc9d77cc	-0.019222163
7	0x3d719c8e	0.058987193
8	0xbd1d56fa	-0.038413025
9	0x3cb92c27	0.022604061
10	0xbd31c100	-0.04339695
11	0xbd7541b5	-0.059877116
12	0xbd5c838f	-0.0538364
13	0xbbb284c6	-0.0054479567
14	0x3cd28e94	0.025702752
15	0xbc66be9d	-0.014083532
16	0x3d05fa48	0.03270939
17	0xbbd3193a	-0.006442216
18	0x3cd09d7f	0.025465725
19	0x3b6c4382	0.003605098
20	0xbd44ebdc	-0.048076496
21	0x3c111ab1	0.008856461
22	0x3ccf3357	0.025293035
23	0x3d165b5d	0.036708225
24	0xbcfc1263	-0.030770486
25	0x3d2cd681	0.042196754
26	0x3c695fa0	0.01424399
27	0x3d4c3faf	0.04986542
28	0x3b9f6501	0.0048643355
29	0xbce89b7a	-0.02839445
30	0x3d642426	0.055698536
31	0x3ce1be80	0.027556658
32	0x3ce4c5a7	0.02792628
33	0x3cea24ee	0.028582063
34	0xbcc5c8c1	-0.024143578
35	0xbcf83082	-0.030296568
36	0xbd2cb0dd	-0.042160857
37	0xbd209e0b	-0.03921322
38	0xbc626749	-0.01381857
39	0x3c520dd0	0.012820676
40	0x3ce2f172	0.02770302
41	0xbc1d3aec	-0.009596568
42	0xbd2b8dee	-0.0418834
43	0x3d78dd5e	0.060757987
44	0xbd7ce617	-0.06174287
45	0x3d710737	0.05884477
46	0xbb6df1e5	-0.003630751
47	0xbba7d640	-0.005121976
48	0x3d56924d	0.052385617
49	0xbc0e5913	-0.008688229
50	0xbcadf81a	-0.021236468
51	0x3c5a3400	0.013318062
52	0xbc544ec7	-0.012958235
53	0x3d690d76	0.056897603
54	0xbd547d56	-0.051877342
55	0xbbadc69f	-0.0053032185
56	0x3be6ffc1	0.007049531
57	0x3cd51816	0.026012462
58	0x3d310d9e	0.043225877
59	0x3be9b930	0.007132672
60	0x3d09cedd	0.033644546
61	0xbcf9cd74	-0.030493475
62	0x3ccc8354	0.024964966
63	0x3d234f26	0.039870404
64	0xbcf9b779	-0.030482994
65	0xbd255b4c	-0.04037027
66	0xbd127e07	-0.03576472
67	0x3d434738	0.04767534
68	0x3d138eb2	0.036024757
69	0x3cb3e47f	0.021959541
70	0xbcfc00c0	-0.030762076
71	0x3b748ad2	0.0037314189
72	0xbc96fa62	-0.018429939
73	0x3d081a49	0.033228192
74	0x3d88078f	0.06642067
75	0x3cd10ab4	0.025517799
76	0x3d62756f	0.055287775
77	0xbbc4c995	-0.0060054758
78	0xbbb0c8ba	-0.005395022
79	0xbd43ed85	-0.04783394
80	0x3d49e6e9	0.04929248
81	0xbca9500d	-0.020668054
82	0xbc482648	-0.012216158
83	0xbd5e972a	-0.05434338
84	0xbac83440	-0.0015274361
85	0xbd68e920	-0.05686295
86	0x3d52ebe0	0.05149448
87	0x3d350650	0.044195473
88	0x3d48767a	0.048941113
89	0x3c2b81c8	0.010467954
90	0x3d27b75a	0.040946342
91	0x3d342c60	0.04398763
92	0x3d03097d	0.03199147
93	0x3d29c764	0.04144992
94	0xbd727ed0	-0.05920297
95	0xbc1513ca	-0.009098956
96	0x3c95f793	0.01830653
97	0x3d8f0885	0.06984047
98	0x3c0122fc	0.007881876
99	0xbd0750a8	-0.033035904
100	0xbce5a3c0	-0.028032184
101	0xbd5926bb	-0.053015452
102	0x3c81a0d3	0.015823757
103	0x3b51df36	0.0032023913
104	0xbd431cf8	-0.04763505
105	0xbc62322d	-0.013805908
106	0xbd67d2c9	-0.056597505
107	0xbb2b364c	-0.0026124893
108	0xbb96d49c	-0.0046029817
109	0xbcdaac37	-0.026693447
110	0xbd40e03e	-0.047088854
111	0xbd28a23b	-0.04117034
112	0x3d32bf27	0.04363933
113	0xbced9244	-0.029000409
114	0x3cb2a843	0.021808749
115	0xbcee137b	-0.029062023
116	0xbd5e299c	-0.0542389
117	0x3d06d5ca	0.03291873
118	0xbc001431	-0.007817314
119	0xbd385bc6	-0.045009397
120	0xbca64304	-0.020295627
121	0xbd30ae34	-0.043134883
122	0xbc68ea0e	-0.014215959
123	0x3d2c610c	0.04208474
124	0xbba15825	-0.0049238377
125	0x3c33ce95	0.010974546
126	0x3c806acb	0.015675923
127	0x3c8ed114	0.01743368
128	0x3c2cb3b8	0.010540895
129	0xbd660bb2	-0.056163497
130	0xbb57db7e	-0.0032937224
131	0x3d5934f1	0.053029004
132	0x3c84cd80	0.016211271
133	0xbca9081b	-0.020633748
134	0xbc0c1e4f	-0.008552148
135	0x3d492f49	0.04911736
136	0xbd50decc	-0.050993726
137	0x3d6fbf88	0.058532268
138	0x3d3f5c68	0.046718985
139	0x3d2ef0b8	0.042710036
140	0x3d08b791	0.033378188
141	0xbcb21697	-0.021739287
142	0x3c271a27	0.010199106
143	0xbd43e558	-0.04782614
144	0xbd1bcc6c	-0.03803675
145	0x3d7a685a	0.061134674
146	0x3d523a14	0.05132492
147	0xbc7313e9	-0.01483629
148	0xbd7582fe	-0.059939377
149	0x3c324cce	0.0108825695
150	0xbd1bd3e1	-0.03804386
151	0xbc4dcf91	-0.012561695
152	0xbd53210f	-0.0515452
153	0xbd3e09c7	-0.046396043
154	0xbd3ad159	-0.045609806
155	0xbd338067	-0.043823626
156	0xbabfe7fa	-0.0014641278
157	0x3d55863e	0.052129976
158	0xbb940741	-0.0045174663
159	0xbd1bb54d	-0.0380147
160	0x3cfa5c7e	0.030561682
161	0xbd5dd3a5	-0.054156918
162	0xbbcd1912	-0.006259092
163	0xbc27ac9c	-0.010234024
164	0x3d1ab251	0.037767712
165	0xbd6482d4	-0.05578883
166	0x3d32b399	0.04362831
167	0xbd28a5c2	-0.041173704
168	0x3c408a70	0.011751756
169	0xbd6017f3	-0.05471034
170	0x3d0536b3	0.03252287
171	0xbc9ba1c1	-0.018998029
172	0x3c44d010	0.012012497
173	0x3bee3706	0.007269743
174	0xbd1c120b	-0.038103145
175	0x3d12ec06	0.03586962
176	0x3adef8a3	0.0017011355
177	0x3d0cb4fc	0.034352288
178	0xbd42e81c	-0.047584638
179	0xbd34bf06	-0.044127487
180	0xbd1fd9e7	-0.039026167
181	0x3d2f796b	0.042840403
182	0x3b9e93dd	0.004839404
183	0xbd08535b	-0.03328262
184	0x3d47d593	0.048787665
185	0xbb2cc4b5	-0.0026362364
186	0xbcbc5095	-0.022987643
187	0x3d01e343	0.031710874
188	0x3c8762f9	0.016526686
189	0x3c9e569b	0.019328406
190	0x393a148a	0.00017745994
191	0x3d506fb3	0.050887775
192	0xbc9fa6e8	-0.019488767
193	0xbcbb6406	-0.022874843
194	0x3d316119	0.04330549
195	0xbc888e55	-0.016669432
196	0x3be5dd59	0.007014912
197	0x3bc44b0c	0.0059903916
198	0xbd3be954	-0.045876816
199	0x3ba03c07	0.0048899683
200	0x3d30de2b	0.043180626
201	0xbcf3f3b6	-0.029779296
202	0x3d194140	0.037415743
203	0x3d3fbec6	0.046812795
204	0x3cab39a1	0.020901503
205	0x3ca50de1	0.02014822
206	0x3d640d6e	0.05567687
207	0x3d7963e1	0.060886268
208	0x3d6eb96b	0.058282297
209	0x3d78ae65	0.06071319
210	0x3d01b295	0.03166445
211	0x3b965304	0.004587533
212	0xbd0aa9da	-0.03385339
213	0x3cba0c85	0.022711048
214	0xbc1a8db6	-0.009433201
215	0x3d21b197	0.039476003
216	0x3d7a79f6	0.061151467
217	0x3d2dd7e4	0.042442217
218	0xbd030aa6	-0.031992577
219	0xbd39273e	-0.04520344
220	0x3a9bd192	0.0011888018
221	0xbc7945f8	-0.015214436
222	0x3bd3502f	0.0064487676
223	0x3d0e57f4	0.034751847
224	0x3d3c656d	0.045995165
225	0x3d595c28	0.053066403
226	0x3d41955b	0.047261577
227	0x3d017172	0.03160233
228	0xbcd8aeb3	-0.02645049
229	0x3d8f04b3	0.06983318
230	0xbcb1b55f	-0.02169293
231	0xbd24ece5	-0.040264983
232	0x3d4f3d56	0.050595604
233	0x3cd0794b	0.025448462
234	0x3d52f3a8	0.0515019
235	0x3d650ee6	0.05592241
236	0x3b989747	0.0046567055
237	0x3d4309f8	0.04761693
238	0x3d2e35e8	0.042531878
239	0x3bedb203	0.0072538867
240	0xbc5ac4cb	-0.013352583
241	0x3d732c4a	0.05936841
242	0x3bba94ed	0.005694023
243	0x3c20482e	0.009782834
244	0xbb6b1b80	-0.0035874546
245	0xbd182d56	-0.03715261
246	0x3c4d822b	0.0125432415
247	0xbd16971a	-0.036765195
248	0x3cd349fd	0.025792116
249	0xbc7b73a9	-0.0153474
250	0x3d5b31cb	0.053514283
251	0x3b9c7d30	0.0047756657
252	0xbc6995e6	-0.01425693
253	0x3ce70c4a	0.028204102
254	0x3d3a3073	0.04545636
255	0xbc10b538	-0.008832268

weight f4 [4, 256]
0	0x3b231d9a	0.002488947
1	0xbd3a3bc2	-0.045467146
2	0xbc01dc75	-0.007926096
3	0xbd3eff01	-0.04662991
4	0x3cee54d4	0.029093184
5	0x3cd378a8	0.02581437
6	0xbc71ecf0	-0.014765963
7	0xbd21f447	-0.0395396
8	0xbd684a22	-0.056711324
9	0x3c03aeb0	0.008037254
10	0x3d210757	0.03931364
11	0x3d0f70de	0.035019748
12	0xbced5058	-0.028968975
13	0xbd6a9c85	-0.057278175
14	0x3c2dded8	0.010612212
15	0xbd00bcee	-0.031430177
16	0xbcfec206	-0.031098377
17	0x3c4ffc86	0.012694484
18	0x3d26ec52	0.040752716
19	0x3d07fd94	0.033200815
20	0x3d3b9ebd	0.04580568
21	0xbd0cb8b4	-0.034355834
22	0x3c9c7fd8	0.01910393
23	0x3c065a81	0.008200289
24	0x3cc36ad4	0.02385465
25	0x3d5f1526	0.054463528
26	0xbd308d4e	-0.04310351
27	0xbd866c78	-0.065636575
28	0xbc38201a	-0.011238122
29	0xbd4069f3	-0.04697604
30	0x3d00aa89	0.031412635
31	0xbd222b58	-0.039592117
32	0x3d5b1d9e	0.053495042
33	0xbd227a93	-0.039667677
34	0xbd4e75f5	-0.05040546
35	0xbd585ffa	-0.052825905
36	0x3c656fe8	0.014003731
37	0xbcad9d71	-0.021193238
38	0x3c2f312e	0.010692878
39	0xbd29a8af	-0.041420635
40	0xbd7311da	-0.059343196
41	0x3d2b5151	0.041825596
42	0xbcdedcd8	-0.027204916
43	0xbd671df7	-0.05642506
44	0x3d616362	0.05502642
45	0xbd62ec57	-0.055401172
46	0xbd86a189	-0.06573779
47	0xbd0b987a	-0.03408096
48	0x3d0f4dbb	0.03498624
49	0xbd2b5b1c	-0.041834936
50	0x3d15bc7c	0.036556706
51	0x3d3d1a23	0.046167504
52	0xbceabfbf	-0.028655885
53	0xbca5aca0	-0.020223916
54	0x3d4122d3	0.04715235
55	0x3d5da385	0.054111023
56	0xbcd2d588	-0.025736585
57	0xbcffacac	-0.031210266
58	0x3ba75643	0.0051067187
59	0x3d08a42c	0.03335969
60	0x3d372da7	0.04472127
61	0xbc566133	-0.013084698
62	0xbc030408	-0.007996567
63	0x3d5254b8	0.051350325
64	0x3d00cd69	0.031445894
65	0x3d3e7524	0.046498433
66	0x3b191fc9	0.0023364893
67	0xbd82cea3	-0.06387069
68	0x3b52f7db	0.003219119
69	0xbcd34d4b	-0.025793692
70	0x3d20b7bc	0.039237723
71	0xbd838615	-0.064220585
72	0xbd5f0d08	-0.054455787
73	0x3c0aa44f	0.008462026
74	0x3c3a854e	0.011384321
75	0xbbbf574d	-0.0058392645
76	0xbd558662	-0.05213011
77	0x3b53d2ba	0.0032321648
78	0x3ab586ce	0.0013849379
79	0xbd57762f	-0.052602943
80	0xbd1651a0	-0.036698937
81	0xbc6f45b4	-0.014604021
82	0x3c9aa967	0.018879605
83	0x3d56f946	0.05248382
84	0x3c8f2314	0.017472781
85	0xbd0c4f1e	-0.03425514
86	0x3c24ae93	0.010051387
87	0xbd6d93b8	-0.058002204
88	0xbd588380	-0.052859783
89	0x3d473af2	0.0486402
90	0xbd051ba3	-0.03249706
91	0xbc37b77a	-0.011213178
92	0x3bd43bb6	0.0064768447
93	0xbb3b1129	-0.0028544164
94	0xbc4c1d58	-0.012458168
95	0x3d39d705	0.045371074
96	0xbd177220	-0.036974072
97	0xbc5666b4	-0.01308601
98	0x3cc2fbb8	0.02380167
99	0xbcdbc109	-0.026825445
100	0x3d05a0d2	0.032624073
101	0x3ce2c374	0.02768109
102	0x3d34e39e	0.044162385
103	0x3d4a2c8f	0.0493589
104	0xbcb264b0	-0.021776527
105	0xbd1ae9e5	-0.037820715
106	0xbc34bc70	-0.011031255
107	0x38d78671	0.000102770406
108	0x3c8a9b80	0.016919851
109	0xbd33f7a5	-0.043937344
110	0x3a2a2900	0.0006491095
111	0xbd8d3de6	-0.06896572
112	0xbca52e2a	-0.020163614
113	0x3c4e8ca0	0.01260677
114	0x3bf7ba94	0.0075600836
115	0x3c65d87f	0.0140286675
116	0x3ce3f180	0.027825117
117	0xbc964ae5	-0.01834626
118	0xbcec2ff2	-0.028831456
119	0x3d27e0cd	0.04098587
120	0xbd14af6d	-0.03630011
121	0xbc87736c	-0.01653453
122	0x3d299e59	0.041410778
123	0xbd4d3bd6	-0.050105892
124	0xbd86a993	-0.065753125
125	0xbcd043b3	-0.025422907
126	0x3c343bf9	0.011000627
127	0xbcbeccfd	-0.023291105
128	0x3ca7ec2f	0.020498363
129	0x3caf2a70	0.02138254
130	0x3cfc5144	0.03080047
131	0x3cc50d49	0.024054186
132	0x3d227ca1	0.039669637
133	0xbd66da96	-0.056360804
134	0xbd31ab83	-0.043376457
135	0xbd438ee3	-0.04774369
136	0x3cafd7ac	0.021465145
137	0xbceb5a65	-0.028729627
138	0xbc0add1a	-0.008475566
139	0xbd8b8b31	-0.06813658
140	0x3d30523c	0.043047175
141	0x3d14992c	0.03627889
142	0x3ceeefd9	0.029167103
143	0x3d63a927	0.055581238
144	0xbcaaebd0	-0.020864397
145	0x3d706cd4	0.058697537
146	0x3c328f30	0.010898396
147	0x3d5c84eb	0.053837698
148	0x3ac00137	0.00146488
149	0xbcdc565a	-0.026896644
150	0x3cfdda87	0.030987991
151	0xbc7d1b2d	-0.015448374
152	0xbbfccd3d	-0.007714896
153	0xbd4e1684	-0.05031444
154	0xbd39fa03	-0.045404445
155	0xbbe921c1	-0.0071146195
156	0xbd2e3aa4	-0.042536393
157	0xbc4930b8	-0.012279682
158	0xbd8b5b29	-0.06804497
159	0xbd121762	-0.03566683
160	0x3cab2330	0.020890802
161	0xbc1effc3	-0.009704533
162	0x3d0744a8	0.03302446
163	0x3d316f8f	0.04331928
164	0x3d23ac48	0.039959222
165	0x3ce1a8c0	0.027546287
166	0xbca2a0cd	-0.019852066
167	0xbd1d04f2	-0.038334794
168	0xbd2f66b2	-0.042822547
169	0x3d270d32	0.04078407
170	0xbd7bd894	-0.061485842
171	0xbd1ab0e0	-0.037766337
172	0x3d48e1c1	0.04904342
173	0xbcc63542	-0.024195317
174	0xbd1a42d1	-0.037661377
175	0xbd4fa5c4	-0.050695196
176	0x3cd8de87	0.026473297
177	0x3d432686	0.04764416
178	0x3d1aa1cb	0.037751954
179	0xbd493de8	-0.049131304
180	0x3c1dc2d8	0.009628974
181	0xbd567351	-0.052356068
182	0xbd0571ec	-0.032579347
183	0xbba49692	-0.005022832
184	0xbc57ede8	-0.01317928
185	0x3d06b24f	0.032884892
186	0x3d04f6cc	0.032461926
187	0xbc227ef0	-0.00991796
188	0x3b380236	0.002807749
189	0x3d077352	0.033068962
190	0x3c16357a	0.009168023
191	0xbc3f69b2	-0.011682915
192	0x3d1b9d32	0.03799171
193	0x3d4fb583	0.050710212
194	0x3d392a24	0.045206204
195	0xbc814316	-0.01577906
196	0xbd44873d	-0.047980536
197	0xbd5fbb36	-0.054621898
198	0x3d579b11	0.052638117
199	0x3ce484d7	0.027895374
200	0x3cbccf8a	0.023048181
201	0xbd27e417	-0.040989008
202	0x3d2f6237	0.042818274
203	0xbc2e2581	-0.010629059
204	0x3d0e5ff2	0.03475947
205	0xbd038cb4	-0.032116607
206	0xbcec0eac	-0.02881559
207	0xbd83e402	-0.064399734
208	0xbd88182b	-0.06645235
209	0xbd18cae8	-0.03730288
210	0xbc91690e	-0.01775029
211	0x3ccbdab0	0.024884552
212	0xbced2a90	-0.02895096
213	0x3cb2d509	0.021830099
214	0xbc271296	-0.010197302
215	0x3cf48dfd	0.029852862
216	0xbcf323d2	-0.029680166
217	0xbd6c1234	-0.057634547
218	0xbd51ead0	-0.051249325
219	0x3d43ae63	0.04777373
220	0xbcaa9394	-0.020822324
221	0xbc84b03e	-0.01619732
222	0x3c47f086	0.012203341
223	0x3cad39fb	0.021145811
224	0x3bb80f96	0.0056170924
225	0xbc39fd61	-0.011351914
226	0xbd464bc0	-0.048412085
227	0x3cb1bca8	0.021696404
228	0x3c93f578	0.018061385
229	0xbd659b87	-0.056056526
230	0x3d5be1ea	0.053682245
231	0xbd4fc3b3	-0.050723743
232	0xbd34a505	-0.044102687
233	0xbced81ad	-0.028992498
234	0xbcce9759	-0.025218653
235	0xbd5d5cb8	-0.0540435
236	0xbd892119	-0.06695766
237	0xbd1042b3	-0.03521986
238	0xbce12079	-0.027481304
239	0xbc736bb1	-0.014857219
240	0x3c8fe1bf	0.017563699
241	0xbd668710	-0.05628115
242	0xbab42e00	-0.0013746619
243	0x3ba8002e	0.0051269745
244	0x3d6e5a54	0.058191612
245	0x3cea1bb9	0.028577672
246	0x3d06cd5f	0.0329107
247	0xbd75d174	-0.060014203
248	0x3d247c0c	0.040157363
249	0xbb9a0fcb	-0.0047015897
250	0x3bee116a	0.0072652595
251	0xbd139b4c	-0.036036775
252	0x3c967b86	0.018369447
253	0x3ca589f5	0.020207385
254	0x3cabf0f7	0.020988924
255	0xbd554961	-0.052071933

bias f4 [4]
0	0x3d12249b	0.03567944
1	0x3cf1ac08	0.029500976
2	0x3d1defde	0.038558833
3	0x3c1f0916	0.009706756
