dqn_learning/wait/models/model_3.pth (torch, 293015 bytes, 6 tensors)

weight f4 [256, 21]
00000000: 170d 22be acac 873d 7249 303c 4011 e7bc
00000010: 837d cabc 1703 32bd bba9 a8bd 4946 243d
00000020: eed1 c2bd 92c9 81bd 2c37 ec3d b278 abbd
00000030: aa34 5f3e ea17 cebb 3324 07bd 8bc7 40be
00000040: 8c58 51bd ece4 543c b902 9cbd 2f0e 9d3d
00000050: b3dc 233e aea3 3cbe 01da 84bc c422 0ebd
00000060: 8a87 103e 6f16 fdbc fb68 523e b4bd 53bc
00000070: 9ebb aebd 157f de3d 6a76 50be 5d11 243e
00000080: d1f4 31be 3bfe 6c3d e624 11bd 4f14 f6bc
00000090: effb 4f3e 0cf1 113e ba7f 02bd b178 b4bd
000000a0: 5a3d 043e b58b b8bc ea4f 3ebe 964e 843d
000000b0: 4c16 123e 292f a33d 8b5f 2a3e a252 893d
000000c0: 6d99 803d eecc 47be 2005 5b3e 68e0 2b3d
000000d0: 1aa1 943d 3a52 37bc 274e f8bc d040 58bd
000000e0: 2304 193d b86b 663d 6d2a 673a 8399 253e
000000f0: 2c5b 30be ceaf 113e ecfe 1fbd d90d a13d
00000100: a4e0 293e 7da0 a0bd 9b9f 383e a000 8ebd
00000110: 2c2c 02bd 0479 373d b4c5 0d3e 43b0 4abe
00000120: 5c55 f0bc 68db 543d e418 c0bd 4130 edbd
00000130: 31b2 713d b8a0 ebbd 0861 2f3e 7272 a0bd
00000140: 9206 373d b5dd 223e 2ad1 143d f282 21be
00000150: da26 5dbe 79bf 14be ff98 0a3e cc47 5bbe
00000160: c632 3f3d 0e60 c13b 0fa9 0e3e f987 053e
00000170: 7f39 a53c 1e3a 30b8 b343 01be 6cc9 38be
00000180: c4e6 4fbe b307 d0bd ce07 8cbd d0e0 bb3d
00000190: fd37 54be 2fb8 23be 43e4 ca3c 85b0 ebbd
000001a0: 625d 80bd 0c3e d8bd eb28 183c 5ae8 d0bd
000001b0: 87a3 e43d a400 5e3e 24b7 603e e618 473e
000001c0: d4bb abbd 42df de3d 960b 4b3e 0b36 00be
000001d0: 184d c0bd ce19 373d 0187 443e e1ff b9bd
000001e0: a7e9 b73d 0e3b df3d 635a 56be 5d59 283e
000001f0: ec38 173e 7e93 adbd 90ea 79bd 59f9 50be
00000200: 0423 2bbe b0bf 3f3e ccaa 363e b74c 4fbe
00000210: 4635 13bd 76ce 1bbe f7ca 80bb 9c92 c5bd
00000220: b0ad 5abe 800c d3bc b2dd 8e3d 7731 14be
00000230: a46a 613e 532c 163e 96b3 a43d 41ee 11be
00000240: 55ee 2e3e 7f39 583e 8fe7 003e 9888 aa3d
00000250: ab77 6cbb 50b5 d7bb 6291 303e 9a18 56be
00000260: 682a 4dbe ed79 f63d d9c5 a8bd 29a5 81bd
00000270: 29ae 8cbd 1b8d 4fbe 95b5 ad3d b9eb 0b3e
00000280: 0afa 503e 8a45 9e3c a246 c6bd 53e3 07be
00000290: 9c9b 5abd 755c d9bd 4c60 45be 2841 ebbd
000002a0: 9454 7a3d e1c3 abba b875 59be 7612 113e
000002b0: c520 f8bd 0154 07be d5f8 2d3d aa74 84bc
000002c0: 87d9 35be bf7c 14bc 7483 47be d5d7 5c3e
000002d0: fd26 c2bd 0d22 273d f6fa 723d dba0 433d
000002e0: e81a 293c d663 33be dbc7 17be a5b9 1abe
000002f0: baae c2bd 1c9a c3bd ac25 243d d9af 19be
00000300: cbe8 0d3d bd4a 31be 63df 0bbe a89a 313d
00000310: acd3 543e fb0a 09bc 91e0 043d b87d f93d
00000320: 4f0c f9bd 68eb 563e af86 c5bd 88c2 48be
00000330: 0b94 3a3d 9765 11be ab12 263e ac4a 2b3e
00000340: 698c 5abc d8ba 023d a57b 1abe 0939 a8bd
00000350: b8de 54be 9c4a 1bbe 9ac7 3d3e c0cf 2c3e
00000360: f33b eebd 8f7f 4939 d65b d43d a693 e1bc
00000370: 42d4 33be f4dc 473e dd70 59bd df4b 123e
00000380: 4e01 32bd 3447 d03c 168a 3a3e f8fa c03d
00000390: 0689 173e f51b 1d3e 8b07 333e 501f 51bd
000003a0: 0c7d 0f3e f27f 0bbe 101c 77bc 2f5e d93d
000003b0: 9bc9 25bd 80ff d9bd 6d7a 20bd 94c4 d7bd
000003c0: 3478 afbd 36c7 94bd 4b46 303e f407 f1bd
000003d0: 6a33 3f3e ce4a e4bd 7d28 d6bd 9b92 143e
000003e0: 2ddd 56be c2aa 853d 6a7d 96bd 2235 20be
000003f0: 4f8d 42bc d281 813d d9e2 3b3e e9ee 37be
-0.15825306 0.066247314 0.010759698 -0.028206468 -0.024718052 -0.043459978 -0.082354985 0.04010609
-0.09512697 -0.063372746 0.11533961 -0.0837263 0.21797433 -0.006289472 -0.032993507 -0.1882612
-0.051109836 0.012994032 -0.07617707 0.07668721 0.16002159 -0.18421814 -0.016217234 -0.034701124
0.14114204 -0.030894486 0.2054786 -0.012923647 -0.08531879 0.10864083 -0.20357671 0.16022249
-0.17378546 0.05785964 -0.03543558 -0.03003898 0.20310949 0.14252108 -0.03186009 -0.088120826
0.12914029 -0.022527555 -0.18585172 0.064603016 0.14266318 0.079679795 0.16638009 0.06705214
0.06279264 -0.19511768 0.21388674 0.041962057 0.0725729 -0.011189038 -0.030310703 -0.052796185
0.03735746 0.056255072 0.00088182726 0.16171841 -0.1722228 0.1422722 -0.03906147 0.07863969
0.165896 -0.07843111 0.18029635 -0.06933713 -0.031780407 0.044793144 0.13844949 -0.19793801
-0.029337578 0.051967055 -0.093797475 -0.11581469 0.059007827 -0.11505264 0.17126858 -0.07834329
0.044684 0.15904887 0.036332287 -0.15772608 -0.21596852 -0.14526166 0.13534926 -0.21414107
0.04667928 0.005901343 0.13931678 0.1304015 0.020169018 -4.2015796e-05 -0.12623481 -0.18045586
-0.20302874 -0.101577185 -0.06837426 0.09173739 -0.20724483 -0.15988229 0.024767047 -0.11508278
-0.06267811 -0.105587095 0.009287099 -0.102005675 0.11164003 0.21679932 0.21944863 0.19443092
-0.08385435 0.10882427 0.19828638 -0.12520616 -0.093897045 0.044702344 0.19192125 -0.09082008
0.089801125 0.10899936 -0.20932917 0.1644034 0.14767808 -0.084753975 -0.06101471 -0.20407619
-0.16712576 0.18725467 0.17838591 -0.20244108 -0.035939477 -0.15215477 -0.0039304453 -0.09647104
-0.21355319 -0.025762796 0.06975879 -0.14471994 0.22013336 0.14665346 0.08042066 -0.14251043
0.17083104 0.21115683 0.12588333 0.083268344 -0.003608207 -0.0065828934 0.17242959 -0.20907822
-0.20035708 0.12034974 -0.082408614 -0.0633033 -0.06869156 -0.20268671 0.084819 0.1366414
0.20407882 0.019320268 -0.09681441 -0.13270311 -0.053371057 -0.10613338 -0.19275016 -0.11487037
0.061115816 -0.0013104641 -0.21236312 0.14167199 -0.12115625 -0.13215639 0.042473633 -0.016168911
-0.17758761 -0.009062945 -0.19483739 0.21566708 -0.09480093 0.040803958 0.059321366 0.047760826
0.010321356 -0.17518553 -0.14822333 -0.1510988 -0.09505983 -0.095508784 0.04007499 -0.15008487
0.034645837 -0.17313667 -0.13659434 0.043360382 0.20783871 -0.008364434 0.032440726 0.12182182
-0.12160551 0.20988238 -0.096448295 -0.19605458 0.04555134 -0.1419891 0.16218059 0.16727704
-0.01333914 0.03191647 -0.15086229 -0.082140036 -0.20788085 -0.1516518 0.18533173 0.16876125
-0.11632528 0.00019216373 0.10369079 -0.027536225 -0.17561439 0.1951788 -0.05308615 0.14286755
-0.043458275 0.025424577 0.18216738 0.094228685 0.14798364 0.15342696 0.17483346 -0.051055253
0.14012545 -0.13623026 -0.015082374 0.10613667 -0.04047547 -0.10644436 -0.039179254 -0.10535541
-0.08567849 -0.07264559 0.17214315 -0.11769095 0.18671957 -0.1114708 -0.10456941 0.1450905
-0.2098281 0.0652671 -0.073481396 -0.15645269 -0.011874511 0.063235894 0.18348254 -0.1796223

bias f4 [256]
00000000: 1892 bebd 3be8 5dbe 41f9 c2bd 96a0 4a3e
00000010: 55e3 cebc fbcc 373e ae27 af3b 025b eb3d
00000020: 2643 543e 2a9c a03d e188 7d3d 2c2a 45bd
00000030: b7cc 573e dd1e 49be a96e d4bd 0836 113e
00000040: fd2b cebc 347c 80bd 298b 293e 967a 20bc
00000050: 33e0 18bd d864 033e 1bc8 2d3e 3c07 3fbe
00000060: 4d0c 13be a791 0bbe 1f52 5e3d 620f 6e3d
00000070: 7683 c23d 8b38 2fbd 0bff 803d 5bc8 25bd
00000080: 0526 6f3d ae58 e7bd 2a90 a73d 6dc7 023e
00000090: 6195 293e 1c1c 143e 472d e8bd 6c60 023e
000000a0: e51b 953d 8c0d af3d d1e1 383e df6f 1dbe
000000b0: 5011 20bd 10a7 fa3d 600f 2abd c602 d63d
000000c0: 528f e63d 10df 31be 9cef fd3d bf71 f8bb
000000d0: fd55 353d 790a 38be 87eb 9f3d 43f7 06be
000000e0: 960a 17be e77f ae3d f923 d73d 0308 6bbd
000000f0: 3462 45b9 7119 903d 7292 f03d fe97 d9bd
00000100: cdb0 cbbd 9e88 4bbe f94d 25bd 80b6 153e
00000110: 7230 a93d a0c1 acbb 2e46 cebd c4fd 30be
00000120: a511 bdbd 38ba cd3c 588e 023e 6257 613e
00000130: 1b74 283d 6de0 b3bc 1e29 113d 6d04 4d3e
00000140: 2053 67bd 3b67 143d 5c48 f33d fd3d 16be
00000150: c7f1 e0ba c0b0 05be 85da c03d 7aa4 8f3d
00000160: 2365 00bd b01d 4fbe 22eb 9a3d b451 d0bd
00000170: 3270 053e 8b85 7b3d 42dd 50bd 7ae8 173e
00000180: 1d0f 30be 2c7d 25be f535 43be b1be e93d
00000190: 60f3 5c3e a051 493e 9745 1fbe 20e3 8cbd
000001a0: 47f7 993d d729 183e c8ac 92bd 5aad a7bd
000001b0: 909d 00bd aad6 133e c388 523e 42bb 353e
000001c0: 999e db3d 2a55 2e3e 8368 37be 41d4 5b3e
000001d0: 862f 3dbd 5b10 373e ea09 253e e4b6 563e
000001e0: e08b ac3d a849 eebd 9a0f b2bd ea09 1a3e
000001f0: a26b cc3d 42bd ae3d bf41 803c 5b98 5cbc
00000200: adc3 713d 47e5 433e d560 48be c7d9 36be
00000210: 32a4 223e 760d 283e 6954 48be 4e5f cabd
00000220: bbc9 83bc 14f4 a2bd 9307 1abe e6bc b5bd
00000230: 9d12 c2bc 835f 713d 1d5b 9b3a 4d3a f93d
00000240: e101 623c f925 423e f55b f7bd 77eb 0e3e
00000250: d817 903b 9635 12be f1b9 a2bd 1e2a 2ebe
00000260: 9a76 013e d14f a73d 457d 30be aad6 403e
00000270: 487a 103d 300b 23be f56d f3bd 659d 4cbe
00000280: 299d c8bd 0cbc 083d 4961 3a3d 24b6 243d
00000290: 1048 8dbd 4615 423e f7f2 d6bb 0dde 4a3e
000002a0: 0f18 76bd d906 4e3d 1cd1 0b3e b4f7 34bc
000002b0: f42a 28bd 83df b23c db0f 0d3e 0d81 e7bc
000002c0: 5cb1 e8bc ef5f 87bd 3be0 203d e5db 4bbe
000002d0: d88f 5e3e 53df 833d 586f e93d 01df 56be
000002e0: 8e56 203d 66ff 63bd c82f ccbd b439 25bd
000002f0: 2396 08be c0ab f7bd cc29 733d 12da 143e
00000300: 95be 29be 6ae2 3b3e b516 5dbe 05dd d43d
00000310: ea93 56bd 8266 fdbd b92d 15bd 91ca 5abc
00000320: ebeb aebd 3e8e 1ebe af06 2ebe 4a92 9b3b
00000330: 800c 10be 5679 fd3d bd61 1dbe 0d7d ed3d
00000340: 3676 84bd 9fde eabd 0394 02bc 7b5e 243d
00000350: d943 243d cfe3 aa3d 4fb8 0bbe 4ca3 1b3e
00000360: 1e79 f43d e2e3 2a3e 2d5e 0fbd 6df6 97bd
00000370: b395 3dbe 007c 2d3e 6451 5d3d 518b 2fbb
00000380: 73fe 683d fa08 25be b3bc b93d 1195 06be
00000390: fe52 45bd 425b 44be 8f7c 013e c12a ddbd
000003a0: 98e3 073e 3680 46be 76e5 c93d 47a2 2a3e
000003b0: 4d92 1f3d 45e1 ad3c d7d0 953d 967e 433e
000003c0: 8638 743d 8de4 9bbd d23b 973d 454e 3dbd
000003d0: d3f1 a0bc 58d4 eb3d 224c 2dbe da96 2dbe
000003e0: 9469 ed3d 3b09 06be 3232 1d3e 4959 5b3a
000003f0: 23dc f93d accf 56be 470c 023e 9d36 d8bd
-0.09305209 -0.2167062 -0.09520198 0.19787821 -0.025254885 0.17949288 0.0053453064 0.11491968
0.2072874 0.07842286 0.061898116 -0.04813592 0.21074186 -0.1964068 -0.10372669 0.14180768
-0.02516746 -0.0627369 0.16556992 -0.009794852 -0.037323188 0.12831438 0.16970865 -0.18655103
-0.14360161 -0.1362978 0.054277536 0.05812014 0.094977304 -0.042778533 0.062986456 -0.040474277
0.058385868 -0.11296211 0.08181794 0.12771387 0.1656089 0.14463848 -0.11336761 0.12732095
0.07280711 0.08547506 0.18054892 -0.15374707 -0.03907901 0.12238896 -0.04151857 0.10449748
0.11257805 -0.17370248 0.123992175 -0.007581919 0.044271458 -0.17972745 0.07808595 -0.1318026
-0.14750132 0.08520489 0.10504908 -0.057380687 -0.00018823968 0.070361026 0.11746682 -0.10624693
-0.099458314 -0.19876334 -0.040357564 0.146204 0.08261193 -0.0052721053 -0.100719795 -0.17284304
-0.09231881 0.02511321 0.12749612 0.2200599 0.04112635 -0.0219576 0.035439603 0.2002122
-0.05647576 0.03623126 0.11879036 -0.14672084 -0.0017161899 -0.13055706 0.09416679 0.07013793
-0.03134645 -0.20226169 0.07564379 -0.10171834 0.1303108 0.061406653 -0.050992258 0.14834777
-0.17193265 -0.1616103 -0.19063552 0.114133246 0.21577215 0.19660044 -0.1555389 -0.06879258
0.075178675 0.1485971 -0.07161862 -0.08187361 -0.031400263 0.14437357 0.20559983 0.17747214
0.107236095 0.17024675 -0.17910962 0.21467687 -0.0461879 0.17877333 0.16117063 0.20968205
0.084251165 -0.116351426 -0.08694382 0.15042844 0.09981467 0.08532192 0.01565635 -0.013464059
0.0590245 0.19130431 -0.19568188 -0.17856513 0.15882948 0.16411385 -0.1956345 -0.09881459
-0.016087404 -0.079567105 -0.15041952 -0.0887392 -0.023690516 0.058928978 0.0011852715 0.12169323
0.013794393 0.18959798 -0.12078086 0.1395701 0.0043973736 -0.14278254 -0.07945622 -0.17008254
0.12642899 0.08169521 -0.17235287 0.18831888 0.035272866 -0.15922236 -0.11886207 -0.19981916
-0.09795601 0.03338246 0.045502935 0.040212765 -0.068985105 0.18953428 -0.0065597254 0.19811268
-0.060081538 0.0502995 0.13653988 -0.011045385 -0.04105659 0.021835094 0.1377558 -0.028259778
-0.028404884 -0.06610095 0.039276343 -0.19908102 0.2173456 0.0643908 0.1139819 -0.20983507
0.039145045 -0.05566349 -0.09970051 -0.040338233 -0.13338523 -0.120933056 0.059366032 0.14536312
-0.16576608 0.18348089 -0.21590693 0.10393719 -0.052387156 -0.123730674 -0.036420558 -0.01335396
-0.085410915 -0.15483949 -0.16994737 0.0047476636 -0.14067268 0.123766586 -0.15369315 0.11596117
-0.064678594 -0.11468243 -0.007969859 0.040129166 0.040103767 0.08344232 -0.13644527 0.15199012
0.11937164 0.16688493 -0.035001922 -0.07420049 -0.18514137 0.16941833 0.0540327 -0.002678592
0.056883287 -0.16116706 0.09069195 -0.13142802 -0.04817485 -0.19175437 0.12645172 -0.1079917
0.13270414 -0.19384846 0.09858219 0.16663466 0.038957883 0.021225581 0.07315224 0.19091257
0.059624217 -0.07611952 0.07384457 -0.04621722 -0.01964656 0.11515111 -0.16923574 -0.16952077
0.11592403 -0.13089459 0.15351179 0.00083674915 0.12200191 -0.20977658 0.12699996 -0.10557292

weight f4 [256, 256]
00000000: 55a0 10bd 02f1 48bd b6f9 6b39 3d4c f53c
00000010: 39bf 553d 208f 85bd b24d 2ebd eee0 3c3d
00000020: e26d 49bd 02ae 5dbd 4033 6b3d bfc5 723d
00000030: f34e 8a3c f0ac 223d 3639 2e3d e921 0f3b
00000040: 5375 b1bc 0950 59bc 4590 013c 087a 37bd
00000050: 9e4e 5d3d c7b1 0f3d d808 dfba f44d 46bc
00000060: df4c 62bd fc1d 46bd 44b8 513d ab64 61bd
00000070: c0e3 85bd 9578 a3bc f3d2 50bd 8e5e 80bd
00000080: 5d2d b63c 2732 2b3c 70f5 3e3d 2d21 68bd
00000090: 1ff2 48bd e2ed ef3c a7ae 85bc 0165 513c
000000a0: 2dd3 08bd e987 473d 8912 6fbd ddee 273d
000000b0: 1677 51bd d088 22bd e090 67bb ea48 61bd
000000c0: 02f9 abbc 5187 ed3c f4a8 26bd 52f3 383d
000000d0: 4685 f13c fd9b 7c3d da05 263d 9d43 893c
000000e0: 3689 3b3c dd91 313d 95f8 323c e1aa 7bbd
000000f0: a549 2a3d 33a9 e8bc b244 31ba 17c1 bb3c
00000100: 92a1 f6bc 805b eabb 9e72 28bd 7e78 243c
00000110: 25e3 c9bc aef6 3a3d b660 993c 2020 6ebd
00000120: 32e2 213d 73e2 ccbc 4e84 273c a41b 323c
00000130: d0e3 b23b 825f 743c 7a4a 52bd c2aa 213c
00000140: 0616 20bd 7f59 853c a642 083d 6023 2bbc
00000150: c8b1 2cbc 0680 67bd 9f7b c2bc 83da 6c3d
00000160: 4064 7a3c 6184 3fbc 728f fcbb 71f7 4d3d
00000170: 3e09 f63c 06c2 5e3d 4d9c 30bd a14b f8bc
00000180: 5cfe 41bd 1c40 31bd 0009 473c 673b 173c
00000190: 1f91 6c3d b88d 03bd 75ba 803d f1f7 f8bc
000001a0: 6988 6d3d 0f5a 04bd 074c 633d 6c22 323d
000001b0: 79b3 443d 5254 c93c 5e89 173c be9d 433d
000001c0: a0ff d3bc c71c d3bc 5e1c 373d 9518 043c
000001d0: df3a 90b9 86f1 ef3c 8a6d b23c 777f f0bb
000001e0: fcbe 983c 7b9f 263c 644f b43c 0dfb fbbc
000001f0: a118 4f3d fcf9 acbc 82c9 683d af09 31bd
00000200: 37b5 343d 1efa 31bc 727e 813c e8ae d5bc
00000210: c954 71bc d934 783d 80b8 7e3d 9334 de3b
00000220: ea60 1bbd 125c 63bd e6d2 5fba d67a 6fbd
00000230: 5b7a 613d 0abc 983c 4045 6ebd 43c2 0b3d
00000240: 0b31 cc3c 9dbc d53c 1e49 333d a13f 003d
00000250: c539 5bbd e498 a03c c8df 033d 947b 313d
00000260: 2014 543d 0799 28bd edb2 6a3d e119 5f3c
00000270: 350d 0bbd 6de4 d5bc 4817 3e3d 4738 79bd
00000280: 8286 0bbd 7cd7 4c3d aef6 d23c c093 e8bc
00000290: 667c 743d 50e9 88bc 1ea3 643d 7f7d e2bc
000002a0: d81e 5abd 8a29 28bd 3b08 553d 93b4 c9bc
000002b0: 9883 3fbd 917c 45bd a18c 1abd 51ea 453d
000002c0: 74fc 033d 43a2 063d cf2d 80bd cc6d 73bd
000002d0: 8e7f 3abc 7f5c 273d e8b2 6e3c 0ad1 f3bc
000002e0: 50d7 e13b c736 113d bb71 1cbd 1780 53bd
000002f0: d218 4b3d 5c5d 263c cc04 94bc d178 4c3d
00000300: 2025 1abd a4aa f9bc 50b7 c9bb 70de 96bc
00000310: 9086 453d 47d0 4cbd 236c cebc a7d1 f7bc
00000320: aabd 453d 10b4 bc3b 90f9 1fbd 61ea 353d
00000330: fec6 cf3c 8b7c 20bd 0ae7 1abd 8d9c 81bc
00000340: d25d 493d b75e 9dbc b66c f93c bcd8 4bbd
00000350: 7ac5 dfbb b71a 2b3d 2837 673d 4bb6 1c3d
00000360: 3e75 c53c 40a3 01bd 4fb2 5d3d f08b a13c
00000370: d8cb f43c ba24 493d 19e9 51bd 16bb 47bd
00000380: 86e2 493d 606f 6d3b f06c 3b3d fbff 153c
00000390: 7c69 d8bc d8b7 523c b22f dd3c 2dd1 0bbd
000003a0: d7f6 643d efce e4bc 2fd6 513d 9781 473d
000003b0: f313 c0bc 1c3b 0bbb 84a7 6b3c 26e8 6bbc
000003c0: a544 39bd 8d23 12bb 14a9 2abd 4422 eb3c
000003d0: c455 d03c 79e8 d1bc 2867 54bc a051 46bd
000003e0: 5734 423d 587a 2c3c 4c94 bebc 5ac7 7f3d
000003f0: 9923 64bd aed8 36bd b0f7 80bd 3d64 7cbd
-0.035309155 -0.049057968 0.00022504371 0.02994358 0.052184317 -0.065214396 -0.042554565 0.046112947
-0.049177058 -0.054121025 0.057421923 0.059270617 0.016883349 0.039715707 0.04253503 0.002184028
-0.02166239 -0.013263711 0.007907932 -0.044794112 0.054030053 0.03508165 -0.0017016185 -0.012103546
-0.05524909 -0.04836844 0.05120112 -0.055027645 -0.065375805 -0.019954959 -0.050982427 -0.06268035
0.022238428 0.010448969 0.046620786 -0.056672264 -0.04905903 0.029288236 -0.016318632 0.012780429
-0.033404518 0.0487136 -0.058367286 0.040999282 -0.05113896 -0.039681256 -0.0035334155 -0.055001177
-0.02099276 0.028995188 -0.04068847 0.045153923 0.029482495 0.0616722 0.040532924 0.016755873
0.011446288 0.043351997 0.010923524 -0.06144226 0.04157414 -0.028400993 -0.00067622506 0.02291922
-0.03010634 -0.007152021 -0.041124932 0.010038493 -0.024644444 0.04564541 0.018722873 -0.058136106
0.039522357 -0.025010323 0.010224415 0.010870848 0.0054592863 0.014915349 -0.051340558 0.009867372
-0.039083503 0.016278027 0.033266686 -0.010445446 -0.010540433 -0.056518577 -0.023740588 0.057825577
0.0152826905 -0.011689276 -0.0077075297 0.050284807 0.030033704 0.054384254 -0.04311781 -0.0303095
-0.047361717 -0.04327403 0.012148142 0.009230471 0.057755586 -0.032117575 0.06285564 -0.030391665
0.05799142 -0.03231245 0.055492427 0.04348986 0.04802272 0.02457634 0.0092490595 0.047757857
-0.025878727 -0.025770558 0.044704787 0.008062501 -0.00027509683 0.029289972 0.021780748 -0.0073394137
0.018645756 0.010169859 0.022010513 -0.030759359 0.050560597 -0.021115296 0.056832798 -0.043222126
0.044118132 -0.010862855 0.015807364 -0.026084378 -0.014729687 0.060597274 0.06218767 0.0067811697
-0.03793422 -0.055507727 -0.0008538201 -0.058466755 0.055048328 0.018644352 -0.05817151 0.03412081
0.02492573 0.026090914 0.0437709 0.03131068 -0.05352189 0.019604154 0.032195836 0.043330744
0.051777005 -0.041161563 0.057299543 0.01361701 -0.033948142 -0.026109898 0.04640892 -0.060844686
-0.034063824 0.05001019 0.025752392 -0.028390765 0.059688948 -0.016712815 0.055819623 -0.027647732
-0.05325207 -0.04105524 0.052009802 -0.024622237 -0.046756357 -0.0482145 -0.03773177 0.048319165
0.03222318 0.03286959 -0.06258737 -0.059430882 -0.0113829505 0.040859696 0.014569022 -0.029762764
0.0068921223 0.03545263 -0.0381944 -0.051635828 0.049584217 0.010154095 -0.018068694 0.049919907
-0.03763306 -0.030476876 -0.0061558858 -0.018416613 0.048224032 -0.050003316 -0.025198048 -0.030251337
0.04827658 0.00575877 -0.03905636 0.044412974 0.025363442 -0.039181273 -0.037817992 -0.01582172
0.04916174 -0.019210203 0.030447345 -0.04976724 -0.006828961 0.041773524 0.056449085 0.038259786
0.024103757 -0.031649828 0.054125126 0.019720048 0.029882357 0.04910729 -0.05124769 -0.048762403
0.049288295 0.0036229715 0.045758188 0.009155269 -0.026417486 0.012861215 0.027000282 -0.034135032
0.055899467 -0.027930705 0.051229652 0.04870757 -0.023447013 -0.0021244949 0.014383201 -0.01439861
-0.04523148 -0.0022299022 -0.04166515 0.028702863 0.025431521 -0.025623547 -0.0129640475 -0.048417687
0.047413196 0.010527216 -0.023264073 0.062445976 -0.05569801 -0.044640236 -0.06297243 -0.061619032

bias f4 [256]
00000000: 8d19 46bd 319b ffbc c313 4ebc 5423 7b3d
00000010: 855c 603d 90dd bc3c 53f0 573d 8d5a dfbc
00000020: 60e2 bfbc 1245 693d d198 ee3c f8fe 44bd
00000030: 0088 cbb9 ea83 973b 5585 01bd c046 663d
00000040: 25b6 513d b32f 82bc 0361 d0bc 066d 00bd
00000050: 998e 9d3c 7c7f 5dbd 6fee 283c b695 033d
00000060: be8c 1cbd 5c13 eb3b 385f e4bc d5d5 a9bc
00000070: 2891 b43b c560 6ebd 2e87 063c 2e57 7e3b
00000080: 6052 253d c09c 5f3d 25ef f8ba fb70 91bc
00000090: e98e 583d a1a6 e3bc a5e5 79bc 9b6c 41bd
000000a0: 1009 cb3b 3122 193d 530b 683c 584c 46bc
000000b0: fae7 2fbd 8450 20bd 77a7 77bd 814d 6d3c
000000c0: fa7d 5dbd 52fa 1b3b 6854 7bbd 2210 5fbd
000000d0: 1541 10bd 29ad 663d d82a 993c cf98 543d
000000e0: be94 91bc 00cc 43bc 5b22 573d e5b8 b5bc
000000f0: c425 803c f802 123c 2269 373c 2022 5fbc
00000100: 1f30 4abc 02a3 2abd f618 6bbc bd31 01bb
00000110: 8c70 e7bc 6b41 263d 6c50 5e3d f00a d63c
00000120: 2409 85bc 408c 46bd 9498 3b3d d428 fcbc
00000130: 2dbb cfbc 02b9 9bbc 4859 1ebd 04d2 5b3d
00000140: ae6a c63a f5da fdbc 5f8a 403b 081f 84bd
00000150: c4b3 553d 9014 983c e6b6 aa3c f76f ccbb
00000160: ac88 753c b8b8 713c 10c0 133d 62a5 243d
00000170: 5293 42bd 5639 673d c924 63bb 75cd 6dbd
00000180: d6d7 71bc f92e 133d 0043 9cbc ac0d 1b3c
00000190: 36a8 083d 6eb6 69bd d8b3 62bd 1b2a 1bbd
000001a0: d598 1fbd 1efa 02bd b2d1 763d f536 d73b
000001b0: 89ce 2d3d cac9 5f3d 9970 253d 1993 d13c
000001c0: ce2e 75bd 513b bf3c 1eca 593d 2fe5 33bd
000001d0: e9ba 5f3d 17fb 243d 8bdd 943b e2c5 c93c
000001e0: 2077 323d 2cc6 6ebd a04c 20bd f3ea 0cbd
000001f0: b8cb a0bc f1a1 04bd c6e4 873d 75fa 6cbd
00000200: a114 f13c 38be 55bd 9840 8b3d 9f8f bf3c
00000210: 3a9b 5bbd 540f b03c 17c5 e739 b2eb 71bc
00000220: 1f53 0abc 841c 6cbd 2911 a93c aab1 203d
00000230: 374b afbb 4357 313c 4a9a 5e3c 8460 06bd
00000240: f459 253c 296a cfbc 8668 6e3d 2454 5bbd
00000250: f162 5b3d 4cc2 39bd 5a68 8bbc 9689 cbbc
00000260: d845 51bc 20ce 09bd c78b 4b3d 0fed 653d
00000270: 18d6 9cbb 0c69 753d 800f 553c 3547 2abd
00000280: b4cf f53c 8f8f ebbc 2a57 76bd 5fc2 103c
00000290: cdff 403d 4662 7d3c 4806 1b3d 20af 613d
000002a0: 3d93 463d 888e 0bbc 3f19 cf3c 51c1 50bd
000002b0: 272d 803d 45f0 243d 7699 933c 3e97 1abd
000002c0: b0e1 183c 0807 70bd 9c40 8bbc 3919 793d
000002d0: 0bd3 1f3d a224 1fbd 5cd9 113d adbd 013c
000002e0: efd7 753d ff11 1bbd 7cba 45bd 0af1 a4bc
000002f0: 20ef b0bc 243a 17bd 1ceb e2bc 09ff 84bc
00000300: 36a7 493d da02 453c bfd6 ee3a 5f5e a33a
00000310: 7127 e3bc 8cbd fabb cc65 203d 7312 a83b
00000320: e73f 8d3c 5cb8 3dbd c91a 173d 8533 62bd
00000330: a986 443d dcaf 283d 97c2 383d 34e5 5e3c
00000340: 994b 6c3d eac9 53bd 7030 e7bb eed3 823c
00000350: 3b12 e43c 0f16 573d 9385 6ebd 301e 313d
00000360: 2d8b 423d bdbd 433d 4446 38bd 3b63 50bd
00000370: c6cf aabc 79a3 293d 2477 cbbc cbac 5e3d
00000380: 14cf 533c 3a4b 5ebd 1f8f 12bd 20cd eebb
00000390: 1a7b 893d c409 d539 89a5 2bbd a270 2a3d
000003a0: 56a6 d13b 708a c3bb e25a 143d e6b1 113d
000003b0: 2866 43bc 87a4 f33c 5b3f ecbc 157a 1d3c
000003c0: 1664 7dbd 2a94 fb3b 33f6 6ebd 1932 39bd
000003d0: 0c6b 7dbd 4853 4f3c ee34 9f3a 79b7 363d
000003e0: d2e3 61bd c71c 88bb 5543 6e3d be47 51bd
000003f0: dc86 2fbd ff46 c13c 2b1d 423d 966e 0cbd
-0.04836421 -0.03120193 -0.012577954 0.06131299 0.054775734 0.023054868 0.052719425 -0.027264858
-0.023423374 0.056950636 0.029125603 -0.04809472 -0.00038820505 0.0046238797 -0.031621296 0.056219816
0.051199097 -0.015891885 -0.025436884 -0.031353973 0.019233035 -0.054076657 0.010310753 0.032125197
-0.03822016 0.0071739387 -0.027877435 -0.020731846 0.005510468 -0.058197755 0.00821094 0.0038809287
0.040361762 0.054592848 -0.0018992169 -0.017754069 0.052870665 -0.027789416 -0.015252505 -0.047222715
0.0061961487 0.037386123 0.014162856 -0.012103163 -0.04294584 -0.039139286 -0.06046244 0.01448381
-0.05407522 0.0023800326 -0.061359793 -0.054458745 -0.035218317 0.056317482 0.018697187 0.051903542
-0.017771121 -0.011950493 0.052523 -0.022182891 0.015643008 0.008911841 0.011194499 -0.013618976
-0.0123405745 -0.041659363 -0.014349213 -0.0019713484 -0.028251909 0.04058973 0.054275915 0.026128262
-0.01623971 -0.048473597 0.045799807 -0.030781187 -0.025357807 -0.019009117 -0.038659364 0.053667083
0.0015137994 -0.030988196 0.002937935 -0.06451231 0.05217339 0.018564492 0.020839166 -0.006238933
0.014986198 0.014753513 0.036071837 0.040196784 -0.047503777 0.056451164 -0.0034659377 -0.058057267
-0.014760932 0.03593347 -0.019074917 0.009463709 0.033363543 -0.057058744 -0.055347294 -0.03788195
-0.03896411 -0.03197681 0.060258575 0.0065678307 0.042433295 0.0546358 0.040390585 0.025582837
-0.05985909 0.023343714 0.05317127 -0.04391974 0.05462161 0.04027852 0.0045430115 0.02463049
0.043570638 -0.05829446 -0.039135575 -0.034403753 -0.01962839 -0.032381 0.06635432 -0.057856042
0.029428782 -0.05218336 0.0679943 0.023383914 -0.053614832 0.021491684 0.00044206597 -0.014765667
-0.008442669 -0.057644382 0.020638065 0.039231934 -0.0053495425 0.0108240275 0.01358659 -0.03280689
0.010092247 -0.025319176 0.05820515 -0.05354704 0.053561155 -0.04535131 -0.017017532 -0.02484588
-0.012773 -0.03364384 0.04969385 0.05613428 -0.004786264 0.059914634 0.013004184 -0.041571815
0.030006267 -0.028754978 -0.06014172 0.008835404 0.04711895 0.015465325 0.037847787 0.055098653
0.04848026 -0.008517869 0.025280593 -0.05096561 0.06258612 0.0402682 0.018017512 -0.037741892
0.009331152 -0.058600456 -0.016998582 0.06081507 0.039019626 -0.038853295 0.03560768 0.007918757
0.060020383 -0.03785896 -0.04827355 -0.020134468 -0.021598399 -0.03692068 -0.0277 -0.016234891
0.04923173 0.012024606 0.0018221958 0.0012464038 -0.027728768 -0.0076519903 0.03915958 0.0051291524
0.017242385 -0.046318397 0.03689078 -0.055224914 0.047979984 0.041183338 0.04510745 0.013604451
0.057689283 -0.051706232 -0.0070553347 0.015970197 0.027840724 0.05251127 -0.058232855 0.04324168
0.04749601 0.04778837 -0.044988886 -0.050875884 -0.020851027 0.041415665 -0.024837084 0.054364007
0.012927789 -0.05427096 -0.035781022 -0.0072876364 0.06712933 0.00040633802 -0.041905914 0.04161132
0.0063980026 -0.005967431 0.036219485 0.035570048 -0.011926211 0.029741539 -0.028838804 0.009611626
-0.061863028 0.0076775746 -0.058340263 -0.045213792 -0.061869666 0.012654133 0.0012146512 0.044608567
-0.055148907 -0.004153821 0.05816968 -0.05109381 -0.04285322 0.023593424 0.047391098 -0.03428515

weight f4 [4, 256]
00000000: 1976 513d 81f2 633d 44ef 023d ab36 c7bc
00000010: a749 273d 0861 583d 9e61 ecbc a9d5 ea3c
00000020: ccd9 80bc eb3a 4fbc 304e 3b3d 23ca a9bc
00000030: 6428 debc 8c00 85bd d41c 26bc d030 6bbd
00000040: e276 76bc 74e4 7cbd 9589 e5bc 5e13 c73c
00000050: 9f6a 0c3d 6461 b03c 9b22 0a3c a214 7dbc
00000060: 2a53 123d b3c5 dc3c b1fa f03c fcbf 0c3d
00000070: 27e9 d737 5ee7 77bc e933 52bd ae80 31bd
00000080: b183 84bc 2609 02bd 9b7f 44bd 4e85 82bd
00000090: 2e9d c03c 24c7 2ebd e387 54bd 4b6f 7dbd
000000a0: a022 33bb ba42 6e3c eaac 163d 19c7 2b3d
000000b0: da7a 5f3d 15ad 43bc bf0f d93c 453a 2bbd
000000c0: 2831 09bc 0aeb 6d3d f3b7 663d 9119 8abb
000000d0: 1633 c23c 9102 c3bc 7fae 233d e9db ddbb
000000e0: d1ed 71bd 6b2b 543d ebc9 403d 54c7 44bd
000000f0: 3c4f d5ba a69f 413d b6e8 67bd 48b4 403c
00000100: fc23 4bbd 8023 2b3d 2981 023d 07e0 23bd
00000110: c0bd cebb e529 053c 9902 1d3d 93e7 203d
00000120: 2953 763c b1ca 083d c059 243b 283b cebb
00000130: 2975 fd3c c863 173d cc60 27bd 6492 57bd
00000140: d6f6 473d e110 debc ac22 17bd 5f7d 463d
00000150: 6ef1 7ebd edbf 583d 9b46 e93c 6ed8 83bd
00000160: d2aa 67bd 96a5 c23c 2bdd 84bb 0f1f 433d
00000170: b8cc 2dbc 78d0 35bd 9513 aa3c 2638 7dbd
00000180: 4a90 67bd a5d1 68bc 368f 573d 04e9 1bbd
00000190: f9fd 403d 408e adbb db91 b23c 4ec1 353d
000001a0: 10a8 643d 6b6b e33c 8930 833d 6f5f 8e3c
000001b0: 4600 513d 38b8 583d 24fb 69bd 58ef fbbc
000001c0: 2251 0dbd 9267 fabc 4ddb 6fbd a480 02bd
000001d0: 6d41 8fbb a77c 11bd 7087 20bd dd6d 43bd
000001e0: 305b 73bd 2e3d 5a3c 081c 2f3c df43 0e3d
000001f0: 428d 1c3d 24b0 76bc cd67 e8bc e7cb ad3c
00000200: 410b de3c b8df 39bd abda 51bd e903 77bd
00000210: 0078 a2bc 60d1 5f3b 28d4 42bc 3021 a8bc
00000220: c13a 80bd d9b6 5abd 94cd 573d e01f 72bc
00000230: c76f 273d a9a5 5fbd 0757 2abd bb77 003c
00000240: 163f 5d3c 5dc1 3c3d b06a d9bc d6fa 623d
00000250: c814 7d3d 555c ec3b 8bdb 203d 2a60 193d
00000260: a0de adbb 6249 703d a9da d43a 97c0 443d
00000270: 6644 213d 5007 fd3c e014 903b 55ac cebc
00000280: 346b c6bc 71a5 6cbc faa8 77bd 56ee 9e3c
00000290: dbf3 81bd fe6f e9bc 1e56 4abd 9352 013d
000002a0: 5f56 1c3d f0d4 dbbb 9883 11bd 3542 17bd
000002b0: f739 3ebd b866 57bd 3ea6 17bd 5222 41bd
000002c0: 18b4 eb3c 9270 513d bc57 0cbd 460d 9b3c
000002d0: 2b18 57bd 50e1 c03c d6cc 8abc d8b2 ccbc
000002e0: 6e81 873c ef36 b53c 26a6 81bb 1a84 543d
000002f0: e28b 83bd f671 cebb 24a7 76bd 4566 323d
00000300: c0ee 6c3d c073 58bb 72f8 2b3d 7592 34bd
00000310: 819d 7cbd 1c7a 553d b993 313d 0547 83bc
00000320: 8651 2f3d f03b 3ebd 5193 5dbd dc29 5a3d
00000330: d11b 523d 345f 2a3d 262b 3abb 869f 08bd
00000340: 18c7 a7bc e05e a83c 211e 4fbc cc2f c93c
00000350: 5bd5 86bc ebab c43c f014 6fbc 21e1 b83c
00000360: 4830 1a3d 46ea 60bd 917b 0f3d c3cd 76bc
00000370: a968 043d 178b 0c3d 089f 4abd e581 b2bc
00000380: 6a3b 7fbc c427 413d caa1 c03c 060d 273d
00000390: 8685 4abd 7046 43bd cfd4 053d 64cc 513d
000003a0: dfac be3b 227c 353d 4097 4ebb c08a db3c
000003b0: d4be ccbc 12bf 093c f17b 7b3c fa33 243d
000003c0: 44c9 09bd 6fc2 efbc b991 58bd ae1b 67bd
000003d0: f44a c43c 780e 5abd db3b 62bd 32de 75bd
000003e0: dcfa 46bd de88 403d 1760 a13c 48cb 983c
000003f0: a4be f23c d971 033d 3c58 353d 6dc5 f3bc
0.051138017 0.05565119 0.031966463 -0.02431806 0.040841725 0.05282691 -0.028855141 0.028666334
-0.015728854 -0.0126483245 0.045728862 -0.02072627 -0.02711887 -0.06494245 -0.010138709 -0.057419598
-0.015042992 -0.061741307 -0.028019706 0.024301227 0.03428137 0.021530814 0.008431102 -0.015446814
0.035723843 0.02694974 0.029416414 0.034362778 2.5738567e-05 -0.015130846 -0.051319037 -0.04333561
-0.016176077 -0.031747006 -0.047973257 -0.06373082 0.02351245 -0.042670384 -0.051887404 -0.061873715
-0.002733387 0.014542276 0.036785997 0.04193792 0.05456052 -0.011943121 0.026496766 -0.041803617
-0.008373536 0.05808548 0.05632777 -0.0042144735 0.023706 -0.023804935 0.039961334 -0.0067706
-0.05906469 0.05179922 0.047067564 -0.048041657 -0.0016274224 0.047271393 -0.056618415 0.011761732
-0.049594864 0.041781902 0.031861458 -0.04000857 -0.006309241 0.008127664 0.038332555 0.039283346
0.015034475 0.033396427 0.002507791 -0.006293673 0.030939655 0.036960393 -0.040863797 -0.052629843
0.048819385 -0.027107658 -0.0368983 0.048459407 -0.062241964 0.05291741 0.02847605 -0.06437765
-0.05655939 0.023760598 -0.0040546856 0.04763704 -0.010607891 -0.044388264 0.02076129 -0.061821125
-0.05653409 -0.014210139 0.05262681 -0.038064018 0.047117207 -0.0052964985 0.021798065 0.044373803
0.05582434 0.027761182 0.06405742 0.01737949 0.05102565 0.05291006 -0.057124272 -0.030753776
-0.034501202 -0.030566964 -0.05855875 -0.031860963 -0.004371813 -0.03551927 -0.039191663 -0.047712196
-0.059413135 0.01332025 0.0106878355 0.034732696 0.03822065 -0.015056644 -0.028369809 0.021215392
0.027104976 -0.04537937 -0.05123393 -0.060306463 -0.019832611 0.0034151897 -0.011891402 -0.020523638
-0.062612064 -0.053397033 0.05268629 -0.014778107 0.040878084 -0.054601345 -0.041586902 0.007841046
0.01350381 0.046082843 -0.02654013 0.055414997 0.061787397 0.0072131553 0.039271872 0.037445225
-0.00530608 0.058663733 0.0016239482 0.04803523 0.03937187 0.030887276 0.0043970197 -0.025228659
-0.02422104 -0.014443741 -0.060463883 0.019400757 -0.0634534 -0.028495785 -0.049398534 0.03157289
0.038168307 -0.0067087337 -0.03552589 -0.036928374 -0.046442 -0.052588195 -0.037023775 -0.04715187
0.028772399 0.051132746 -0.034263358 0.018927228 -0.052513283 0.023544937 -0.016943377 -0.024987623
0.01654121 0.022120921 -0.003956574 0.051883794 -0.06423165 -0.0063002063 -0.06021799 0.043554563
0.057844877 -0.0033027977 0.041984983 -0.044084985 -0.061673645 0.052118406 0.04335377 -0.016025076
0.042802356 -0.04644388 -0.05409557 0.053262576 0.05129606 0.0415947 -0.0028407066 -0.03335526
-0.020480677 0.020553052 -0.012641461 0.024558924 -0.016459158 0.024007758 -0.014592394 0.022568287
0.0376437 -0.05491092 0.03502995 -0.015063706 0.032326374 0.034312334 -0.04946807 -0.021790454
-0.01557813 0.047157064 0.023514647 0.040783904 -0.049443744 -0.047674596 0.032673653 0.051220313
0.0058189477 0.044307835 -0.0031523257 0.02679956 -0.024993338 0.008407371 0.015349374 0.04008863
-0.033639207 -0.029267518 -0.052873347 -0.05642288 0.023961522 -0.053236455 -0.055232864 -0.060026355
-0.048579082 0.047005527 0.01969914 0.01865162 0.02963192 0.032090995 0.0442736 -0.029757226

bias f4 [4]
00000000: c945 073d 1775 403d 1c0e 6e3d 1730 3a3d
0.033025537 0.046986666 0.058118924 0.04545602
