dqn_learning/wait/models/modelstatedict_2.pth (torch, 292191 bytes, 6 tensors)

net.0.weight f4 [256, 21]
000000 17 0d 22 be cf dc 86 3d cf b2 24 3c 40 11 e7 bc
       -0.15825306 0.06585085 0.010052397 -0.028206468
000010 2e eb d1 bc b9 92 34 bd 30 28 a9 bd 28 ae 20 3d
       -0.025624838 -0.044085238 -0.08259618 0.03922859
000020 f3 b8 c4 bd 61 11 83 bd 70 ae eb 3d 67 61 ad bd
       -0.09605589 -0.06399799 0.11507881 -0.08465844
000030 24 41 5e 3e 19 9b e9 bb cc 3c 07 bd af 99 41 be
       0.21704537 -0.007129085 -0.033016965 -0.18906282
000040 2f 47 55 bd e9 fa 45 3c 46 24 9c bd 05 3f 9b 3d
       -0.05206984 0.012083747 -0.07624106 0.075803794
000050 4c e4 22 3e ae a3 3c be 30 90 6f bc 21 58 0c bd
       0.15907401 -0.18421814 -0.014621779 -0.034263734
000060 f2 f8 10 3e 22 e0 f5 bc 41 53 53 3e 6b 3d 46 bc
       0.14157465 -0.030014101 0.20637228 -0.012099604
000070 b8 87 ac bd 7b e4 e0 3d 24 8c 4f be 56 f8 24 3e
       -0.08424324 0.10981079 -0.20268303 0.16110358
000080 4c de 30 be 0e c9 71 3d b4 ca 0d bd 92 0a f6 bc
       -0.172723 0.05902963 -0.03461714 -0.030034337
000090 38 fc 50 3e 22 41 13 3e 10 4b fe bc e6 99 b3 bd
       0.20408714 0.14380315 -0.031041652 -0.08769588
0000a0 e6 39 05 3e e4 27 ae bc ea 4f 3e be f2 db 80 3d
       0.13010368 -0.021259256 -0.18585172 0.06291951
0000b0 77 ae 12 3e 91 50 a5 3d 62 c9 2a 3e 91 31 8a 3d
       0.14324366 0.080720074 0.16678384 0.06747735
0000c0 d9 ff 80 3d fa e5 47 be 8d d5 5a 3e 48 9e 2d 3d
       0.06298799 -0.19521323 0.21370526 0.042387277
0000d0 e5 2b 95 3d d0 05 39 bc 46 c2 f9 bc 2a 4d 55 bd
       0.07283763 -0.01129289 -0.030488145 -0.052075543
0000e0 15 c4 1c 3d a7 d5 63 3d bc f2 62 39 87 46 26 3e
       0.038272936 0.055623677 0.00021643465 0.16237842
0000f0 08 85 2f be ac 07 11 3e 2d 93 22 bd 5c bc a1 3d
       -0.17140591 0.14163083 -0.03969114 0.07897255
000100 4e d6 2a 3e e2 41 9f bd 66 4d 39 3e 91 5f 8b bd
       0.16683313 -0.07776238 0.18095931 -0.06805337
000110 42 9a ff bc 91 b3 39 3d 3c bd 0e 3e 0a 91 49 be
       -0.031201486 0.045337263 0.13939375 -0.19684234
000120 2f 45 e9 bc 2e 1d 57 3d 52 28 be bd 7d f4 ea bd
       -0.028475372 0.052518062 -0.09285034 -0.11472414
000130 e3 1a 76 3d c5 02 eb bd 22 7f 30 3e 8a 3e 9e bd
       0.060084235 -0.114751376 0.17235997 -0.07726772
000140 99 43 3a 3d 19 37 23 3e 63 09 19 3d 92 6d 20 be
       0.045474622 0.15938987 0.037362467 -0.15666798
000150 da 26 5d be 79 bf 14 be 26 f3 0b 3e cc 47 5b be
       -0.21596852 -0.14526166 0.13666973 -0.21414107
000160 6e 77 44 3d c9 0a ee 3b cd f2 0f 3e 08 b9 06 3e
       0.04796546 0.0072644693 0.14057465 0.13156521
000170 b1 74 af 3c 21 29 ad 3a ea f3 ff bd fb 8e 37 be
       0.021417947 0.001321111 -0.12497695 -0.17925636
000180 60 9f 4e be 72 b5 cd bd c9 9d 89 bd 22 8c bd 3d
       -0.20177984 -0.100443736 -0.06719548 0.09255244
000190 64 2e 53 be 0e 8f 22 be 5a 8c d4 3c 33 05 ea bd
       -0.20623165 -0.15874884 0.025945831 -0.11426773
0001a0 5a 94 7c bd bc 05 da bd 31 3e 07 3c 6d fb cf bd
       -0.061664917 -0.10645625 0.008254574 -0.101553775
0001b0 44 9f e2 3d 96 7f 5c 3e c3 a2 5f 3e f0 a9 45 3e
       0.11065534 0.21533045 0.21839432 0.19303107
0001c0 ca 93 af bd a5 5e db 3d b1 d4 49 3e 86 b5 01 be
       -0.085731104 0.107114114 0.19710042 -0.12666902
0001d0 26 20 c4 bd 5a 20 30 3d 41 2b 44 3e 3d 39 bc bd
       -0.09576444 0.042999603 0.19157125 -0.09190605
0001e0 40 ea b3 3d 4c e8 db 3d 55 dd 56 be f8 0f 27 3e
       0.08784914 0.107376665 -0.20982869 0.16314685
0001f0 94 3f 15 3e 40 e4 b0 bd 1b 2e 80 bd 1d 35 53 be
       0.14575034 -0.08637285 -0.06258794 -0.2062573
000200 77 b1 2b be 62 01 40 3e dc 4f 34 3e 53 85 51 be
       -0.16766916 0.18750528 0.17608589 -0.20461015
000210 26 9a 1a bd ae 3c 1e be 61 90 d3 bb 18 27 ca bd
       -0.037744664 -0.15452835 -0.0064564203 -0.09870738
000220 23 8d 5c be 3a 8e e6 bc fd b3 89 3d f8 64 15 be
       -0.21538214 -0.02814399 0.06723783 -0.14589298
000230 bb 3b 60 3e 43 df 13 3e 03 ad 9f 3d bf 32 13 be
       0.21897785 0.14440636 0.07796671 -0.14374827
000240 a8 a8 2d 3e c8 fa 55 3e 8a cc fc 3d 50 23 aa 3d
       0.16958869 0.20896447 0.123437 0.083075166
000250 b7 ed 61 bb 91 a9 d8 bb 6f 17 31 3e 9a 18 56 be
       -0.0034473964 -0.0066120108 0.17294095 -0.20907822
000260 ff 3b 4d be cd 9a f6 3d fd d0 a8 bd ea c5 81 bd
       -0.20042418 0.12041245 -0.08242986 -0.06336577
000270 4a ee 8c bd a9 7c 4f be 06 a6 ad 3d 5a db 0b 3e
       -0.068813875 -0.20262398 0.08478932 0.13657895
000280 2c 81 51 3e d6 f8 9e 3c 63 24 c6 bd a5 01 08 be
       0.20459431 0.019405764 -0.09674909 -0.13281877
000290 1a 7f 58 bd 0a 30 d9 bd 5b 45 45 be 4d 7d eb bd
       -0.05285559 -0.10604866 -0.19264738 -0.114985086
0002a0 06 85 79 3d 7b 41 96 ba b8 75 59 be 38 dd 11 3e
       0.060917877 -0.0011463606 -0.21236312 0.14244545
0002b0 14 59 f7 bd fa fb 06 be 1b c5 2d 3d d1 12 7e bc
       -0.12077537 -0.13182059 0.042424303 -0.015507416
0002c0 60 19 35 be a9 e8 0e bc c3 79 47 be 75 81 5d 3e
       -0.17685461 -0.008722463 -0.19480042 0.21631415
0002d0 a9 a6 c0 bd 71 cd 28 3d 60 31 72 3d a9 8c 45 3d
       -0.09406788 0.04121155 0.05912912 0.048229847
0002e0 e2 c7 36 3c fe f8 32 be 51 da 17 be a8 3b 1a be
       0.011156054 -0.17477795 -0.14829375 -0.1506182
0002f0 58 f7 c0 bd 7f 20 c5 bd 91 87 1f 3d bd e5 19 be
       -0.09422177 -0.09625339 0.038947646 -0.15029044
000300 85 78 0a 3d 65 25 33 be f8 55 0d be d7 45 2d 3d
       0.033806343 -0.17494734 -0.13802326 0.042302933
000310 0a 28 53 3e a9 04 24 bc 96 5b fd 3c 98 28 f7 3d
       0.20620742 -0.010010877 0.03092746 0.120682895
000320 84 6f fc bd c3 3c 55 3e a9 10 c7 bd f9 87 49 be
       -0.123259574 0.2082396 -0.097199745 -0.19680776
000330 dd 84 34 3d 6a 01 13 be f9 30 25 3e 92 5d 2a 3e
       0.04407202 -0.14356008 0.16131963 0.16637257
000340 02 fe 72 bc e6 91 f8 3c 23 c4 19 be 28 b2 a6 bd
       -0.014831068 0.030343007 -0.15016226 -0.08139449
000350 23 3c 55 be dd 24 1b be 7a 5f 3e 3e c8 a0 2d 3e
       -0.20823722 -0.15150781 0.18591109 0.16955864
000360 2f 06 ec bd ec 09 b3 3a 5b df d6 3d 26 3b da bc
       -0.11524617 0.0013659573 0.104918204 -0.026639532
000370 0d b1 32 be 0a 12 49 3e 0a 6f 54 bd 13 2d 12 3e
       -0.17450352 0.19635788 -0.051863708 0.14275007
000380 66 d5 2d bd 44 62 da 3c 42 df 3b 3e 0d 24 c1 3d
       -0.04243984 0.026658185 0.18346885 0.09430704
000390 87 a4 18 3e f5 5c 1e 3e 3c 5c 34 3e 50 1f 51 bd
       0.14906512 0.15465148 0.1761331 -0.051055253
0003a0 32 1c 10 3e f2 7f 0b be 10 1c 77 bc de 94 da 3d
       0.14073256 -0.13623026 -0.015082374 0.106729254
0003b0 44 5c 23 bd fe d9 d8 bd 59 f2 1d bd ec 6a d6 bd
       -0.039882913 -0.10588454 -0.0385612 -0.104696125
0003c0 87 41 ae bd b4 a1 93 bd 50 e8 30 3e 94 b1 ef bd
       -0.08508592 -0.07208577 0.1727612 -0.11703792
0003d0 74 5f 3f 3e ce 4a e4 bd 20 e9 d4 bd 88 44 15 3e
       0.18688756 -0.1114708 -0.103960276 0.14576924
0003e0 23 b1 56 be c2 aa 85 3d 0d 3e 95 bd 74 85 1f be
       -0.2096601 0.0652671 -0.07287226 -0.15578252
0003f0 d9 f1 4f bc 94 e7 80 3d cf 9b 3b 3e 0f f4 38 be
       -0.012691938 0.0629417 0.18321155 -0.18061851

net.0.bias f4 [256]
000000 65 1c c0 bd d4 cc 5c be 3c a1 c2 bd 5a 76 4b 3e
       -0.09380416 -0.2156251 -0.09503409 0.19869366
000010 17 12 c4 bc d9 5f 36 3e 54 c9 33 3b 22 42 eb 3d
       -0.023934407 0.1781 0.0027433233 0.11487223
000020 56 96 54 3e d0 6a 9d 3d 7f 8c 80 3d 9a ad 42 bd
       0.20760474 0.076863885 0.062767975 -0.04752884
000030 85 9e 56 3e 4d 09 49 be 66 27 d5 bd 03 c0 0f 3e
       0.20958908 -0.19632454 -0.10407905 0.1403809
000040 be 24 d9 bc 39 69 7a bd c1 9a 2a 3e e1 c7 32 bc
       -0.026506778 -0.061135504 0.16660596 -0.010911913
000050 86 3d 18 bd 7a 13 03 3e c2 ba 2d 3e 5f 1b 40 be
       -0.03716805 0.12800398 0.16965774 -0.18760441
000060 95 72 12 be 4d 2b 0b be 42 35 5d 3d 98 b8 6d 3d
       -0.14301522 -0.13590737 0.05400587 0.05803737
000070 5c 75 c2 3d b3 9f 32 bd 4e dc 81 3d e8 04 2d bd
       0.09495041 -0.043609332 0.06340848 -0.042241007
000080 c9 a9 72 3d 34 50 e7 bd 7c ec a7 3d 77 d5 00 3e
       0.05924395 -0.112945944 0.08199403 0.1258143
000090 de 5c 27 3e 75 5c 12 3e 9b 5e e6 bd 68 b5 00 3e
       0.1634402 0.14293082 -0.11248513 0.12569201
0000a0 ab b4 94 3d 6e 67 af 3d 9f b1 37 3e e1 84 1f be
       0.07261022 0.085646495 0.17938851 -0.15578033
0000b0 50 11 20 bd 69 e9 f5 3d 60 0f 2a bd 18 48 d3 3d
       -0.03907901 0.1200741 -0.04151857 0.10316485
0000c0 f9 ec e6 3d de f7 30 be 4e a6 fe 3d 01 d7 1a bc
       0.11275668 -0.17282054 0.12434064 -0.009450675
0000d0 1e fe 37 3d 4a 4c 38 be ca 1a a0 3d 86 91 09 be
       0.04492008 -0.17997852 0.078176096 -0.13434419
0000e0 3a 3f 17 be 22 64 af 3d 3d 26 d4 3d 2d c0 6e bd
       -0.14770213 0.08564021 0.10358856 -0.05828874
0000f0 96 e0 c0 ba 54 11 91 3d 49 61 f1 3d 22 28 d8 bd
       -0.0014715369 0.07083383 0.11786134 -0.1055453
000100 d9 7a cb bd 9e 88 4b be 09 77 27 bd 1a 71 14 3e
       -0.09935541 -0.19876334 -0.040885005 0.1449627
000110 44 9f a5 3d a1 61 dc bb a1 f9 ce bd c4 fd 30 be
       0.08087018 -0.0067255055 -0.10106207 -0.17284304
000120 5c 70 be bd dc 5f cd 3c 76 55 03 3e b5 e9 5f 3e
       -0.092987746 0.025070123 0.1282557 0.21866496
000130 6c 95 2b 3d 00 54 b9 bc 23 36 0a 3d 51 89 4b 3e
       0.041890547 -0.022623062 0.033743035 0.19876601
000140 20 53 67 bd 99 de 0f 3d c7 86 f2 3d fd 3d 16 be
       -0.05647576 0.035124395 0.11842113 -0.14672084
000150 17 53 0c bb c0 b0 05 be 2a 22 c1 3d aa ad 8a 3d
       -0.002141183 -0.13055706 0.094303444 0.06771405
000160 b9 87 fa bc 4a 96 50 be 59 6a 9a 3d 8b d9 d0 bd
       -0.030582296 -0.2036983 0.075398155 -0.10197743
000170 e7 93 05 3e 6b 2e 7f 3d fb 0e 53 bd 86 3f 17 3e
       0.13044702 0.062300127 -0.05152796 0.14770326
000180 1d 0f 30 be 2c 7d 25 be f5 35 43 be a7 45 ec 3d
       -0.17193265 -0.1616103 -0.19063552 0.11536723
000190 06 52 5b 3e 6a 3b 48 3e 8f 13 20 be 36 73 8d bd
       0.21418008 0.19553915 -0.15632461 -0.0690674
0001a0 b7 94 99 3d bc e3 17 3e ce 4d 97 bd 78 8f a6 bd
       0.07499068 0.14832968 -0.07387887 -0.08132833
0001b0 37 d4 f8 bc 40 52 15 3e 09 bb 51 3e 83 13 36 3e
       -0.03037463 0.14582157 0.20481504 0.1778088
0001c0 7b fb d6 3d 99 60 2e 3e c6 ff 37 be 07 fc 5b 3e
       0.10497185 0.17029037 -0.17968664 0.2148286
0001d0 0a ca 3e bd 93 2a 37 3e 1d 19 23 3e 5a 95 57 3e
       -0.0465794 0.17887335 0.15927549 0.21053067
0001e0 d5 d4 a7 3d 0e f5 ee bd 9a 0f b2 bd 4a e2 19 3e
       0.08194891 -0.11667834 -0.08694382 0.15027729
0001f0 9d 0d cb 3d 60 4d b1 3d a5 26 5f 3c 86 39 76 bc
       0.09914706 0.08657336 0.013620053 -0.015028363
000200 1a ee 72 3d 2b 19 43 3e d4 a8 49 be c7 d9 36 be
       0.059309103 0.1905257 -0.19693309 -0.17856513
000210 b3 ce 21 3e 5c cb 27 3e 69 54 48 be d0 73 c8 bd
       0.15801506 0.16386169 -0.1956345 -0.097877145
000220 98 ee 86 bc 3a 88 a2 bd 9b 90 19 be fc 74 b6 bd
       -0.016471192 -0.079361394 -0.14996569 -0.08909032
000230 78 2d be bc 6b 66 72 3d 6d d7 81 3a b3 04 f6 3d
       -0.02321504 0.059179705 0.0009906121 0.12012615
000240 28 97 36 3c 36 e5 42 3e f5 5b f7 bd b6 c2 0f 3e
       0.011144437 0.1903275 -0.12078086 0.1403912
000250 d6 2f 66 3b 96 35 12 be 77 d0 a6 bd 64 78 2d be
       0.0035123727 -0.14278254 -0.0814523 -0.16940457
000260 97 72 01 3e fc 2b a6 3d d4 d4 30 be be 73 40 3e
       0.12641369 0.08113858 -0.17268687 0.18794152
000270 c6 0a 10 3d 93 f0 24 be 0c 45 f2 bd db d2 4c be
       0.035166524 -0.16107397 -0.11829576 -0.2000231
000280 29 9d c8 bd 0c bc 08 3d 7c f9 39 3d 13 5f 1a 3d
       -0.09795601 0.03338246 0.045403942 0.037688326
000290 be 0c 8c bd 4e ea 41 3e bf d5 e0 bb 46 2a 4a 3e
       -0.06838368 0.18937036 -0.006861418 0.19742689
0002a0 12 56 76 bd 7e 7d 4e 3d 9b ef 0a 3e ae 5e 52 bc
       -0.060140677 0.050412647 0.13567965 -0.012839956
0002b0 b3 99 24 bd 45 14 b0 3c 15 33 0d 3e 42 49 e1 bc
       -0.04018564 0.02149404 0.13789017 -0.027500752
0002c0 8a 75 ec bc 70 ce 86 bd 94 7f 1f 3d e5 db 4b be
       -0.02886464 -0.065823436 0.038940027 -0.19908102
0002d0 b5 58 5d 3e e7 3e 82 3d 3d cd eb 3d 07 eb 56 be
       0.2161587 0.06359654 0.115137555 -0.20988093
0002e0 c8 0b 1e 3d 1e 5a 62 bd d3 a6 c9 bd 8f 0b 29 bd
       0.038585454 -0.055261724 -0.09846272 -0.04127079
0002f0 e3 90 09 be 48 56 f7 bd cc 29 73 3d 37 cf 13 3e
       -0.13434176 -0.12077004 0.059366032 0.14434515
000300 7b 68 29 be 88 0d 3b 3e 2f a5 5c be d6 41 d8 3d
       -0.16543762 0.1826688 -0.21547388 0.10559432
000310 2b f1 59 bd 5c 7c fc bd 2f a2 14 bd a8 5c 5e bc
       -0.05320851 -0.12328407 -0.036287483 -0.013571896
000320 0f 82 b1 bd 3e 8e 1e be af 06 2e be 1b b4 8a 3b
       -0.08667385 -0.15483949 -0.16994737 0.004232896
000330 0d 49 10 be 4b cb f7 3d 67 bc 1e be d8 aa ee 3d
       -0.14090367 0.12099322 -0.15501557 0.116536796
000340 58 d9 84 bd c9 08 ec bd b4 c0 06 bc 3c 1c 1c 3d
       -0.064867675 -0.11525113 -0.008224655 0.038112864
000350 40 d0 27 3d e7 b9 a6 3d cb 55 0e be c5 bd 1c 3e
       0.040970087 0.08140927 -0.13899915 0.15306766
000360 e0 55 f4 3d 32 ba 29 3e e1 3f 14 bd d0 66 98 bd
       0.11930442 0.16574934 -0.036193732 -0.07441485
000370 b3 95 3d be a8 c4 2c 3e d0 fc 5c 3d 0a e0 1a bb
       -0.18514137 0.16871893 0.05395204 -0.0023632073
000380 f7 15 65 3d fa 08 25 be 3e 01 b5 3d 00 5c 05 be
       0.05592915 -0.16116706 0.088381276 -0.13023376
000390 79 e6 40 bd 42 5b 44 be b8 2f 02 3e 84 59 dd bd
       -0.047094796 -0.19175437 0.12713516 -0.108080894
0003a0 4c 57 07 3e 93 8f 45 be ed fe ca 3d 15 83 29 3e
       0.13216895 -0.1929305 0.099119045 0.1655391
0003b0 5f 89 1f 3d cf 81 b0 3c 40 1d 93 3d 4a 95 41 3e
       0.038949367 0.021546273 0.07183313 0.18904606
0003c0 d5 8d 70 3d 8d 2d 9b bd b3 f7 97 3d 9c c6 3c bd
       0.05872901 -0.075770475 0.07420292 -0.046087846
0003d0 b1 96 a3 bc 16 bc e7 3d 22 4c 2d be da 96 2d be
       -0.019969316 0.113151714 -0.16923574 -0.16952077
0003e0 4e d8 ee 3d 3b 09 06 be d6 2a 1d 3e 92 82 b3 39
       0.116623506 -0.13089459 0.15348372 0.00034238823
0003f0 45 db f5 3d 8f 3a 56 be d1 57 00 3e 53 ad db bd
       0.12004713 -0.20920776 0.125335 -0.10726418

net.2.weight f4 [256, 256]
000000 4c 6b 0f bd 02 f1 48 bd ad 1a 1f 3a a9 4f f5 3c
       -0.035014436 -0.049057968 0.00060693437 0.029945211
000010 a7 bd 55 3d 37 7f 83 bd f2 2d 29 bd 90 3e 3d 3d
       0.05218282 -0.06420749 -0.041303582 0.046202242
000020 d6 10 49 bd 75 63 5d bd 13 6b 6f 3d e0 23 73 3d
       -0.04908832 -0.054049928 0.058451723 0.059360385
000030 9e cd 90 3c fd cd 22 3d 53 d8 2a 3d 19 50 3c 3b
       0.01767617 0.039747227 0.04171021 0.0028734265
000040 79 78 b1 bc 55 46 75 bc b6 12 10 3c d0 5e 36 bd
       -0.021663891 -0.014970382 0.008793524 -0.044524014
000050 67 39 61 3d ca ad 11 3d 30 52 4f ba b9 be 42 bc
       0.054986384 0.03556613 -0.000790867 -0.011886292
000060 bb 91 5d bd 41 b5 41 bd 28 95 55 3d 8b 1a 5d bd
       -0.054094058 -0.047291998 0.0521442 -0.05398039
000070 b2 e2 83 bd 8e d4 a3 bc eb c3 4b bd 1d 28 7e bd
       -0.06439723 -0.019998815 -0.04974739 -0.062049974
000080 08 16 bf 3c c9 70 35 3c 1e fb 37 3d 22 e1 65 bd
       0.023325935 0.011074253 0.04491722 -0.056122907
000090 83 9a 45 bd e2 5a f6 3c d2 a3 85 bc f2 af 61 3c
       -0.048243057 0.030072633 -0.016313467 0.013774859
0000a0 19 15 09 bd d0 7c 48 3d 95 3e 6d bd 7f 3c 2c 3d
       -0.033467386 0.048947155 -0.05792101 0.04204988
0000b0 16 77 51 bd c1 21 1f bd e0 90 67 bb 75 0a 61 bd
       -0.05113896 -0.03885055 -0.0035334155 -0.054941613
0000c0 61 1a a3 bc 2b 8a f5 3c 1e fc 29 bd 2d b4 3c 3d
       -0.01991004 0.02997311 -0.041500203 0.046070267
0000d0 f3 75 f7 3c cb f4 7b 3d 8a 08 28 3d 4e 27 94 3c
       0.03020761 0.06151275 0.04102377 0.018085148
0000e0 4d bc 34 3c 13 57 36 3d 7a 60 42 3c 8d c0 76 bd
       0.0110312225 0.044516634 0.011863822 -0.060242224
0000f0 d7 ef 2a 3d 21 d7 e2 bc 38 ae 7b ba 30 da b0 3c
       0.041732635 -0.027690472 -0.0009600851 0.021588415
000100 62 f1 01 bd 80 5b ea bb d9 e3 26 bd 7c 14 33 3c
       -0.03172434 -0.007152021 -0.040744636 0.010930177
000110 00 77 c1 bc 67 55 3b 3d 34 c2 9f 3c 20 20 6e bd
       -0.023616314 0.045735743 0.019501783 -0.058136106
000120 57 c2 26 3d 8f 26 cf bc 35 40 33 3c 93 e8 34 3c
       0.04071268 -0.02528694 0.010940601 0.011041778
000130 d0 e3 b2 3b c3 8a 81 3c a4 18 4e bd 7f 38 2a 3c
       0.0054592863 0.015813237 -0.050316468 0.010389446
000140 06 16 20 bd ad 94 8e 3c 6d 84 09 3d 60 23 2b bc
       -0.039083503 0.017404879 0.033573557 -0.010445446
000150 c8 b1 2c bc 06 80 67 bd d3 38 c1 bc 15 a7 70 3d
       -0.010540433 -0.056518577 -0.023586666 0.05875309
000160 40 64 7a 3c e4 93 2e bc 11 9c fc bb f1 a5 4f 3d
       0.0152826905 -0.010655377 -0.0077090343 0.050695363
000170 cc d8 f3 3c dd 15 63 3d 39 8c 2e bd 0f e4 f6 bc
       0.029766463 0.055440772 -0.042614195 -0.030138044
000180 5c fe 41 bd 1c 40 31 bd 00 09 47 3c 5b dd 16 3c
       -0.047361717 -0.04327403 0.012148142 0.009208049
000190 52 2a 70 3d 19 a3 00 bd dd a3 80 3d 7b a7 f6 bc
       0.05863411 -0.031405542 0.062812544 -0.030109158
0001a0 1a 0e 6d 3d 4c 3b 04 bd c0 a6 66 3d 30 b6 31 3d
       0.057874776 -0.032283112 0.05631137 0.04338664
0001b0 02 17 49 3d 4e 04 d0 3c cb f8 28 3c 6b 4f 46 3d
       0.049094208 0.025392678 0.010313223 0.048415583
0001c0 da 2f cd bc bb 10 da bc cc 1a 37 3d fe ab 06 3c
       -0.025047231 -0.026619306 0.04470329 0.008219717
0001d0 c2 04 91 b9 62 61 ef 3c b3 f0 bb 3c 3c a5 da bb
       -0.000276601 0.02922124 0.022941923 -0.0066725295
0001e0 a1 21 a0 3c a0 45 2e 3c 64 4f b4 3c 75 5f 00 bd
       0.019547286 0.010636717 0.022010513 -0.031341035
0001f0 8b c9 52 3d bf d8 aa bc 58 18 6b 3d 1d a9 30 bd
       0.051461738 -0.020855306 0.057396263 -0.04313003
000200 a9 30 34 3d 10 f5 23 bc 38 61 88 3c e8 ae d5 bc
       0.04399172 -0.010007158 0.01664792 -0.026084378
000210 d2 c1 6e bc 68 dc 77 3d 80 b8 7e 3d 44 4d e3 3b
       -0.014572578 0.06051293 0.06218767 0.006936701
000220 f1 cc 1a bd 12 5c 63 bd 27 43 65 ba d6 7a 6f bd
       -0.037793104 -0.055507727 -0.0008745663 -0.058466755
000230 31 62 62 3d f6 56 99 3c ed cf 6c bd 16 d0 0e 3d
       0.055269424 0.018718224 -0.05781548 0.034866415
000240 28 6a d6 3c 8a e9 da 3c 1e 49 33 3d 5a 6e 03 3d
       0.026173666 0.026722688 0.0437709 0.03208766
000250 82 48 58 bd e4 98 a0 3c 8a 5c 08 3d 94 7b 31 3d
       -0.052803524 0.019604154 0.033291377 0.043330744
000260 16 22 54 3d 66 f9 23 bd f9 8e 6a 3d ce 5a 61 3c
       0.05179032 -0.040032767 0.057265256 0.01375456
000270 92 19 0b bd 39 5e d0 bc 48 17 3e 3d 61 98 78 bd
       -0.033959933 -0.025435554 0.04640892 -0.060692195
000280 82 86 0b bd 7c d7 4c 3d 56 38 db 3c f6 ec e2 bc
       -0.034063824 0.05001019 0.026760262 -0.027700882
000290 cf 2c 75 3d 6a 94 87 bc 96 72 64 3d ca 6c dd bc
       0.059857186 -0.016550262 0.05577334 -0.027029414
0002a0 1b e5 5a bd b1 25 24 bd 47 45 59 3d 86 18 c0 bc
       -0.05344115 -0.040075008 0.053044584 -0.023449194
0002b0 53 0b 3f bd c6 2f 45 bd fa c2 19 bd 5e 9e 4a 3d
       -0.04664166 -0.048141263 -0.03753946 0.049467437
0002c0 47 ce 03 3d 73 16 06 3d 6c 64 7b bd cc 6d 73 bd
       0.032179143 0.032736253 -0.061375067 -0.059430882
0002d0 c5 c6 26 bc 4c 66 2a 3d 77 6f 7a 3c 38 42 f3 bc
       -0.010179226 0.041601464 0.015285364 -0.029694661
0002e0 6e fa 02 3c 08 f9 13 3d 15 6b 1c bd ff 5b 51 bd
       0.007994277 0.036126167 -0.03818806 -0.051113125
0002f0 ac 7f 4f 3d d5 01 29 3c cc 04 94 bc d0 a0 50 3d
       0.050658867 0.010315378 -0.018068694 0.050934613
000300 a0 9c 16 bd 21 36 f1 bc 50 b7 c9 bb 01 7f 93 bc
       -0.036770463 -0.029444756 -0.0061558858 -0.018004896
000310 e3 ea 48 3d 69 2c 4d bd 9d c3 cd bc 7b 1d ef bc
       0.04905213 -0.05009118 -0.02511769 -0.029188862
000320 37 3f 47 3d 10 b4 bc 3b 90 f9 1f bd 9f 2d 3a 3d
       0.04864427 0.00575877 -0.03905636 0.045453664
000330 6c 05 c5 3c db de 1e bd ab 0e 1c bd 5c 55 73 bc
       0.024050437 -0.03878675 -0.038099926 -0.014851894
000340 6b 64 4b 3d 77 7d 9f bc 31 48 f9 3c d0 2e 47 bd
       0.049656313 -0.019469006 0.030429931 -0.04862863
000350 03 11 e0 bb 71 33 30 3d a8 9b 6a 3d 48 d3 20 3d
       -0.0068379655 0.04301781 0.05727735 0.039263994
000360 86 b0 c6 3c e8 fc 00 bd 40 b1 61 3d 16 5a a3 3c
       0.024254095 -0.03149119 0.05510068 0.019940417
000370 d8 cb f4 3c be 94 49 3d 36 86 4e bd c5 c6 47 bd
       0.029882357 0.049214117 -0.050420962 -0.048773546
000380 1d 2f 4d 3d 60 6f 6d 3b 26 b2 3f 3d bc 4e 1e 3c
       0.05009376 0.0036229715 0.046800755 0.009662326
000390 48 8b d8 bc d8 b7 52 3c e6 80 e5 3c 26 4d 0a bd
       -0.026433602 0.012861215 0.028015565 -0.03376498
0003a0 ab 74 67 3d 3b 05 df bc 40 7f 52 3d 49 3a 46 3d
       0.056507748 -0.027224174 0.051390886 0.04839543
0003b0 76 96 c0 bc 16 a4 98 ba 36 57 7e 3c d5 cb 63 bc
       -0.023509245 -0.0011645581 0.015523722 -0.013903578
0003c0 73 ec 34 bd 04 a3 21 bb e8 07 2a bd 0b e1 e9 3c
       -0.044170808 -0.0024663815 -0.041511446 0.028549692
0003d0 9e 52 d0 3c 0e 32 cf bc 28 67 54 bc a0 51 46 bd
       0.02543002 -0.025292423 -0.0129640475 -0.048417687
0003e0 90 d1 45 3d 58 7a 2c 3c 4d 0a b7 bc 02 f4 80 3d
       0.048295557 0.010527216 -0.022343779 0.06296541
0003f0 f6 2a 61 bd 1f 1c 36 bd 2f 90 7d bd ed 11 79 bd
       -0.05497261 -0.044460412 -0.061905082 -0.06080811

net.2.bias f4 [256]
000000 2c 58 42 bd 05 5e 00 bd 42 ea 46 bc 88 3c 76 3d
       -0.04744737 -0.031339664 -0.012140812 0.06011632
000010 36 06 60 3d a0 5a bd 3c f6 4e 58 3d d9 ec dd bc
       0.054693423 0.023114502 0.052809678 -0.027090477
000020 60 e2 bf bc 65 02 69 3d aa 85 f5 3c 1b bd 46 bd
       -0.023423374 0.05688705 0.029970963 -0.04852019
000030 00 88 cb b9 5e 83 89 3b e0 3a fe bc 12 26 5c 3d
       -0.00038820505 0.0041965684 -0.031033933 0.053747244
000040 ee 37 54 3d da c4 94 bc 4d b5 d2 bc 7a 8b fc bc
       0.05181115 -0.018160272 -0.025721217 -0.030828226
000050 2e 9d 90 3c 7c 7f 5d bd da a0 2f 3c f7 3d f5 3c
       0.017653074 -0.054076657 0.010719502 0.029936774
000060 be 8c 1c bd 00 35 eb 3b 0b ea e3 bc a6 2b a3 bc
       -0.03822016 0.007177949 -0.027821561 -0.019918274
000070 29 c3 c4 3b 09 09 79 bd 15 af c6 3b 90 4c fa 3a
       0.00600471 -0.060799632 0.006063352 0.0019096304
000080 70 49 28 3d 58 ec 5a 3d ae 8f 6b bb 12 73 a1 bc
       0.04108566 0.05344805 -0.0035943794 -0.01970819
000090 5d 96 58 3d ce 0e f6 bc 78 f2 5d bc 62 91 44 bd
       0.052877773 -0.030036356 -0.013546579 -0.04799021
0000a0 b4 12 ca 3b 75 63 1b 3d 48 10 6a 3c 18 af 4a bc
       0.0061667804 0.037936646 0.014286108 -0.012370847
0000b0 86 c0 2c bd 7d 43 1f bd 37 61 73 bd 2f 24 4b 3c
       -0.042175792 -0.03888272 -0.059418883 0.012398764
0000c0 fa 7d 5d bd 93 05 43 3b 3a a2 78 bd 65 12 60 bd
       -0.05407522 0.0029757961 -0.060701586 -0.054705042
0000d0 30 a5 13 bd 43 59 67 3d fb f0 9a 3c 84 6d 4d 3d
       -0.036046207 0.05648161 0.018913737 0.05015327
0000e0 7e 3d 94 bc e9 c7 35 bc e1 42 5a 3d 93 21 b7 bc
       -0.018095728 -0.011095026 0.053286437 -0.022354877
0000f0 2b 42 81 3c f8 02 12 3c ee bf 22 3c 20 22 5f bc
       0.015778622 0.008911841 0.009933455 -0.013618976
000100 78 12 64 bc d5 7d 2b bd 27 8c 65 bc fb 02 11 bb
       -0.013920419 -0.04186805 -0.014010466 -0.002212702
000110 8c 70 e7 bc 4d d8 2c 3d 1b 9e 5f 3d 13 31 db 3c
       -0.028251909 0.042198468 0.05459414 0.026756799
000120 6a 32 8a bc 0c 32 45 bd 94 98 3b 3d 5e e3 fd bc
       -0.016869742 -0.04814343 0.045799807 -0.030992206
000130 3b e1 c7 bc f4 31 99 bc 48 59 1e bd d5 8c 57 3d
       -0.02439939 -0.018700577 -0.038659364 0.052624542
000140 e5 19 2b 3b 41 ec 03 bd ea 3f 4c 3a 6f 2c 83 bd
       0.0026107964 -0.03220773 0.00077915064 -0.064049594
000150 81 4b 56 3d 9c d4 ab 3c 5f 39 ae 3c 38 17 12 bc
       0.0523181 0.020975403 0.021267591 -0.008916669
000160 63 66 5d 3c ad a1 7d 3c c7 f4 14 3d 5e 43 28 3d
       0.01351318 0.015480441 0.03636625 0.04107987
000170 52 93 42 bd ce e7 68 3d d4 3d 02 bb 30 85 6e bd
       -0.047503777 0.05686169 -0.0019873278 -0.058232486
000180 68 10 65 bc 8f cd 17 3d 00 43 9c bc bd 86 1e 3c
       -0.013980962 0.03706127 -0.019074917 0.009675679
000190 5e 2f 0e 3d 6e b6 69 bd 2e d2 5e bd b1 b0 1c bd
       0.03471314 -0.057058744 -0.05439966 -0.038254444
0001a0 c1 87 1f bd a9 c7 f8 bc 9f ad 73 3d a1 1c e5 3b
       -0.038947824 -0.030368643 0.05949175 0.006991938
0001b0 ee 1e 33 3d 1c 5c 62 3d f1 d9 25 3d 2c 2f c1 3c
       0.04373067 0.055263624 0.04049105 0.023582064
0001c0 ce 2e 75 bd b3 91 ad 3c 9b d0 53 3d 4b 78 3c bd
       -0.05985909 0.021187639 0.051712614 -0.046013158
0001d0 86 53 5f 3d aa 5a 26 3d 2d 77 80 3b 79 50 cd 3c
       0.054523014 0.040613808 0.003920457 0.025062786
0001e0 4c c2 34 3d 90 c3 6e bd a0 4c 20 bd d7 df 09 bd
       0.04413061 -0.05829197 -0.039135575 -0.033660736
0001f0 b8 cb a0 bc 7e f0 04 bd 2b 0d 83 3d ed eb 6c bd
       -0.01962839 -0.032455914 0.06398996 -0.057842184
000200 be bc f9 3c 38 be 55 bd dd 62 86 3d e7 7c af 3c
       0.030485507 -0.05218336 0.065618254 0.021421863
000210 3a 9b 5b bd 54 0f b0 3c 71 93 23 b9 28 22 7d bc
       -0.053614832 0.021491684 -0.00015599818 -0.015450038
000220 a3 f7 2f bc aa 47 6f bd 4c c7 af 3c aa b1 20 3d
       -0.010740194 -0.058417954 0.021457337 0.039231934
000230 b9 46 8c bb 24 cc 09 3c 55 33 60 3c 7f 4f 06 bd
       -0.0042808917 0.008410487 0.0136841135 -0.032790657
000240 2f 94 20 3c 87 10 c4 bc 69 61 70 3d 24 54 5b bd
       0.009800955 -0.023933662 0.058686648 -0.05354704
000250 72 67 5c 3d 6f f0 3c bd 21 c7 8d bc 8a d2 bd bc
       0.05380959 -0.046127733 -0.017306866 -0.023171682
000260 d8 45 51 bc 20 ce 09 bd 20 0d 4d 3d f9 50 69 3d
       -0.012773 -0.03364384 0.050061345 0.056961987
000270 e9 1e 9e bb dd f7 77 3d 15 9c 4e 3c 75 7b 28 bd
       -0.004825462 0.060539115 0.012610455 -0.041133363
000280 67 48 ef 3c e0 a0 f3 bc 2a 57 76 bd 57 b1 02 3c
       0.029209329 -0.029739797 -0.06014172 0.007976851
000290 7d 0c 36 3d 3d 3b 56 3c 34 ea 14 3d 1e f9 63 3d
       0.044445504 0.013075647 0.036356166 0.0556575
0002a0 f6 33 46 3d 88 8e 0b bc ef fa c1 3c 3a fa 51 bd
       0.048389398 -0.008517869 0.023679225 -0.051264025
0002b0 cd 42 7b 3d b5 f4 20 3d 62 87 8d 3c 3e 97 1a bd
       0.061343003 0.03929587 0.01727647 -0.037741892
0002c0 b0 e1 18 3c 55 f1 6f bd 9c 40 8b bc cb 7c 79 3d
       0.009331152 -0.05857976 -0.016998582 0.060910027
0002d0 58 e7 16 3d 48 97 21 bd 5f fc 10 3d 0a 95 b9 3b
       0.03684172 -0.039450914 0.03539693 0.005663519
0002e0 9a 9d 75 3d 8e 86 1d bd bb a2 41 bd e0 15 a0 bc
       0.059964754 -0.0384584 -0.047274332 -0.01954168
0002f0 ba 9f c5 bc 1a 56 1b bd 1c eb e2 bc 88 59 80 bc
       -0.024124015 -0.03792391 -0.0277 -0.015667692
000300 36 a7 49 3d b7 bf 56 3c 57 7e 51 3b 08 44 56 3a
       0.04923173 0.013107232 0.0031966174 0.00081735896
000310 40 d8 ee bc b8 63 ed bb 46 85 23 3d 99 0f c1 3b
       -0.02915585 -0.0072445534 0.03992202 0.005891752
000320 b8 6a 8f 3c 2c 5a 40 bd 44 67 0d 3d 57 2d 5d bd
       0.017506942 -0.046960995 0.03452231 -0.053998318
000330 01 73 44 3d 7a 40 2c 3d aa 39 3a 3d bc 8a 5b 3c
       0.04796124 0.042053677 0.04546515 0.013399776
000340 04 7d 6f 3d ea c9 53 bd 9e 6d 07 bc 21 be 83 3c
       0.058468834 -0.051706232 -0.008265881 0.016081871
000350 9c 12 df 3c f4 22 57 3d 07 c2 6c bd c3 8c 35 3d
       0.027230553 0.05252357 -0.057802226 0.044323694
000360 48 55 43 3d 43 ff 3e 3d 07 d7 36 bd 14 96 53 bd
       0.047688752 0.046630155 -0.04463866 -0.051656798
000370 5a 5d a3 bc 20 75 2f 3d 24 77 cb bc 35 9d 5a 3d
       -0.019941974 0.04283631 -0.024837084 0.05337258
000380 62 6c 48 3c 5d c0 58 bd fe ab 11 bd 37 36 c6 bb
       0.012232872 -0.052917827 -0.035564415 -0.0060489434
000390 d6 8b 84 3d 66 eb 1a bb 44 a1 24 bd 7a ae 31 3d
       0.06471984 -0.0023638844 -0.040192857 0.043379284
0003a0 49 37 d4 3b 15 03 cb bb f8 84 12 3d 78 e7 16 3d
       0.006476317 -0.0061954358 0.03577134 0.03684184
0003b0 32 0d 4e bc 44 f7 ec 3c 95 5c f4 bc a6 a3 21 3c
       -0.012576388 0.0289265 -0.029829303 0.009865677
0003c0 5d b3 7c bd 4e d1 be 3b be 50 77 bd 4b 6a 3b bd
       -0.06169449 0.005823291 -0.060379736 -0.045755666
0003d0 0c 6b 7d bd 48 53 4f 3c 43 ee 9c 3a 49 4d 30 3d
       -0.061869666 0.012654133 0.0011972863 0.043042455
0003e0 d2 e3 61 bd 77 f7 8b bb 8a a4 72 3d be 47 51 bd
       -0.055148907 -0.0042714435 0.059238948 -0.05109381
0003f0 dc 86 2f bd 5b 55 d1 3c 63 f0 41 3d 36 d0 0b bd
       -0.04285322 0.025553396 0.04734839 -0.034134112

net.4.weight f4 [4, 256]
000000 3b 83 52 3d 4b c7 69 3d e0 f1 02 3d 6b 9f b4 bc
       0.051394682 0.057074826 0.03196895 -0.022048673
000010 db 12 27 3d 7c 43 5d 3d aa e4 f3 bc be bc fb 3c
       0.040789466 0.054019436 -0.029772121 0.030729648
000020 cc d9 80 bc b1 ae 34 bc 7a 8a 3f 3d 3d 32 9c bc
       -0.015728854 -0.011027978 0.04676292 -0.019066924
000030 64 28 de bc c3 5d 80 bd 80 2d 1e bc f4 e1 61 bd
       -0.02711887 -0.06267884 -0.009654403 -0.055147126
000040 a4 af 55 bc 22 65 73 bd b7 5f e1 bc 10 61 ca 3c
       -0.013042364 -0.05942262 -0.02751146 0.024704486
000050 62 01 0e 3d 64 61 b0 3c 24 93 27 3c 8e 4f 55 bc
       0.034669288 0.021530814 0.010227952 -0.013019456
000060 2a 53 12 3d e6 ca dc 3c 5c 40 f7 3c b0 83 0f 3d
       0.035723843 0.026952218 0.030182056 0.035037696
000070 eb 2d bb 3a 35 01 50 bc 1b ed 48 bd 65 9a 29 bd
       0.0014280652 -0.0126956 -0.049054246 -0.041407008
000080 02 fc 7d bc b9 e4 f3 bc a3 4a 3a bd f6 e7 7b bd
       -0.015501978 -0.02977215 -0.045481335 -0.061500512
000090 e3 ef d0 3c a8 a3 26 bd 69 08 5a bd 03 1f 77 bd
       0.025505012 -0.04068342 -0.053230677 -0.06033231
0000a0 a0 22 33 bb 9b fd 74 3c 86 af 16 3d a3 e6 33 3d
       -0.002733387 0.014953042 0.036788486 0.043921124
0000b0 00 dd 64 3d 20 5f 36 bc 66 a0 dc 3c c5 5b 24 bd
       0.055874825 -0.011131078 0.026931953 -0.04012658
0000c0 28 31 09 bc dc 3f 6e 3d 7c 4e 68 3d e0 c9 40 bb
       -0.008373536 0.05816637 0.056715474 -0.0029417202
0000d0 5c cd d4 3c 5b da ba bc b3 58 1d 3d 23 98 99 bb
       0.02597683 -0.022809198 0.03841467 -0.0046873256
0000e0 4c 3b 6e bd 46 4c 5a 3d 15 be 46 3d ba 0b 3f bd
       -0.05816202 0.053295396 0.04852112 -0.046642043
0000f0 af 79 c4 39 a6 9f 41 3d 37 58 5e bd 48 b4 40 3c
       0.00037474695 0.047271393 -0.054283347 0.011761732
000100 5c a8 41 bd f4 bf 29 3d b8 83 02 3d 13 49 20 bd
       -0.0472797 0.041442826 0.031863898 -0.03913219
000110 c0 bd ce bb db 38 17 3c 15 8d 1e 3d 86 df 21 3d
       -0.006309241 0.009229864 0.038708765 0.03951981
000120 5a 70 8c 3c 2b f1 0f 3d c0 59 24 3b a9 a1 c4 bb
       0.017143417 0.035142105 0.002507791 -0.0060007167
000130 42 6e 00 3d 5f 66 17 3d cc 60 27 bd 0d 63 4e bd
       0.03135515 0.036962863 -0.040863797 -0.05038743
000140 19 e6 4a 3d 7e 64 cf bc 4f a0 0d bd bc 2e 48 3d
       0.049535844 -0.025316473 -0.03457671 0.048872694
000150 0c 3e 7f bd 58 a4 5f 3d f4 7f f1 3c ed 84 7e bd
       -0.062315032 0.05460009 0.029479958 -0.062138487
000160 fb ce 5e bd 82 5b c9 3c ac 8d 04 bb 49 9d 48 3d
       -0.05439661 0.024579767 -0.0020226045 0.048978124
000170 b8 cc 2d bc e0 66 32 bd 2f 4f b3 3c 26 38 7d bd
       -0.010607891 -0.04355514 0.021888344 -0.061821125
000180 8a f9 65 bd 00 e0 51 bc 36 8f 57 3d c9 be 17 bd
       -0.056146182 -0.012809753 0.05262681 -0.03704718
000190 95 1d 45 3d 40 8e ad bb 5b 66 b3 3c 8f 18 3e 3d
       0.048123915 -0.0052964985 0.021899393 0.04641014
0001a0 45 b8 64 3d cc 2a eb 3c e5 c4 7e 3d 5a d6 9d 3c
       0.055839796 0.02870693 0.062199492 0.01926725
0001b0 aa d2 58 3d f5 4b 5a 3d 7c d1 6a bd c0 89 e9 bc
       0.05293528 0.053295095 -0.057328686 -0.028508067
0001c0 22 51 0d bd 5a eb e6 bc 47 37 67 bd 88 18 f2 bc
       -0.034501202 -0.028188396 -0.0564492 -0.029552713
0001d0 84 8a 4e bb 69 8e 0b bd fd 0d 18 bd 4a ac 43 bd
       -0.0031515667 -0.03407136 -0.037122715 -0.04777173
0001e0 1e bf 73 bd de 46 5a 3c 08 1c 2f 3c ea 24 15 3d
       -0.059508435 0.01332256 0.0106878355 0.036412157
0001f0 42 8d 1c 3d a5 66 61 bc 0e d3 d4 bc f6 5e bf 3c
       0.03822065 -0.0137573825 -0.025979545 0.02336071
000200 14 57 e3 3c b8 df 39 bd 67 f0 47 bd 76 d4 6d bd
       0.027751483 -0.04537937 -0.04881325 -0.058063947
000210 00 78 a2 bc 60 d1 5f 3b d6 65 1f bc ac f3 a4 bc
       -0.019832611 0.0034151897 -0.009728869 -0.020135723
000220 2d 45 77 bd a3 f1 53 bd 66 00 5f 3d e0 1f 72 bc
       -0.060368706 -0.051744115 0.05444374 -0.014778107
000230 90 03 2a 3d fd 29 55 bd dd c7 2a bd 96 b7 00 3c
       0.041507304 -0.052041996 -0.04169451 0.00785627
000240 28 39 7c 3c 70 40 40 3d 33 29 d4 bc d6 fa 62 3d
       0.0153944865 0.046936452 -0.025898552 0.055414997
000250 2f 3f 7b 3d 9e f2 19 3c 5f 27 28 3d ca f8 1c 3d
       0.061339553 0.009396223 0.041053172 0.0383232
000260 a0 de ad bb 62 49 70 3d ba 70 b5 3a 55 4e 4c 3d
       -0.00530608 0.058663733 0.0013842799 0.04987939
000270 4c c5 20 3d 3f 36 06 3d e0 14 90 3b b1 02 ce bc
       0.039250657 0.032766577 0.0043970197 -0.025147768
000280 89 a8 b4 bc 50 9a 4f bc fa a8 77 bd fa 4f af 3c
       -0.02205302 -0.012671068 -0.060463883 0.02140044
000290 6a 42 7a bd e9 a5 d5 bc fa 3d 45 bd d2 c0 06 3d
       -0.061098494 -0.026080089 -0.04815481 0.03289873
0002a0 21 5a 1c 3d f0 d4 db bb 91 ca 0a bd a9 a3 16 bd
       0.03817189 -0.0067087337 -0.03388459 -0.036777172
0002b0 97 2f 35 bd 2f 01 4f bd f2 5e 12 bd 52 22 41 bd
       -0.04423484 -0.05053824 -0.03573508 -0.04715187
0002c0 18 b4 eb 3c 92 70 51 3d bc 57 0c bd 09 3b a5 3c
       0.028772399 0.051132746 -0.034263358 0.020169752
0002d0 fa fe 4d bd 91 76 d2 3c 62 de 83 bc 6a b8 b9 bc
       -0.050291993 0.025691302 -0.016097251 -0.022670943
0002e0 ab e1 84 3c d7 b5 c6 3c bd 1f af bb 46 5a 58 3d
       0.016220888 0.02425663 -0.0053443597 0.052820466
0002f0 ac 4b 7d bd eb 94 87 bb 24 a7 76 bd 23 63 36 3d
       -0.061839744 -0.0041376255 -0.06021799 0.044528138
000300 c0 ee 6c 3d 68 71 f1 ba 4f 57 2f 3d ec 16 2d bd
       0.057844877 -0.0018420639 0.042807873 -0.042258188
000310 75 f6 71 bd 1c 7a 55 3d f0 a3 36 3d c7 8f 8e bc
       -0.05907293 0.052118406 0.044589937 -0.017402543
000320 29 d2 2e 3d 00 53 36 bd 0d 7c 53 bd 12 5e 60 3d
       0.042680893 -0.04451275 -0.051631976 0.054777212
000330 6d 1e 52 3d af da 2e 3d 8c 37 04 bb 04 cf 00 bd
       0.051298548 0.04268902 -0.002017471 -0.031447425
000340 c8 f2 98 bc e0 5e a8 3c ef ab 2a bc cc 2f c9 3c
       -0.018670455 0.020553052 -0.010416969 0.024558924
000350 c1 4a 6b bc ab c4 c1 3c f0 14 6f bc 53 27 c7 3c
       -0.014361084 0.023653349 -0.014592394 0.024310743
000360 57 56 21 3d e0 ec 57 bd 4f fb 0f 3d 78 48 5b bc
       0.03938898 -0.052716136 0.035151776 -0.013383977
000370 59 17 0c 3d 8f 22 13 3d 08 9f 4a bd ed c0 a0 bc
       0.034201954 0.03592163 -0.04946807 -0.019623244
000380 38 ed 80 bc 6f f9 44 3d bb 7c ca 3c af b4 2d 3d
       -0.015738115 0.04808944 0.02471768 0.04240864
000390 0f 43 42 bd f0 29 38 bd 02 b4 0c 3d c4 14 53 3d
       -0.047427233 -0.04496187 0.034351356 0.051533476
0003a0 ec 8c 00 3c 9e 80 3d 3d df cd a5 ba 94 fd e7 3c
       0.007846098 0.046265237 -0.0012649855 0.028319158
0003b0 71 a9 bc bc 92 68 2b 3c 8b 5b 82 3c 24 00 24 3d
       -0.023030015 0.010461943 0.015912792 0.040039197
0003c0 44 c9 09 bd 46 37 dc bc b2 df 51 bd ae 1b 67 bd
       -0.033639207 -0.026881825 -0.051238723 -0.05642288
0003d0 f4 4a c4 3c 78 0e 5a bd 14 79 62 bd 5b ac 6c bd
       0.023961522 -0.053236455 -0.05529125 -0.05778156
0003e0 dc fa 46 bd c2 a1 40 3d 51 90 a5 3c 48 cb 98 3c
       -0.048579082 0.047029264 0.020210417 0.01865162
0003f0 a4 be f2 3c 1d 4f 07 3d 60 17 36 3d dd c7 e4 bc
       0.02963192 0.033034433 0.044455886 -0.027927333

net.4.bias f4 [4]
000000 0b 3d 0f 3d 0c 6a 44 3d 93 d8 72 3d dd 9d 3b 3d
       0.034970324 0.047952697 0.059288573 0.045804847
