dqn_learning/wait/models/modelstatedict_4.pth (torch, 292191 bytes, 6 tensors)

net.0.weight f4 [256, 21]
00000000: 3468 03bd 20ef bc3b 31dd 9c3d a3ba db3d
00000010: 34d7 483e 03ad 41be 3807 b4bd ef6f 30be
00000020: b74f 0cbe fc27 cdbd 3773 14be 8e49 c43d
00000030: af7f 41be a25d 5b3e e399 0dbe 7dc9 9a3c
00000040: d680 033e 3118 013e 4aaa 483e c86c 183e
00000050: dab3 57be 669a 9d3d cc5e 5dbe 301b 37bc
00000060: da88 c13d 2201 b93d 13c5 06be 1682 05be
00000070: c85c 923c 243b 073d 86ad e13d c85f 38be
00000080: f27d 4abe a4a3 4b3d 4669 15be 88e2 12be
00000090: a26a 12be 2697 b53d 9de7 04be efbc 283e
000000a0: cd08 33be 601e 8ebd 8e4a 20be d2a6 c83c
000000b0: 7685 00be 952d 24be 1a18 51be b7b8 a53d
000000c0: 19c2 1bbe df90 293e a3c1 48be 6966 8abd
000000d0: 353f 06be 37d1 213e 16bb 133e 8904 14be
000000e0: fea5 18be 35c1 10be 5a23 ba3d 6c85 2c3c
000000f0: 501f 843d 2961 453e eb24 c0bd a2eb 17be
00000100: caed 1bbe ad2e 1b3d 5a5a 57be e784 a9bd
00000110: 36b1 9bbc dc73 c3bd 7c7d de3d da0a a7bc
00000120: 6a74 fdbc 556a 293e fe57 71bd 32e7 093e
00000130: b00d adbd 768a eb3d e50a c1bd 0dd7 043e
00000140: 4b68 30be 0bfe 54be 736c 29be 877f ddbc
00000150: 173f 0abe 2e1e bcbd 00eb 74bc 462c f13d
00000160: 7c46 60bd 505f 7abd f897 44be 221b d23d
00000170: 52b4 a43d 60fd 8e3b 429d f63d 1a51 acbd
00000180: 8648 f63d 00b7 aabd bcbd 123d be3f ce3d
00000190: 5a88 46be f7b6 08be 1803 49be e69e 23be
000001a0: 88d8 4bbe 7618 97bd e430 10be 7829 4ebe
000001b0: 4243 503d 6168 c1bc 5971 813d c7dc 1e3e
000001c0: e031 563e 84ba 5a3e 3bd6 53bd 1635 50be
000001d0: be99 143e 20a0 293e ea58 ebbd 867a 8abd
000001e0: 32b2 b8bc 15bb c23d 227a b33d 063f eebd
000001f0: 66a5 d9bd 8ba0 9c3d 4e5a d8bd 0531 fdbc
00000200: 4d27 c73d 0e6e 083e 78fb 62bd a8b4 bbbc
00000210: 75d2 223e d8b0 56be 7df8 18bc c78d c8bd
00000220: e4a7 063e c50a 443e b262 1e3e 5090 6d3c
00000230: 655c bb3c c8b9 a2bd 5a8f 9fbc 2acc aebd
00000240: 3dba 5e3e ee7a 633c 1515 0cbe 71bc 893c
00000250: dd48 333e 395a 72bd 90e6 2b3e 57ae bebd
00000260: 96c2 2a3e 4798 48bd 5e25 593e 4e3f 103e
00000270: 79e7 8f3d ba12 973c 0f6c 163c 46f0 ddbd
00000280: 0905 e63d fff5 bcbc 51ab 0c3e f088 7ebd
00000290: bbac 1ebd 3ffb 233e 0747 063e ee8c 3d3e
000002a0: 0116 2cbe 90c9 4a3d d79a b3bd 5056 0d3e
000002b0: 4dd5 19bd 084a 403e 012e 033e b8b9 6dbd
000002c0: 4e6b 3b3e 0d00 56be 0b16 153e b03c 0dbd
000002d0: 5855 debd 1bfe 9bbd 8866 a03d 61e7 553e
000002e0: 4795 8cbd 01c2 44be 9c64 013e a2b0 1b3e
000002f0: 49b2 613e 959a c83d 30a5 a8bd 8d0c e93d
00000300: 7dea bc3c 590a 4dbe acbe edbd f090 b63d
00000310: 7635 113e 49fc 5dbc bbac 573d 5180 eb3c
00000320: 4ee0 2bbe f1d2 56be 75f1 543e 6fa0 e33d
00000330: 9d92 2cbe 9846 553d b201 4e3d 257e 55be
00000340: 88c7 0c3e c261 3b3e 9c5f d23c 8248 9abd
00000350: f131 1e3e 2251 05be a9d2 5dbe 3726 a4bc
00000360: 49c4 eebd 7b6e 49be 853a 2bb8 a18b b23c
00000370: 44f3 973a 12d0 7a3d d956 193d de33 fe3d
00000380: 0d30 3bbe ea0c fbbd fd7e 7bbd aa82 42bd
00000390: ad66 5b3e 1c8c e8bb 8ba5 32be e042 bebd
000003a0: 2701 153e fec9 a03d 7067 74bd 80c5 70bc
000003b0: ede1 45be b484 383d fb77 efbd b265 05be
000003c0: 00eb 4abc f462 2bbe d186 4fbe 3052 033c
000003d0: 5eb8 d63d 909c e9bd 1ab6 f23d 382f 4ebd
000003e0: a023 afbd d86d 01bd c35e 333e 02d5 eb3d
000003f0: 99e9 953d 936d 41be 5ca5 b43d 40c8 fe3d
-0.032081798 0.0057658106 0.076593764 0.107289575 0.19613343 -0.18913655 -0.08790439 -0.172302
-0.13702284 -0.10017392 -0.14497076 0.09584342 -0.18896364 0.21422437 -0.13828234 0.018894905
0.12842116 0.12606885 0.1959621 0.14885247 -0.21064702 0.07695465 -0.21618193 -0.011175916
0.094499305 0.09033419 -0.13161115 -0.13037905 0.017866507 0.033015385 0.11019425 -0.18005288
-0.19774607 0.049716607 -0.1459094 -0.14344227 -0.1429849 0.0886672 -0.12978978 0.16478322
-0.17483826 -0.06939387 -0.1565344 0.024493609 -0.12550911 -0.16033013 -0.2041935 0.08091872
-0.15210761 0.1655917 -0.19605117 -0.067578144 -0.13110049 0.15802465 0.14426836 -0.14454855
-0.14907071 -0.14136203 0.09088774 0.010529857 0.06451285 0.19275345 -0.093820415 -0.1483598
-0.15227428 0.03788631 -0.2103056 -0.08277302 -0.0190054 -0.09543583 0.10863778 -0.020390917
-0.0309393 0.16544469 -0.058921807 0.134671 -0.08449876 0.11501019 -0.09425906 0.1297266
-0.17227285 -0.20800035 -0.16545276 -0.027038349 -0.1350063 -0.09185444 -0.0149486065 0.117760226
-0.05475472 -0.061126053 -0.19198596 0.102590814 0.08042206 0.0043637007 0.12041713 -0.084139064
0.120255515 -0.08335686 0.035825476 0.100707516 -0.19387951 -0.13351046 -0.19630086 -0.15978584
-0.19906819 -0.073777124 -0.1408115 -0.20133007 0.050845392 -0.023609342 0.063204475 0.15513907
0.20917463 0.21360213 -0.051717978 -0.2033275 0.14511773 0.16564989 -0.114915684 -0.06761651
-0.022545908 0.09508339 0.08763529 -0.116331145 -0.106272504 0.07647809 -0.10564099 -0.030907163
0.09724293 0.13323233 -0.0554156 -0.022913292 0.15900595 -0.20965898 -0.009336588 -0.09792667
0.13149983 0.19144733 0.15467337 0.014499739 0.022871206 -0.07945591 -0.019477535 -0.08535035
0.21750732 0.013884289 -0.13679917 0.016813489 0.17508264 -0.059168074 0.16787171 -0.093105964
0.16675791 -0.048973348 0.2120566 0.14086649 0.07026572 0.018441547 0.009181037 -0.10836844
0.11231429 -0.023066519 0.13737227 -0.062142313 -0.038738947 0.16013812 0.13113032 0.18510792
-0.16805269 0.04950863 -0.08769768 0.13802457 -0.037556935 0.1877824 0.12810518 -0.058038443
0.18302652 -0.20898457 0.1455919 -0.034481704 -0.10856122 -0.07616826 0.07832056 0.20889045
-0.0686441 -0.19214632 0.12636036 0.15204099 0.22040667 0.09795109 -0.08234632 0.11379347
0.023061031 -0.20023479 -0.116086334 0.089143634 0.1418055 -0.013548919 0.052654963 0.02874771
-0.16784784 -0.20978905 0.20795234 0.11114585 -0.16852804 0.052069277 0.050294586 -0.20848902
0.1374799 0.1829901 0.025680356 -0.07533361 0.15448739 -0.13019231 -0.21662392 -0.020037754
-0.11658532 -0.19671051 -4.0824078e-05 0.021795096 0.0011592885 0.061233588 0.03743634 0.12412237
-0.18280049 -0.122583225 -0.061400402 -0.047487892 0.21425886 -0.0070967805 -0.17445962 -0.09290099
0.14551221 0.07851027 -0.05966896 -0.014695525 -0.19324465 0.04504843 -0.11692806 -0.13027075
-0.01238513 -0.16736966 -0.20266272 0.0080152005 0.10484384 -0.11406815 0.11851139 -0.050338
-0.08551717 -0.031598896 0.17516617 0.115152374 0.07319946 -0.18889455 0.08820602 0.124405384

net.0.bias f4 [256]
00000000: 69a3 1dbe 9267 10be 1973 353e c59f 273e
00000010: 68ea 28be 35c3 3dbe 261f 84bc 80cc b0bd
00000020: d6c3 c1bd 1836 5f3d 3e10 08bc 2224 24be
00000030: b3f2 b0bd 975b 9ebc c0af 9c3d 5a30 5b3e
00000040: a2ef d1bd 1b78 0abe 00a0 853d 5b02 e23d
00000050: ebd5 683e 7bbb b7bd 0281 27be 7ca1 18be
00000060: 6845 f8bb eede 32be cb96 2bbd 654e 7c3b
00000070: 17ed 893b cf02 64bc 7dd9 bfbd 8293 bebc
00000080: 061f 143e 3486 fa3c cabf 94bc 2715 a7bd
00000090: 8f4d 0c3e 8626 113e 0b28 52be 61aa 7d3c
000000a0: d75c a13d 31f7 09be 0e6f 5f3e f980 4abe
000000b0: d65c 143e a9cc cdbd 8676 4c3d 0cd7 ffbd
000000c0: 6d4e 113e 4ed5 a23d f748 01be 85b5 3cbe
000000d0: 7a18 4e3e 82bb 5fbd 9180 bd3d 086c 2dbe
000000e0: cb35 983d b3c5 263e c61c ef3d 3549 cebd
000000f0: 8dc6 2fbd c442 0fbe 266a 42be 2f19 573e
00000100: a360 473c 12aa 8c3d 1f57 063e 2637 62be
00000110: f2e9 683d 9da0 783b 9627 003e 7a30 443d
00000120: 9a06 883d 4e6e 1e3c cded e5bc b0b0 acbd
00000130: 4ba8 e9bd ede8 193e 362c 8bbd 6b66 babc
00000140: 0567 48be cae6 58be d346 a3bd 0c71 12bb
00000150: f0bd c5bc 76ec 9f3d 128c d0bd d136 2ebd
00000160: 5392 283e 1e4c 443d ca2e debc 2c62 22be
00000170: ef3d 60bd d131 a13d 14a2 a33d cefe 03be
00000180: 286d d53d 7280 2a3e 8cd6 be3d a483 1ebe
00000190: c013 e43d 89f1 b7bd 251a bebd 7b69 9d3d
000001a0: 15e5 e3bc c321 35be 00ee 20bc c59a a33c
000001b0: 386c 4a3e 6434 0cbe deee 253e ac5d cbbd
000001c0: 5abf 513d 5bb0 44be 24f0 d4bd c128 86bd
000001d0: 175d 463e cc09 393e 80c3 24be 3e1d cc3d
000001e0: 6a6f 4d3e 010e c83d 41ce 66bc 48a0 723c
000001f0: cbe6 10bd 46aa e3bc 3742 b33c 031a c23d
00000200: 6c74 4bbe b228 03be 34db 7d3d 2d5a f5bd
00000210: ea99 363e 38c1 1b3e 506b e5bd 8504 d03b
00000220: 3572 f1bc 02da 453e 824b 13be 1c5d b6bc
00000230: e6b6 09be 4d16 bcbd 09b4 50be bcf7 643c
00000240: 41f3 85bc 6f2f 08be d12f 96bc 823a 553e
00000250: b5a7 b4bd c1bf 503e 729e 37bd b6c5 e5bd
00000260: bea4 18be e6f1 24be 1e8a 2bbe cd40 e83d
00000270: ca66 4fbe 66e4 b73c 1403 823d 9f3f a2bc
00000280: 3aeb 55bd d2bc 75bc cd0f 433e 0d0e f8bd
00000290: 6f20 24be 559c f53d d0ce 3bbe af69 0ebe
000002a0: b7bc eebd be3a 583d b048 513e 9ee8 a3bd
000002b0: 227d 173e c785 063e 62b6 2b3e b7d2 e9bd
000002c0: 46fa bd3d f39c 8fbd 4dcf fb3d 4bb1 30bd
000002d0: a849 d53b 500e b2bd d0b8 58be 9879 cfbd
000002e0: cca8 fabd 4e91 43bd 90e4 923b 7613 b4bc
000002f0: 2efc 46bd b49a 01be 19e5 23bd 38e8 02be
00000300: 07df 5a3e 684a c5bd 4546 50be 1328 15be
00000310: e08f 043d b4ce c53d 15c0 1cbe 0584 21bd
00000320: 269f 8cbd a8fe 02be a862 1d3d baea b5bc
00000330: 6fe0 c9bb fb5d 15be 826b 48be 2496 043e
00000340: 669f c8bd faa9 42bd b414 203e 369c 453e
00000350: c854 10be 213a c13d 6443 babd e475 e83d
00000360: ba02 55be 086f 2c3e d0bc 95bd 4aff e7bd
00000370: b2f7 993d a85c 5bbe 02b2 ce3d f3f3 303e
00000380: 338c bc3d 85a8 25be 6cde 093d 8008 723c
00000390: 8c9d dbbd bf26 15be b31f 4ebe 6919 21be
000003a0: eda7 b6bd 1620 4dbe de9b 553e 8835 d63d
000003b0: 260e 3dbe 6ea9 3bbe 4360 50be 3644 5fbd
000003c0: c8b8 603e e691 193c a9e1 2ebc 3624 21be
000003d0: f12b 42be e081 07be 7048 18bd 9030 33be
000003e0: e0de 5f3e 4350 553e 6a24 453d 607e 983d
000003f0: 53b5 263d 639b 1dbe 3c2d 5ebd 7a71 1dbe
-0.15394367 -0.14102009 0.17719688 0.16369541 -0.16495669 -0.18531497 -0.016128134 -0.08632755
-0.09461181 0.054494947 -0.008304654 -0.16029409 -0.08640041 -0.019330783 0.07650709 0.21405163
-0.102507845 -0.13522379 0.06524658 0.110356055 0.22737853 -0.08971306 -0.16357806 -0.14905351
-0.0075766332 -0.17467853 -0.041891854 0.0038498875 0.0042091715 -0.013916685 -0.093676545 -0.023263697
0.1446496 0.030581571 -0.018157858 -0.08158331 0.13701461 0.14174852 -0.20523088 0.015482516
0.07879036 -0.13473202 0.21819708 -0.19775762 0.14488539 -0.100488015 0.04991772 -0.12492189
0.14190073 0.07950841 -0.1262549 -0.18428619 0.20126525 -0.05462218 0.09253038 -0.16935742
0.07432135 0.16286354 0.1167541 -0.10072557 -0.042913962 -0.13990313 -0.18985805 0.210057
0.012169036 0.06868376 0.13119172 -0.2209135 0.056863733 0.003793753 0.12515101 0.047897793
0.06641884 0.009669853 -0.028067494 -0.08432138 -0.114090525 0.1503026 -0.06795542 -0.022753915
-0.19570549 -0.21181789 -0.07972493 -0.0022345213 -0.02413842 0.07808773 -0.10182966 -0.042532746
0.16462068 0.047924154 -0.02712192 -0.15857762 -0.054746564 0.0787083 0.07989898 -0.12890169
0.104212105 0.1665056 0.09318265 -0.15479904 0.111365795 -0.08981616 -0.092823304 0.076861344
-0.027819196 -0.1768866 -0.009822369 0.01997126 0.19767845 -0.1369186 0.16204402 -0.09929976
0.051207878 -0.192079 -0.10397366 -0.06550742 0.19371448 0.18070143 -0.16090202 0.09966515
0.20062032 0.09768296 -0.014087261 0.014808722 -0.03537635 -0.027791154 0.02188216 0.094776176
-0.1986863 -0.12808493 0.061976627 -0.1198009 0.17832151 0.15210426 -0.11202109 0.006348195
-0.029473403 0.19321445 -0.14384273 -0.022261195 -0.13448676 -0.09183941 -0.20381178 0.01397508
-0.016351344 -0.13299344 -0.018333348 0.208231 -0.0882105 0.20385648 -0.04482884 -0.11219351
-0.14906594 -0.16107902 -0.16751906 0.11340485 -0.20254055 0.022447776 0.06348243 -0.019805728
-0.052226283 -0.014998632 0.19048996 -0.12112055 -0.16027997 0.119927086 -0.18340611 -0.13907503
-0.11657088 0.052790396 0.20437884 -0.080033526 0.14793828 0.1313697 0.16768792 -0.11417144
0.092762515 -0.070123576 0.12295399 -0.04313783 0.0065090246 -0.08694136 -0.2116425 -0.10130614
-0.12239227 -0.047745995 0.004482813 -0.021981936 -0.04858034 -0.12656671 -0.040013406 -0.12783897
0.2137414 -0.096333325 -0.20339306 -0.14566068 0.032363772 0.09658566 -0.15307648 -0.039432544
-0.06866293 -0.12792456 0.038424164 -0.022206653 -0.006160788 -0.14586632 -0.19572261 0.12947899
-0.09796028 -0.047525384 0.15632898 0.19297871 -0.14094841 0.09434915 -0.09094885 0.11350611
-0.20801821 0.1683923 -0.07311404 -0.113279894 0.07517947 -0.21422064 0.10092546 0.17280559
0.092064284 -0.16177566 0.033659384 0.014772534 -0.10723409 -0.14565562 -0.2012928 -0.1573235
-0.08918748 -0.20031771 0.2086024 0.10459429 -0.18462428 -0.18326351 -0.20349221 -0.05450841
0.21945488 0.009373164 -0.010673919 -0.1573647 -0.18962075 -0.13233137 -0.037178457 -0.17498994
0.21862364 0.20831399 0.04813043 0.07445979 0.040700268 -0.15391307 -0.054242358 -0.15375319

net.2.weight f4 [256, 256]
00000000: 3e9f 6abd b0ac f7bb 3546 043d 9018 7ebd
00000010: e4ce 00bd c2ea 3dbd 9a67 2cbd a4e9 bd3c
00000020: ae0e 21bd cf2c ae3c 00a5 59bc c887 cd3c
00000030: 9934 113d c839 743c 0ee8 123a 6431 ce3c
00000040: 3b9b 62bd 89af bcbc c686 c03c 0f2f fabc
00000050: c7f6 88bc 1c28 483d b157 4bbc 670f b23c
00000060: 6e8b 663d edf2 6c3d c02b 0cbd 767f 9fbc
00000070: f91b 43bc 8080 a93b de6a 353d 9b33 58bd
00000080: 7990 debc f3aa 24bd 4f64 01bd 58b3 02bd
00000090: 92ea 503c bdba 59bd 4d4f 013d 99b9 d3bc
000000a0: 810d 503c c5fc 1d3d 3525 8c3c e007 3dbd
000000b0: d8fa 54bd ae92 80bd 93dd ecbc d08e d5bb
000000c0: c423 2a3d f256 133d dadb 52bc ef6b 18bc
000000d0: 5a3a 4c3a df60 aebc 7438 5fbd 2a90 6bbd
000000e0: 9ca8 303c 7924 9b3c 5092 5cbd 7a60 623d
000000f0: 9469 ecbc 8897 9b3c c68d 46bd 9471 4ebd
00000100: 80fe 3c3d 15cd 1d3d 7f11 7e3c 8459 833d
00000110: 178e 363c 9148 f73c c8bc e9bc 27ab 97b9
00000120: cc84 f9bc 90b5 ce3c 5d85 10bd 3af1 47bd
00000130: c4f8 f33c 7771 6b3c 5adf c1bc 4efb 37bd
00000140: a062 b43b f496 173d a43d 11bd 823a bb3c
00000150: 2183 6dbd 7fce bcbb a31f 82bc 7afa 0a3d
00000160: 2c25 b4bc 60f7 803a 2434 d0bc 1e72 e0bc
00000170: 9564 26bd 04f3 7b3d cba9 2bbd f6d1 a4bc
00000180: 1076 63bd aa90 bfba 9a1d 2a3c 4243 1f3d
00000190: b41d 6dbd 4e46 3fbb 4709 9d3c cb08 36bd
000001a0: 33ed 68ba 50c4 8abc 5c01 c2bc 7fb3 49bd
000001b0: a3ed 673c f230 7b3d e940 6e3d 8724 4b3c
000001c0: 5dee 89bc 5dd9 5abd 5de7 c33c b84f 5cbd
000001d0: 8885 b53b 5dd0 f2bc fd00 3d3c 8ba5 7e3c
000001e0: 1f28 093d 2418 96bb 8e25 1cbd b71b 5d3d
000001f0: 1353 883c adc1 713d 5334 033d c4d8 383d
00000200: 93ba fdbc f316 2d3d 2a86 56bd dc14 6bbd
00000210: 9b75 173d 5d40 a8bb 98c6 b3bc 14ef 0c3d
00000220: 541c 95bb 65d0 9fbc ad2c babc 004f 2c3d
00000230: 121c c3bc e055 48bd ac2d ba3b 1175 2c3c
00000240: 1968 56bd 9230 3ebc 63d0 69bd be4d 233c
00000250: ff61 8c3c 5feb d0bc e241 2ebc 4330 05bb
00000260: 52a2 4f3d 7440 c03c 0e96 2c3d 523e a93c
00000270: 7cd6 f43c 84b1 40bd bf9d 503d ef91 67bd
00000280: 9dd3 8dbc 9b85 143d 3749 f53b e319 163d
00000290: 78c2 e7bb 6110 5cbd 84c5 ffbc 7718 c7bc
000002a0: 662b d33c 43c8 843a 219b a93c a511 46bd
000002b0: 4eeb 4b3d 9bea 15bd ca98 333d bcbc 853c
000002c0: 4644 09bd b793 743d 9d9d 26bd 73af c33c
000002d0: 76a8 30bc f0a2 4cbd a80f 103d a0ce 413b
000002e0: 19e6 21bc 466b 003d 082c 8b3c 5efe 09bd
000002f0: 1700 b33c 6539 3bbc 9857 36bd 0494 7c3d
00000300: 327e a7b9 d283 113d 9878 6c3c fca9 f8bc
00000310: d9f7 f33c b819 46bd 8ec6 0c3d 128d 29bd
00000320: 5089 95bb 4a0f c0bc 568c 963c 8443 553d
00000330: 8432 613d 7764 6d3d 6018 663b 2e7c a43c
00000340: f053 27bc 7566 38bd 2eb9 843d 210d 6dbc
00000350: 702f f73c ede5 f0bc f432 3f3c bb24 e8bc
00000360: e825 503d f3a3 99bc c8c1 ef3c 58bd 353d
00000370: 7913 43bc ad9c 26bd b863 28bc cdc0 57bc
00000380: 3aca e1bc 679f 2dbd 1458 71bd 338f 243d
00000390: 0057 80bc 2316 243d 92ca 3a3d a786 4b3c
000003a0: 639f 2c3d 7032 07bd 65c3 883b d0bc a4bc
000003b0: f01a 02bd 8c71 f3bc fdc0 6ebd 27c6 46bc
000003c0: c053 dabc c547 dc3c 23a3 6ebd a780 bbbc
000003d0: 009e 823d f785 643d 1cfd 66bd f13e 863d
000003e0: 5add 0e3d 1ff0 ab3b 34ba 52bc 3ce3 fd3c
000003f0: 671c 16bd 4ab5 043d 5e88 b33c 885f 0f3c
-0.05728077 -0.0075584278 0.032293517 -0.062035143 -0.031447306 -0.04636646 -0.04209099 0.023182698
-0.03932064 0.0212616 -0.013283968 0.02508916 0.03545055 0.014906354 0.0005604037 0.025170036
-0.05532382 -0.02303292 0.023501765 -0.030540017 -0.016719235 0.048866376 -0.012411044 0.02173586
0.056285314 0.05784886 -0.03422141 -0.019469958 -0.011908525 0.005172789 0.04429137 -0.05278359
-0.0271685 -0.040202092 -0.031589802 -0.031909317 0.012751238 -0.053156603 0.031569768 -0.025845336
0.012698532 0.038571138 0.017107585 -0.04615009 -0.051997036 -0.06277977 -0.028914249 -0.0065172687
0.041538015 0.03597159 -0.0128697995 -0.009303077 0.00077906775 -0.021286426 -0.054497197 -0.057510532
0.010782387 0.01893829 -0.053850472 0.05526779 -0.028858937 0.018993154 -0.04847505 -0.050401285
0.046141148 0.03852566 0.015507101 0.06413558 0.011142275 0.03018597 -0.0285324 -0.00028928483
-0.03045883 0.02523306 -0.035283435 -0.048814036 0.029781707 0.014370314 -0.023666073 -0.044917397
0.005504921 0.037009194 -0.035459176 0.022855047 -0.057986382 -0.005761921 -0.015884226 0.03393028
-0.021990381 0.0009839348 -0.025415488 -0.027398165 -0.040623266 0.061511055 -0.041909974 -0.020119648
-0.055532515 -0.0014615257 0.010383034 0.0388825 -0.057889655 -0.0029186192 0.019169463 -0.04444198
-0.0008885443 -0.016939312 -0.023682289 -0.049243446 0.014155778 0.061325975 0.058167372 0.0123988455
-0.016837293 -0.05342995 0.023914034 -0.053786963 0.0055396 -0.029640371 0.01153588 0.015542398
0.033485528 -0.0045805145 -0.038121752 0.05398151 0.016641175 0.059022594 0.032032322 0.0451286
-0.030972755 0.042258214 -0.052374043 -0.05739294 0.03697739 -0.005134626 -0.021945283 0.03440769
-0.004550496 -0.01950855 -0.022726381 0.042067528 -0.023817096 -0.04891002 0.005681714 0.010525958
-0.05234537 -0.01160826 -0.0570835 0.009967266 0.017136572 -0.025502859 -0.010635825 -0.0020322956
0.05069191 0.023468234 0.04213529 0.0206596 0.02988743 -0.047044292 0.05093169 -0.056535657
-0.01731282 0.03626023 0.0074855345 0.03664578 -0.007072743 -0.053726558 -0.031222112 -0.024303658
0.02577753 0.0010130483 0.020703854 -0.04835667 0.04978495 -0.03660069 0.043846883 0.016325347
-0.033512376 0.059711184 -0.040677655 0.023887372 -0.010782352 -0.049960077 0.03517118 0.002957262
-0.00988152 0.031352304 0.01698877 -0.03368985 0.021850629 -0.011427258 -0.04451713 0.061664596
-0.00031946745 0.035526104 0.014433049 -0.030354492 0.029781269 -0.04836437 0.034369044 -0.0413943
-0.004563488 -0.02344479 0.018377464 0.05206634 0.054979816 0.05795714 0.0035109743 0.020078745
-0.010212883 -0.045019586 0.06480633 -0.014468462 0.030173987 -0.029406512 0.011669863 -0.028337827
0.0508174 -0.018754935 0.029267207 0.044370025 -0.011906498 -0.04067676 -0.010277681 -0.013168526
-0.02756225 -0.042388346 -0.05892189 0.040175628 -0.015666485 0.040060174 0.045603342 0.01242224
0.04214419 -0.033007085 0.0041736835 -0.020109564 -0.03176397 -0.02971723 -0.058289517 -0.012132204
-0.026651263 0.026889691 -0.058261048 -0.022888495 0.06377792 0.05579182 -0.056393728 0.06554974
0.034879066 0.0052471305 -0.012861777 0.030992143 -0.03664818 0.032399453 0.02191561 0.008750804

net.2.bias f4 [256]
00000000: 53f7 433d 8874 79bd 1367 7c3d f8f7 f7bc
00000010: 360b 33bd 8cd8 3c3d cc77 9dbc 54f7 6d3d
00000020: fa56 1dbd f225 bf3c 3d9a 32bd 5e31 77bd
00000030: d8e4 5ebd 0718 a3bb 8033 bf3c 2a58 87bc
00000040: 5441 083d f59e c4bb 3655 d73c 682b 953b
00000050: 57a2 43bd a379 043c d7fb ce3c 0e42 183d
00000060: a7b7 febc ba52 293d a05f 693c 2d30 463d
00000070: 67b9 9d3b 089a f3bc 174a 653d a4f8 df3c
00000080: 4906 d93c f301 ef3c 5bbd cabc 8230 f8bc
00000090: 7d6c 2dbd 2b8a 26bd b401 66bc 7644 2d3c
000000a0: 620b d33c 8142 2fbc ee8d 2bbd 723b 7c3d
000000b0: 17e6 7cbd bb56 673d f47c a0bb 40d6 a7bb
000000c0: 9df1 563d 87f2 0abc 52c3 a3bc 39a7 573c
000000d0: 67e1 7ebc 0ff4 663d 8a7b 53bd 652b d4bb
000000e0: 36d5 ee3b b6ca c43c 4108 313d 30b9 e93b
000000f0: 6a87 063d 9013 00bd 5483 cc3c 5f8e 243d
00000100: a94f 00bd 4c5b 25bd 077e 12bd 298b 3b3d
00000110: ad41 153d 3799 ab3c c000 fcbc 5076 1d3b
00000120: 9f33 aabc 0797 073d 823e 853d fd3a d23c
00000130: 3ee1 583d c048 e2bb 3de2 a6bb 48b1 4ebd
00000140: bee6 453d 7ea4 adbc c87b 6bbc 2a97 5ebd
00000150: 4034 c8ba 20e9 68bd a58f 523d cf52 363d
00000160: 39b1 483d c881 2b3c cae8 233d fc4a 343d
00000170: c1f0 063d 6f1d 263d d07e 72bd 0306 1ebc
00000180: 6ffd 953c 77a3 893d 5959 ff3b 877f 13bd
00000190: c0a3 e5bc 3d7a 60bd be8f 853c 1be3 723b
000001a0: f81c 43bd 4be7 59bc 6555 64bd b484 93bb
000001b0: 0adf 91bb 4d2f e5bc 3ee0 40bd 0856 31bd
000001c0: d774 303d 4492 edbc 2225 b93c 856a 01bd
000001d0: 9c29 5ebd 9682 073d 1ce9 e7bb 968a 37bd
000001e0: fce7 babc 34ae 30bd aee9 68bc 7787 2e3d
000001f0: 42d9 97bb b812 333c 272a 643c 1975 993c
00000200: 75c5 323c 73c2 63bd 6a7f b0bb 0771 593d
00000210: dd74 643c 4f16 bbbc 83d9 1fbc a811 483d
00000220: 0840 52bd ba95 6e3d d9ed 403d 4347 253d
00000230: cebd 063d 636f b0bc e879 363c 9082 4fbd
00000240: 6ccc 1bbd 169a 7b3d b679 533d 022c 71bc
00000250: fb17 74bd 6722 323c 2562 26bd 8063 52bc
00000260: d327 5abd 1a6f 43bd 9b28 3bbd 938a 3cbd
00000270: b845 bcba fbfa 4a3d 036c d0bb 0950 1abd
00000280: 56f4 e53c 4440 5bbd 18bc c1bb 9652 1ebc
00000290: f329 153d eba3 61bd 29d8 273d c2a5 28bd
000002a0: 708a 403c 3d9b 69bd 8b99 003d a804 a0bc
000002b0: 74bf 433c 8b68 c23b d03f 23bd ce59 0a3d
000002c0: a3f8 de3a fcb4 0c3d e0fa 40bd a87e 31bd
000002d0: 3890 1fbd 43e6 253d 41b0 993b 1b04 0abd
000002e0: c72c 473d b9e5 86bb 6918 b8bc 4276 043d
000002f0: fcb0 813c 14c5 9c3c d772 323a fbb6 483d
00000300: e8a6 9fbc 5f41 bbbc 1282 313d 3367 9dbc
00000310: 6a6c ae3b 7fe0 c73b ddb7 39bd 9b00 253b
00000320: 01db 323d d616 f6bc d88a 163d f2ac 3e3d
00000330: f7ba ac3c 80ed a63c 5faa 593d e5e7 6f3d
00000340: fbd4 663d b1d6 733d 02f1 f23c 84c8 9a3b
00000350: daa9 0abd 0a02 b03c 5d96 14bc 6c72 213d
00000360: 1857 7b3d 3887 323d 7ef1 0bbd defc 38bd
00000370: add1 9b3a 5ef3 85bc 1344 a93b fd21 053d
00000380: 1a02 3c3d 2e00 563d 9a94 373d afdd 013d
00000390: cc8b d6bc 3b52 8b3d 6431 b0bc a066 2fbd
000003a0: 20b3 473d 5114 d93c 64c6 563d 7f9d 663d
000003b0: 7d96 813b 782a 3b3d d740 303d 57dc 013c
000003c0: 601e 53bc 96c8 6d3d b1c0 bc3b e90c 0a3c
000003d0: 801b 6bbb 5d2c 17bd cada 4b3c 8395 1dbd
000003e0: 7211 d73c 632f 81bc 5b08 5c3d cf9e 9c3b
000003f0: 7579 6fbc a130 e33c ef76 303d 0670 31bc
0.04784329 -0.06090215 0.061621737 -0.030269608 -0.043711863 0.046104953 -0.019222163 0.0580972
-0.038413025 0.023333523 -0.043604124 -0.060349815 -0.05441746 -0.0049772295 0.023339987 -0.016521532
0.033265427 -0.0060003945 0.026285749 0.0045522936 -0.04776224 0.008085641 0.025266571 0.03717237
-0.031093432 0.04133866 0.01424399 0.048385788 0.0048133614 -0.029736534 0.05597886 0.02734024
0.026492255 0.029175734 -0.024748495 -0.030296568 -0.04233979 -0.04065911 -0.014038492 0.010575404
0.025762264 -0.010697008 -0.0418834 0.06158013 -0.06174287 0.056479197 -0.004897708 -0.005121976
0.052476514 -0.008480675 -0.019990597 0.013162428 -0.01555667 0.056385096 -0.051631488 -0.0064748996
0.0072886003 0.024022441 0.043220762 0.007132672 0.032843985 -0.031268656 0.024964966 0.04017484
-0.03132597 -0.04037027 -0.03576472 0.04578701 0.036439586 0.020947082 -0.030762076 0.0024026819
-0.020776568 0.033103015 0.06506063 0.025662893 0.052949183 -0.006905645 -0.0050928877 -0.050462037
0.048315756 -0.0211966 -0.0143727735 -0.05434338 -0.0015274361 -0.05686295 0.05140652 0.044512566
0.048997138 0.010467954 0.040016927 0.044016823 0.032944445 0.040555414 -0.05920297 -0.009644988
0.018309323 0.067206316 0.0077926335 -0.03601029 -0.028032184 -0.054804076 0.016303893 0.0037061635
-0.04763505 -0.013299773 -0.0557455 -0.0045019034 -0.004451637 -0.027976656 -0.047088854 -0.043294936
0.043080177 -0.029000409 0.022600714 -0.031595726 -0.0542389 0.03308352 -0.0070773493 -0.0448099
-0.022815697 -0.043134883 -0.01421587 0.042609658 -0.0046340534 0.010929756 0.0139260655 0.018732594
0.010911335 -0.055605363 -0.0053862827 0.053086307 0.013943878 -0.022837786 -0.009756449 0.048844963
-0.051330596 0.05824826 0.04710183 0.040351164 0.032895856 -0.021537488 0.011137463 -0.050661623
-0.03803675 0.061426245 0.051629744 -0.014719965 -0.059593182 0.01087246 -0.04062094 -0.012841105
-0.053260636 -0.047713377 -0.04569302 -0.046030592 -0.001436404 0.04955576 -0.0063605323 -0.037673984
0.02807061 -0.053528085 -0.005912315 -0.009663245 0.03641696 -0.055087965 0.04097763 -0.041173704
0.011751756 -0.057032812 0.03139643 -0.01953347 0.011947501 0.0059328726 -0.03985578 0.03377705
0.0017011355 0.034352288 -0.047114253 -0.04333368 -0.038955897 0.040502798 0.0046902006 -0.03369532
0.048626687 -0.0041167405 -0.022472577 0.032339342 0.015831463 0.019136943 0.00068072736 0.04900263
-0.019488767 -0.02285832 0.043336935 -0.019214248 0.0053229826 0.00609976 -0.04534136 0.0025177363
0.04366589 -0.030040186 0.036753505 0.046551652 0.021085246 0.02037692 0.053140994 0.05857076
0.056355458 0.059530918 0.029655937 0.0047236104 -0.03385339 0.021485347 -0.0090690525 0.03941576
0.061362356 0.043585986 -0.03416585 -0.045163028 0.001188805 -0.016351398 0.005165586 0.032503117
0.04590044 0.052246265 0.044819452 0.031705555 -0.026189707 0.068027936 -0.021507926 -0.04282248
0.04875481 0.026498945 0.052435294 0.056302544 0.003954707 0.0456948 0.043030586 0.007926068
-0.01288566 0.05805262 0.0057602753 0.00842593 -0.0035874546 -0.036907542 0.0124423 -0.038472664
0.026253436 -0.015769666 0.053718906 0.0047796736 -0.01461636 0.027733149 0.043082174 -0.010829931

net.4.weight f4 [4, 256]
00000000: b745 4b3b 9661 3abd 7b99 e6bb bc62 3abd
00000010: d454 ee3c a878 d33c f0ec 71bc e954 1fbd
00000020: 224a 68bd b0ae 033c 4b45 213d 4ad6 103d
00000030: 5850 edbc dde2 6abd 703f 463c 6cb3 f8bc
00000040: e21b febc c59c 4e3c 0645 273d 9a5a 083d
00000050: 70b9 3f3d 43a1 08bd eb86 a03c 9b0c 0a3c
00000060: 80dc cc3c cab8 623d 4e8d 30bd cfcc 83bd
00000070: ac07 34bc 803c 3cbd b3b4 003d b66a 1fbd
00000080: 55b5 5b3d aa8a 20bd dfbd 49bd fa5f 58bd
00000090: eedd 703c 4c9f acbc 2e31 2f3c e914 24bd
000000a0: 8191 6cbd 4c42 2f3d d8dc debc 0d84 64bd
000000b0: 6263 613d affa 5cbd ecce 84bd 7a98 0bbd
000000c0: 5573 0f3d 01a9 29bd 2fa9 153d 3835 3d3d
000000d0: 1ea3 dfbc f079 a4bc bab5 3e3d 0f07 603d
000000e0: c39a d2bc 5973 f9bc 430f af3b 2ca4 083d
000000f0: 7e54 393d 811d 52bc 0804 03bc 9978 523d
00000100: 3b39 043d 2475 3e3d c91f 193b e6e8 7fbd
00000110: dbf7 523b 7349 ccbc bcb7 203d 10d3 81bd
00000120: 202b 5bbd 071e 1c3c 3c7f 423c fc5b bfbb
00000130: dadb 50bd a075 923b bf86 b53a d41a 51bd
00000140: 37c1 16bd 1de5 62bc b289 a93c 46f9 563d
00000150: 1423 8f3c 1e4f 0cbd 3e37 233c b893 6dbd
00000160: 3e6c 55bd f23a 473d fd93 01bd 7ab7 37bc
00000170: eb44 d33b f670 04bb 581d 4cbc a733 3b3d
00000180: 2072 17bd 23da 39bc 4207 c63c d885 c6bc
00000190: d2a0 053d 147d eb3c dbf0 343d be2c 4a3d
000001a0: b064 b2bc e0e9 1abd 8dee 33bc 57e4 923a
000001b0: 809b 8a3c 90ff 2cbd 0029 2a3a 0e4e 8abd
000001c0: b1c6 9ebc a08c 4e3c 7e02 fa3b b666 803c
000001d0: 80f1 e33c 9549 96bc 4b06 ebbc 13be 263d
000001e0: 0d4d 0fbd 6c73 87bc 739e 293d d63b 4dbd
000001f0: a59d 85bd f3cd cfbc 611f 493c d4fb bcbc
00000200: 4cec a73c e42c ad3c ffdb 033d 8003 c93c
00000210: 46dd 263d 2c11 62bd c39c 2cbd 99f0 42bd
00000220: 03b7 b33c 676b ebbc bf2f 0abc 5b72 89bd
00000230: e2f3 323d 0e64 173d 02e6 ee3c 6b41 683d
00000240: d0eb aabc 9765 723d b59f 323c 8d0c 5c3d
00000250: 3819 ad3a 401a d6bc 48c3 023d ac85 77bc
00000260: cdab c9bb 8416 4ebd 53fa 39bd 3482 b7bb
00000270: b724 2bbd 6074 33bc ff6c 88bd de0a 12bd
00000280: 6157 b73c b679 15bc d9e0 093d 162a 323d
00000290: 12fa 243d c0a8 e13c ac95 96bc f204 1dbd
000002a0: b266 2fbd 1565 2e3d dac7 77bd e0b0 1abd
000002b0: 17f8 4b3d 29fd bbbc 972f 17bd 082e 4abd
000002c0: 87de d83c 8626 433d a08a 1a3d 1709 48bd
000002d0: bb08 1e3c d2d8 52bd 8ce1 00bd 9296 a4bb
000002e0: 7d04 4cbc 6ee2 083d b326 053d f07e 22bc
000002f0: c2d8 6b3b a71a 0a3d 9c35 163c f08a 2fbc
00000300: 329d 1b3d 83b5 4f3d 79ba 393d 0e30 6ebc
00000310: e62b 3ebd eec0 5cbd 8a6b 593d 6892 ee3c
00000320: 7dcf bc3c aab3 27bd 4841 333d 6ee2 26bc
00000330: 8183 0f3d caaf 03bd f58d e2bc 8ca4 81bd
00000340: 0d1c 86bd 034e 14bd 1280 8abc 2da6 cc3c
00000350: 902a edbc 8b6c bb3c ee11 27bc 000f f73c
00000360: 3d7c f2bc 737d 6bbd ed98 4dbd 2249 443d
00000370: 9493 aabc 29b0 84bc 16fe 583c 8c61 b63c
00000380: 1cd9 b93b 2132 27bc 21c8 41bd 6d65 b53c
00000390: 4bba 973c 5cd2 60bd 10e2 5b3d 9a65 4abd
000003a0: 48c5 2fbd a8a2 edbc 5ad2 cebc da91 5abd
000003b0: a525 87bd 62ac 0cbd 06fe e1bc ffee 69bc
000003c0: bfe1 8f3c 6945 62bd 002e b4ba 3da9 b73b
000003d0: 545a 6e3d b619 ea3c ae3a 073d 9a1c 70bd
000003e0: 98ba 253d 7f25 90bb 1e46 f23b 4c9b 13bd
000003f0: 07b0 9d3c 0701 a43c 2573 b53c 662c 52bd
0.0031016895 -0.04550322 -0.0070373393 -0.045504317 0.029093184 0.02581437 -0.014765963 -0.038899336
-0.056711324 0.008037254 0.039372724 0.035360612 -0.028968975 -0.05734526 0.012100086 -0.030358993
-0.031019155 0.012610619 0.04083731 0.03328953 0.046807706 -0.033356916 0.019595584 0.008425857
0.025007486 0.05535201 -0.04310351 -0.064355485 -0.010988157 -0.045956135 0.03142233 -0.038920127
0.05363973 -0.03919474 -0.04925334 -0.052825905 0.01470135 -0.021072052 0.010692878 -0.040059004
-0.05775595 0.042787835 -0.027204916 -0.055789996 0.05502642 -0.053950008 -0.0648478 -0.03408096
0.0350221 -0.04142094 0.0365383 0.04619333 -0.02729946 -0.020077676 0.046560027 0.05469423
-0.025708562 -0.03045051 0.0053423955 0.03335969 0.045246594 -0.012824417 -0.007996567 0.051384542
0.03228114 0.046498433 0.0023364893 -0.06247797 0.003219119 -0.024937367 0.039237723 -0.06339085
-0.053507924 0.009528643 0.011871155 -0.005839823 -0.050990917 0.0044695884 0.0013849362 -0.051050976
-0.036805358 -0.01384857 0.020695541 0.05248382 0.017472781 -0.03425514 0.009961901 -0.058002204
-0.05210518 0.0486402 -0.031635273 -0.011213178 0.0064474246 -0.0020208932 -0.012458168 0.045703556
-0.036974072 -0.011343512 0.024173383 -0.024233744 0.032624073 0.028746165 0.04417501 0.049359076
-0.021776527 -0.037820697 -0.010982168 0.0011206967 0.016919851 -0.04223591 0.0006491095 -0.06753169
-0.019381853 0.01260677 0.0076296916 0.015673976 0.027825117 -0.018345634 -0.028689524 0.040708613
-0.03498559 -0.01653453 0.041410875 -0.050105892 -0.06524209 -0.025366759 0.012275548 -0.0230693
0.020498417 0.02113957 0.032192226 0.024537802 0.040738367 -0.055192158 -0.042141687 -0.047592733
0.021937853 -0.028737737 -0.008434235 -0.06711265 0.043689616 0.036960654 0.02916241 0.056703012
-0.020864397 0.059178915 0.010902335 0.053722907 0.0013206368 -0.026135564 0.031924516 -0.015107553
-0.0061545135 -0.05031444 -0.045404743 -0.005600238 -0.04178306 -0.010953039 -0.06661414 -0.035654895
0.022380533 -0.009123256 0.033661697 0.043497168 0.040277548 0.027546287 -0.018381916 -0.038334794
-0.042822547 0.042576868 -0.060493328 -0.037766337 0.049797144 -0.022947865 -0.03691062 -0.049360305
0.026473297 0.04764416 0.03772986 -0.048836794 0.009645636 -0.051476307 -0.0314651 -0.005022832
-0.012452242 0.033419065 0.03250761 -0.00991796 0.0035987352 0.033716824 0.009168055 -0.010714278
0.03799171 0.050710212 0.04534385 -0.014537824 -0.046428584 -0.05389493 0.053081073 0.029122546
0.023048157 -0.040942825 0.04376343 -0.010185821 0.03503752 -0.032150067 -0.027655581 -0.06330213
-0.06548319 -0.03620721 -0.016906772 0.024981583 -0.02895096 0.022878906 -0.010197146 0.03015852
-0.029600257 -0.057492685 -0.05019467 0.047921307 -0.020822324 -0.016197281 0.013244173 0.02226331
0.0056716334 -0.010204823 -0.04731 0.02214309 0.018521449 -0.054888114 0.053682387 -0.0494133
-0.04291275 -0.029008225 -0.025246788 -0.05336175 -0.06598977 -0.034344085 -0.027586948 -0.0142781725
0.017563699 -0.055241976 -0.0013746619 0.0056048916 0.058191612 0.028576713 0.033014946 -0.058621027
0.040461153 -0.004399001 0.0073936125 -0.036036775 0.019248975 0.020020021 0.022149632 -0.051311873

net.4.bias f4 [4]
00000000: 8a35 153d 859d fd3c 67da 213d e912 403c
0.036428012 0.0309589 0.039514925 0.0117232585
