dqn_learning/queue/models/modelstatedict_2.pth (torch, 292191 bytes, 6 tensors)

net.0.weight f4 [256, 21]
00000000: 2600 42be d161 bb3d b665 e63c b472 a03d
00000010: 59ca 23be 8235 4c3e 09a6 17be 2a48 753d
00000020: e7f3 093e 8c9b 7d3d f822 bd3d 76e5 65bd
00000030: e90b fc3b 4a6f 503e b1ef 203d f606 ce3c
00000040: 1012 4abe 7355 c13b 643f eebd 94e7 0e3d
00000050: a651 39be 3fd5 d63a f96a 2c3e ee26 5cbe
00000060: 98ba 553e b575 0d3c 4bde e23d a9ad 97bd
00000070: 586b 403e 8ba6 6abc ca8b bebc a398 553e
00000080: 0de5 54be c8c7 b13d ae10 ee3d 5857 593e
00000090: 8350 bebc 102b 29bc de60 01bd 085d 4cbd
000000a0: 54a8 37be 73ba 92bc cbb3 1d3d 907d eebd
000000b0: 26e8 c7bb 89db 0ebd 35e6 a83d 3d9e 933d
000000c0: efb8 53be fef7 5f3e ce3c 5d3d d3f2 85bd
000000d0: bcb9 a1bc 41b0 7e3d 9e77 223d 7986 42be
000000e0: 0112 9c3d 0128 073e 8a37 173e d78c 45be
000000f0: f506 88bd 7882 e6bc 416d e83d fd1a d4bc
00000100: e933 0d3d b883 9d3b 44c5 2dbe 4cde c93d
00000110: 51c7 243e 6518 f9bd 321e 163e d817 cf3d
00000120: fde8 3a3e 5fec 0c3e 8cb5 4d3e 6cbb 22bd
00000130: 2f5a 1abe 0526 16be ac42 46bd 92a2 043c
00000140: 5b30 843d 8725 5f3e a400 c8bc a0ba 42be
00000150: b664 04be e486 213c 4c5e 943d 2516 8abb
00000160: 8c3e a9bd 887c 513e 6b87 bf3d 91c9 37be
00000170: d2dc cabd 377d 9ebc f3a9 f7bd ce84 5d3e
00000180: 6749 33be b96e 623c f1b6 4fbd 9012 433d
00000190: ba98 ddbd de5d d43c 4515 16bd 3418 003e
000001a0: 19fc 5dbd 1e43 efbd 338b 87bd d0db ab3d
000001b0: 308e 9b3b 5be3 55bd 29ff 153e b469 b0bd
000001c0: b9de 2c3d 1edf 1bbe 208f a93d 9c76 4ebe
000001d0: c554 34be b62f b93c 16f2 23be 85dc 08be
000001e0: 3112 58be 35ec ff3d 8c44 de3d a5d5 ce3d
000001f0: 8efb 46be 0c06 383e 6fca 773d 1611 483e
00000200: 3822 dd3d 2b0b d0bd 676b ac3d bf05 15be
00000210: e591 6bbd f30c 613d 5b2a eb3d fdfa 1e3e
00000220: 4245 993d c4a1 193e 1b30 d73d 1a9d 343e
00000230: 5a12 603e 77a6 4b3e 81cf 4d3e f8bc 4b3e
00000240: 9107 1cbe 8ed5 ad3d d1c1 883c 72d3 713d
00000250: 6f82 76bd 6ebe 7e3c 4ee4 1bbe 12ec b83d
00000260: 5d8f 0b3e 3104 5ebe 9c71 c3bd abd4 1d3e
00000270: 4b16 96bc 9a8d 9d3d f5b0 8bbd ad85 5a3e
00000280: a74b d43c a0ba bdbd c7d2 a73d c472 28be
00000290: f144 87bc 0d4f 9b3d f229 543d f085 8c3d
000002a0: b73a cdbc a8c3 65bd 4d74 5f3e 972c bebd
000002b0: 7e9c dd3d ebb1 56be b64b 90bd 0696 7fbc
000002c0: 5baa a33d c3f3 0e3e 1cc2 2ebe 0846 02be
000002d0: aa1a fe3c 3285 4bbe 222e 163e 21ff 4c3e
000002e0: 5976 9ebd deef 153e 2848 06be 3611 0fbe
000002f0: 6c52 5c3e b1be b3bd cdc7 0fbe eaee 973d
00000300: 8d12 2cbe 3e4c f83d 5009 0fbe 17cf 9d3d
00000310: c3b3 5a3e 2c8b 433e 1d03 27be b004 3ebe
00000320: 95a4 503e 27b3 07be 5f09 c93d b990 0abe
00000330: a648 15bc b003 ac3d afb1 7e3d f73f 4ebe
00000340: 2d9e 313e 1d6c 51be 847a fdbd c829 b23c
00000350: 6cab cdbd d236 953d 603e ed3b e13f 503e
00000360: 590e 193e 533d 28be 3067 5b3c 8ed7 1cbe
00000370: 4c09 bdbd c0e2 0f3c c032 d93b 3a0c 49be
00000380: c86b 803c 9ec1 bb3d d40c 97bd 5bd2 033e
00000390: 48af 9abd cedc abbd 0b59 0c3e 1668 d33d
000003a0: ac83 5d3d f5ff 4cbe f071 96bc 8070 663c
000003b0: 8756 043e 228b d33d 5c72 3a3d 5082 2abc
000003c0: e0b2 533c de42 52be be27 86bd 1937 3cbe
000003d0: aca1 95bd 2422 06be 50ec 2c3c 34e8 243d
000003e0: 9787 02be 6880 06bd a0e3 cebc 436f e8bd
000003f0: 1a6a 4bbe e71d cbbd 3a4e 0b3e 3c88 28bd
-0.18945369 0.091495164 0.028124671 0.07834378 -0.15995158 0.19942287 -0.14809431 0.059883274
0.13471948 0.06191592 0.092351854 -0.056127034 0.0076918495 0.20354953 0.039291088 0.025149804
-0.19733453 0.005900079 -0.116331846 0.03488882 -0.18097553 0.0016390457 0.16837682 -0.21499225
0.20871961 0.008634021 0.11077555 -0.0740617 0.18790948 -0.0143219335 -0.023260016 0.20859008
-0.20790501 0.086806834 0.11624275 0.21224725 -0.02323175 -0.010325208 -0.03158652 -0.04989341
-0.17935306 -0.017911172 0.038501542 -0.11645043 -0.0061006723 -0.034877334 0.082470335 0.07207916
-0.20676015 0.21871945 0.054013066 -0.06540456 -0.019741885 0.062179808 0.039664857 -0.1899661
0.076206215 0.13198854 0.1476728 -0.19292007 -0.06641952 -0.028138384 0.113489635 -0.025891775
0.034473334 0.004806962 -0.16969782 0.09856853 0.16091658 -0.12162856 0.14659956 0.1011197
0.1825294 0.13762043 0.20088786 -0.03972952 -0.15073465 -0.14662941 -0.048403427 0.0080954
0.064545356 0.2179166 -0.024414368 -0.19016504 -0.12929043 0.009858821 0.07244548 -0.0042140656
-0.08263883 0.20457661 0.09352001 -0.17947985 -0.099053994 -0.019346816 -0.12092962 0.21632692
-0.1750847 0.013820344 -0.050711576 0.047625124 -0.10820146 0.025923666 -0.036641378 0.12509233
-0.054195497 -0.116827235 -0.06618347 0.08391535 0.0047471747 -0.052218776 0.14648117 -0.08613911
0.042204592 -0.15221831 0.08279252 -0.20162433 -0.17610462 0.022605758 -0.16010317 -0.13365372
-0.2110069 0.12496225 0.10852918 0.10099343 -0.19431898 0.17971057 0.06049579 0.19537768
0.10797542 -0.1015838 0.08418923 -0.14552973 -0.057512183 0.05494399 0.11482688 0.15525432
0.07483913 0.15003115 0.10507222 0.17638054 0.21882 0.1988772 0.20098688 0.19896305
-0.15237261 0.08487998 0.016693981 0.05903954 -0.060182985 0.015548332 -0.1522381 0.09029402
0.13628908 -0.21681286 -0.09543154 0.15413158 -0.018321177 0.07693024 -0.06820861 0.21340056
0.02591498 -0.092641115 0.081944995 -0.1645003 -0.016512366 0.07583437 0.051797815 0.06861484
-0.025052411 -0.056094795 0.21821709 -0.092858486 0.10820864 -0.20966308 -0.07045691 -0.015599733
0.07991477 0.13960175 -0.17066234 -0.12722027 0.031018574 -0.19875029 0.14666036 0.20019199
-0.07737417 0.14642283 -0.13113463 -0.13971409 0.21515816 -0.08776606 -0.14041062 0.07418616
-0.16803952 0.12123917 -0.13968396 0.07705515 0.21357636 0.19096059 -0.16309781 -0.18556476
0.20375283 -0.13251935 0.098162405 -0.1353177 -0.009111559 0.08399141 0.06218117 -0.20141588
0.17345496 -0.20451398 -0.123768836 0.021748438 -0.10042462 0.07285847 0.0072401017 0.20336868
0.1494688 -0.16429643 0.013391301 -0.15316603 -0.09230289 0.008782089 0.0066283643 -0.1963357
0.015676394 0.09167789 -0.07375494 0.12873213 -0.075529635 -0.083917245 0.13705842 0.10322587
0.05408065 -0.20019515 -0.018364877 0.014064908 0.12923633 0.10329272 0.045519218 -0.0104070455
0.012921065 -0.2053332 -0.06550549 -0.18380393 -0.07306227 -0.13098961 0.010554388 0.04026051
-0.12747036 -0.0328373 -0.025255024 -0.113493465 -0.19864693 -0.09917813 0.1360406 -0.04114555

net.0.bias f4 [256]
00000000: 3aa8 de3c 1be5 f83d fe2c 0fbe a136 b63d
00000010: 6e30 a03d 658b 153e 76ec 55be 7684 80bd
00000020: c742 2a3d 9bb3 183e 046a 38be 2114 ecbd
00000030: 1fe3 25be 5780 053e a9e9 c53d 1b90 48be
00000040: 48e3 a23d d404 a7bd 3f3f 19be 0596 56be
00000050: 3f3a a13c f8d1 f43d 480a d43c 50e9 11be
00000060: c5b7 c9bc 76fc 2ebd cae8 a93d a0ea 9a3d
00000070: 4cb6 0fbd d182 d73d 5cbe 2bbe 9830 1fbe
00000080: 20d0 09be a472 413e 4b7b f73d d1fe 353e
00000090: f567 77bd f57e 5b3e e18a c7bd bd76 9dbd
000000a0: f7b1 9abc 5ea3 423e e64e fe3d 3812 023e
000000b0: 970e 17be 36dc 4dbe 0e45 46be 62e1 343e
000000c0: 8d69 1c3e 2c34 df3d 5380 51be 034c 073e
000000d0: 1362 593c db30 30be 30fe cdbc c8d1 81bd
000000e0: 9cd8 34be 0f69 8cbd 5f2a 2bbe ba76 503c
000000f0: 2b2c c1bc 870a 70bd eb3d 21be 481a e43c
00000100: 5903 43be 4360 813d 149d 90bd dd1c d9bd
00000110: d018 e7bd 57ca 3b3e caa6 9a3d cd2c 523e
00000120: f5dd 3d3e f5fd 0bbe ce42 25bb d745 493e
00000130: e06e 19be ceea 413c 944b 3dba a337 033d
00000140: afb4 643d 3c31 963d c89e 8abd d2dd 253d
00000150: cf23 eabb 801f aabc 0c02 babd 6e0f dabd
00000160: f545 183e e29c 3f3e 18ad 39be 1a12 3dbe
00000170: 6176 c13d 8e85 cdbd d351 43be 7ed5 bdbd
00000180: 872e 9d3c 0f37 aa3d 8507 863d fabf 683d
00000190: 746b ee3b 4277 f73c d833 103e 5ffe df3d
000001a0: ee78 1cbe fc1d 4dbe 9b90 2fbd dff0 a43d
000001b0: 3536 503e 1e20 053e fee3 0dbe bee9 03be
000001c0: 6ca0 9f3d dac4 8fbd f8e8 2f3c f93c 01be
000001d0: 919f 28be d870 63bd 68c7 d23c 0892 8a3d
000001e0: 01d4 c6bd 0a40 71bd 0831 cf3c 509c 2e3d
000001f0: 5412 273e 8f0c 2abd 0570 9d3c c7ae 7bbd
00000200: 827a a2bd 7842 4ebe 97a5 24be d443 f2bd
00000210: e743 ec3d 2a26 97bd 953c 013e 125b 14bd
00000220: 9e3e b8bc c0fa 4ebe f5bb 343e da0f d63d
00000230: a3ef 42bd 03fe cc3c 3e19 c9bd 9e13 aebc
00000240: 3177 bbbd 408e 4ebd 2f1f b8bd 1c52 19bc
00000250: 7ba2 0fbe 750b 4fbe 6f64 20be bd20 babc
00000260: 6b1d f03d 8a34 adbd 9a7a 0fbe 8589 c43c
00000270: 445f 303e d7dd 1cbe b93d 3cbe 1794 c03d
00000280: 56bf 4b3d 997b 3f3e 047f 193e cf95 f23d
00000290: b695 26bd f28c 143d 37f8 cd3d 4403 05be
000002a0: 7a0e fbbd 4a71 423e 9b3d 09be 6849 1dbe
000002b0: f719 b63d 9a55 afbd 0777 233d cd57 e9bd
000002c0: d538 023e 12f1 bfbd 42c4 b03d b8c1 c1bd
000002d0: 74cd 15bd 790e 0e3d 50e7 ec3d 1da7 0d3d
000002e0: 29a0 5cbe 8ce7 42be 3893 45be 0452 96bc
000002f0: 2953 043e 27ac 65bd cdfa e53d 44ca f2bb
00000300: 7732 19bd 2ab7 493e 9ab2 ecbd 9f80 24be
00000310: 3a8b 4cbe 331a 1a3c e553 f83d 9c1e 053e
00000320: a6b6 1dbd ef2a 193e dd0f 2f3d 4ddd 9a3c
00000330: 7c2e 8dbc be4a 3b3e b38e 1dbe 1e57 2f3e
00000340: d67a e8bd 4069 20be 2986 893d efbf 2a3e
00000350: cdce 2d3e 11d1 4fbe 63b7 593c 985b 013e
00000360: 8656 05be 81cb 553e 0b01 0d3e 6235 223e
00000370: bdad a3bd 0c8a 2dbd 8b4d ddbd ffa9 2bbe
00000380: 66d9 dfbd eae5 0abe b016 2e3e a7cd a9bd
00000390: dd63 3abd 04e4 dbbd 1a98 0a3e 5fc4 27be
000003a0: dcc0 d6bd 9a98 653c fbf8 0fbe c7b8 4ebe
000003b0: 21a7 173e cd39 0ebd 7441 0ebe 5936 48bd
000003c0: fe0e 96bc b03e c3bd 34de dabd c68d 91bd
000003d0: 4be4 ee3d 7719 22be f637 d23d 15a7 2fbe
000003e0: 96b5 3b3d 9e08 d7bd e7ce 9c3d 1c1c 7d3d
000003f0: de4a e63c 76d9 d4bc 37d6 93bd c9a1 503d
0.027179826 0.121530734 -0.13982007 0.088971384 0.07821737 0.14603956 -0.20890984 -0.06275265
0.04156759 0.14912264 -0.18009192 -0.11527277 -0.16199921 0.13037239 0.09663708 -0.19586222
0.07953507 -0.08155218 -0.14965533 -0.20955665 0.019681094 0.11954111 0.025883809 -0.14249158
-0.024623761 -0.042721234 0.08296354 0.075642824 -0.03508596 0.10522998 -0.16771835 -0.15545881
-0.134583 0.18891388 0.12084063 0.17772986 -0.060401876 0.21435149 -0.09743286 -0.07688663
-0.018883688 0.19007632 0.124173924 0.12702262 -0.1475166 -0.20103535 -0.1936228 0.17664102
0.1527464 0.10898623 -0.20459108 0.1321259 0.013268012 -0.17206137 -0.02514562 -0.06338841
-0.17660755 -0.06855976 -0.16715382 0.012723619 -0.023580631 -0.05860379 -0.15746276 0.027844563
-0.19044246 0.063171886 -0.0706121 -0.10601208 -0.112840295 0.18338905 0.07551344 0.20524903
0.18541701 -0.13671096 -0.002521682 0.19655548 -0.14983702 0.011835767 -0.000722104 0.03203548
0.055836376 0.073336095 -0.06768566 0.040494747 -0.007145382 -0.020766973 -0.09082422 -0.10647474
0.14870436 0.1871219 -0.18132436 -0.18463936 0.09446407 -0.10035239 -0.19074182 -0.09269236
0.019187225 0.08311283 0.06544403 0.056823708 0.007275993 0.030208234 0.14082277 0.10937189
-0.15280506 -0.2003097 -0.042862516 0.08053755 0.20333178 0.13000533 -0.13856503 -0.12882134
0.0779427 -0.07019968 0.010736696 -0.12620915 -0.1646712 -0.055527538 0.02572985 0.067661345
-0.09708405 -0.058898963 0.025291935 0.04262954 0.16315585 -0.041515883 0.019218454 -0.061445978
-0.07933523 -0.20142543 -0.16078793 -0.118293434 0.11536389 -0.07380326 0.12620766 -0.036219664
-0.022490796 -0.20212841 0.17649825 0.10452242 -0.047591817 0.025023466 -0.09819268 -0.021249589
-0.09153593 -0.05042863 -0.08990323 -0.009357955 -0.14026825 -0.20219214 -0.15663312 -0.022720689
0.11724361 -0.08457287 -0.14011613 0.023991356 0.17223841 -0.15319 -0.1838292 0.09403246
0.04974302 0.18699493 0.14989859 0.1184498 -0.04067012 0.03626723 0.10057109 -0.12989527
-0.122586206 0.18988529 -0.13402407 -0.15360034 0.08891671 -0.08561249 0.039908435 -0.113937
0.12716992 -0.093721524 0.08631183 -0.09460777 -0.03657289 0.03468177 0.11567557 0.0345832
-0.21545471 -0.1903364 -0.19294441 -0.018349655 0.12922348 -0.05607238 0.11229477 -0.007409366
-0.037401643 0.19698778 -0.11557503 -0.1606469 -0.19974986 0.00940566 0.121253766 0.12999958
-0.038504265 0.14957784 0.042739738 0.018904353 -0.01723408 0.1829023 -0.15386467 0.17123076
-0.11351554 -0.1566515 0.06715042 0.1667478 0.1697342 -0.20294596 0.013288352 0.12632596
-0.13021287 0.20878412 0.13769929 0.15840676 -0.07992122 -0.04236798 -0.10805806 -0.16764067
-0.10930137 -0.13564268 0.17000842 -0.08291178 -0.045505393 -0.1073685 0.13534585 -0.16383503
-0.10486004 0.014013434 -0.14059822 -0.20187674 0.14809848 -0.034723092 -0.13892156 -0.048879955
-0.018317696 -0.09533441 -0.10686913 -0.07107119 0.11664637 -0.15830027 0.1026458 -0.1715358
0.04582747 -0.104996905 0.07656651 0.061794385 0.028111871 -0.0259826 -0.072185926 0.05093554

net.2.weight f4 [256, 256]
00000000: 9820 03bc 90ec f03b 161b 7cbd fe34 29bd
00000010: 608f 903b a0fe 7ebd 2289 79bd 1e40 4cbd
00000020: 909f 91bb 94e7 533d c885 68bd dcdc 303d
00000030: f8e1 663c c094 563b f278 413d 2a71 73bd
00000040: 50ca 52bd f861 82bc f8d5 3a3c 6a97 293d
00000050: d848 923c c435 5fbd 000c ceba 40ae 1e3b
00000060: b487 9fbc 780d 613d d492 d93c 00e2 6c3d
00000070: b223 683d a4b8 f8bc c06a 5bbb b8bc 0d3c
00000080: 28e2 4a3d 6eb9 753d 30de 233d 18c1 063c
00000090: a404 80bc 4c7b 68bd 0c90 e2bc 1aa1 6f3d
000000a0: d0e0 d63b 3eba 24bd 6245 71bd c20f 2fbd
000000b0: 244a f13c c435 f53c 206a 3abc 9841 513d
000000c0: 44b5 473d 0e48 5cbd 00ee 7bbc e6b8 273d
000000d0: 485e 4dbc 8086 25bb 36f4 79bd 84c5 8b3c
000000e0: ee3a 00bd b4d3 ccbc 5888 253d 10fb 16bd
000000f0: 74c1 553d e0b2 12bb 0c01 1e3d 123a 22bd
00000100: b42f debc f873 72bc 4ebb 62bd 4e75 2fbd
00000110: 10ac ec3c 7805 043c ccb4 3c3d ceaa 503d
00000120: c021 eebc a834 263c 4864 423c f8ec 773d
00000130: 867f 77bd f0fb 76bc 1493 50bd eab6 6bbd
00000140: 184a 9d3c a629 09bd 00c7 69bc 1089 753d
00000150: 5e84 0e3d a084 eb3c 00ab 513c a080 443d
00000160: 5613 5d3d 405b 3ebc 3c72 1c3d 0067 a739
00000170: 3810 6dbc 52c9 0dbd a4c3 79bd d4eb 62bd
00000180: ba2c 633d 90d7 d9bc ba93 1b3d 0a8d 093d
00000190: 4c42 5cbd fec0 513d ae46 7ebd 861b 223d
000001a0: 90af e43c 8061 703a b448 f93c 603a 373d
000001b0: 1c27 663d 8a1c 683d d82e 523c 4c38 e93c
000001c0: 8c8a 74bd b80c 573c ae96 3dbd 00fc 76bd
000001d0: 9030 13bc 9ad7 08bd e020 0dbd c06d 8f3c
000001e0: ce28 7e3d 829c 00bd 7cd4 413d c042 883b
000001f0: 5eda 223d 40c8 91bb d0db 973b 7049 073d
00000200: 00b4 433b 7407 b4bc dec4 1cbd b01a b43c
00000210: 30c9 56bc 3471 373d 8058 09bd 102a 113c
00000220: 000d 07bb 1844 6e3c c007 32bd 2403 87bc
00000230: 7e52 2e3d a013 87bb d2ae 533d 52ac 3ebd
00000240: e67c 2b3d b019 283d c05d cbba f854 923c
00000250: 0856 96bc 6c3d 923c 8c93 c5bc e099 173b
00000260: 5ce4 45bd 364f 45bd c81f f5bc 8e0d 28bd
00000270: 6c81 a3bc 74a4 edbc 0a45 7a3d 20c3 47bb
00000280: 7473 7b3d 201d f6bb 400a c63a b4ec a0bc
00000290: 4c79 cd3c 7ae9 193d 9071 d9bc 1a76 41bd
000002a0: 3077 b2bb bc23 453d 0aac 643d e8b8 78bd
000002b0: f859 1abc 4cfb c43c 4cdd cbbc 4a01 6dbd
000002c0: f01c c23c 480b 9abc e8e7 f23c de2b 08bd
000002d0: 1c4c 0a3d faef 523d ac52 1a3d d4b9 383d
000002e0: 60a2 ab3b 7070 6e3d 90a2 263d 1cce 1ebd
000002f0: f0a4 383c f048 9a3c 00d1 7a3b 8062 17bb
00000300: 009e 5ebc a88d 713c e08e 473b c4b3 a0bc
00000310: d875 34bd d00f ffbc d486 50bd ecfe 6abd
00000320: 0082 40bc fe7b 3b3d 9af7 1b3d 04e1 c73c
00000330: 56ee 7c3d c096 b23a ca69 4d3d 1aa9 02bd
00000340: 52d2 08bd c687 68bd c8f4 f0bc 8892 6e3c
00000350: e015 603b 2ae4 143d 5891 24bd f8b0 2cbd
00000360: 4029 99ba 9012 243c 34b2 553d 803c 48bd
00000370: 2635 143d 8c3c bc3c 182f 76bd 04b3 f33c
00000380: 246a 3a3d e0e7 66bc 2cdd 42bd b8eb 87bc
00000390: baec 783d 00bb 11bc 420f 16bd 3477 253d
000003a0: 1045 a73b 4428 6a3d 7c2c 72bd 003f 94bb
000003b0: 8e22 19bd dc83 abbc 7879 793c 0008 da3a
000003c0: dcae 8a3c aa2f 24bd ac09 273d c0cd 9d3b
000003d0: 56f1 773d 9cbf fa3c 68e1 323c 8085 543d
000003e0: 80f8 63bc e08b 273b 30b3 60bc 06e3 6dbd
000003f0: 923d 763d 8cf5 66bd 60e6 55bc 9446 09bd
-0.008003376 0.007352419 -0.06154927 -0.041310303 0.004411623 -0.062254548 -0.060921796 -0.049865834
-0.00444407 0.051734522 -0.05676821 0.043179378 0.014091961 0.003274247 0.047234483 -0.059434094
-0.05146247 -0.015915856 0.011403553 0.041404165 0.017857 -0.054494634 -0.0015720129 0.0024212748
-0.019473888 0.054944485 0.02655927 0.057832718 0.056674667 -0.030361481 -0.0033480376 0.008650951
0.049532086 0.059991293 0.040006816 0.008224748 -0.015627213 -0.05675821 -0.027656578 0.058503248
0.0065575615 -0.040216677 -0.05890406 -0.042739637 0.029454298 0.029932864 -0.011377841 0.051087946
0.048756853 -0.053779654 -0.015376568 0.040947817 -0.012534685 -0.002525717 -0.061023913 0.017061956
-0.0313062 -0.025003292 0.04041323 -0.036860526 0.052186444 -0.002238445 0.038575217 -0.03960616
-0.027122356 -0.014798157 -0.05535441 -0.04283648 0.02889064 0.0080579445 0.04607086 0.050944142
-0.029068828 0.01014439 0.011864729 0.060528725 -0.06042435 -0.015074715 -0.050921515 -0.057547487
0.01920037 -0.033486985 -0.014268637 0.059945166 0.034794204 0.028749764 0.012797117 0.04797423
0.05397352 -0.011618435 0.03819488 0.00031929463 -0.014469199 -0.034615822 -0.060977593 -0.055400684
0.055462576 -0.026592046 0.03798268 0.03358177 -0.053774163 0.051209442 -0.062079124 0.03957703
0.027915746 0.0009169802 0.030430175 0.044733405 0.05618964 0.056667842 0.012828551 0.028469227
-0.05970244 0.013125591 -0.046286277 -0.06029892 -0.008983746 -0.03340874 -0.03445518 0.017508388
0.062050633 -0.031399257 0.04732178 0.004158348 0.039759032 -0.0044489205 0.004634358 0.03302902
0.0029861927 -0.02197621 -0.038273685 0.021985382 -0.01310949 0.044785693 -0.033531666 0.008860126
-0.0020607114 0.014542602 -0.043464422 -0.01648099 0.04255914 -0.0041222125 0.051680394 -0.046551056
0.04186716 0.041040123 -0.001551561 0.017862782 -0.01835157 0.017851554 -0.024118207 0.0023132488
-0.048313484 -0.048171245 -0.029922381 -0.04102855 -0.019959174 -0.029009081 0.061100997 -0.0030481294
0.0613894 -0.007510796 0.0015109256 -0.019644119 0.025082253 0.037576176 -0.026543409 -0.04723177
-0.005446337 0.048129782 0.05582813 -0.060723215 -0.009420864 0.024045609 -0.024885796 -0.057862557
0.02369544 -0.018804207 0.029651597 -0.03324496 0.03376399 0.05149839 0.0376765 0.045099095
0.0052378625 0.058212698 0.040682375 -0.03877078 0.011269793 0.018833607 0.0038271546 -0.0023099482
-0.013587475 0.014743246 0.003045015 -0.019616969 -0.044057697 -0.03113547 -0.050909832 -0.05737202
-0.011749744 0.045772545 0.038077928 0.024399288 0.061750732 0.0013625249 0.050149716 -0.03189955
-0.033403702 -0.05677011 -0.029413596 0.014561303 0.0034192726 0.036350407 -0.040177673 -0.042160958
-0.0011685267 0.010014191 0.0521719 -0.048885822 0.0361835 0.02297809 -0.060103506 0.029748447
0.04551138 -0.014093369 -0.047574207 -0.016591892 0.060772635 -0.008894682 -0.036635645 0.040396884
0.0051046684 0.057167307 -0.059124455 -0.0045241117 -0.03738647 -0.020936899 0.015226714 0.0016634464
0.016929083 -0.04008452 0.04078071 0.004815787 0.06053289 0.030608945 0.010917999 0.051885128
-0.0139142275 0.002556555 -0.013714597 -0.058077835 0.06011731 -0.056386515 -0.013055414 -0.033514574

net.2.bias f4 [256]
00000000: 6cae 5fbd 2507 e8bc d585 81bc 8f2c 86bc
00000010: 1376 f63c 0973 f9bc 4727 513d 1485 0dbc
00000020: f4d3 3b3d 8724 b33c dbb5 493d 43f3 61bb
00000030: 68b2 1bbd dbe8 2b3c 173f c43c 6e08 09bd
00000040: 3c77 4cbd 6eac b8bc a35a 51bd a6c6 423c
00000050: 2f8d 063d 26fb 3d3d 6033 2b3d 5a03 173d
00000060: 0ca6 4d3c f300 203c 3d31 63bc 5f5c 39bd
00000070: f770 d43c f926 3c3d 08df 3d3d b480 f1bc
00000080: aa2e 673d b83b 13bc 06e7 48bd 9307 7a3d
00000090: 5061 e13c a655 7bbd 3900 14bd b6a5 6ebd
000000a0: 37af 303d 7e8e 81bd 0c6f 2f3d 6986 afbc
000000b0: 77d6 afbb daf4 46bd 868f f139 8b22 193d
000000c0: e913 9f3c c0ee 7a3c a4eb 7dbd 8980 5d3c
000000d0: 1857 18bd e030 4dbd 2653 6c3d 08d7 393d
000000e0: e25e 133d f10c c3bb 549b a93c 8a8b 7ebd
000000f0: ec7b 6f3d 5d58 ec3c c86e 493c 65bc 693c
00000100: 0076 6d3c dd21 04bd 6b71 3b3c ae79 783d
00000110: b7ad 863c 1e22 393d 0632 13bd fd92 2c3d
00000120: 9492 0bbd 97dc 97bc a844 ec3c 9a1c 18bd
00000130: 073d ed3c 178b 5f3d d92e 0bbd 03d6 6cbd
00000140: 5ad6 083d 1250 80bd f99e 20bc 26a3 3f3b
00000150: 62fe 6a3d 8cf6 813d 6752 5dbc 2a51 753d
00000160: 76f1 acbb eeb4 51bd b886 9ebb 5913 82bd
00000170: e2e6 4abd bfdf 7d3d 8f7c 2bbd 5b91 3fbc
00000180: 0b41 623d 9607 5b3d 188a 473b 86f2 2f3d
00000190: 0e68 11bd b20a 493d d558 f4bc b275 51bd
000001a0: 2222 303c 5400 dfbc d93c 3dbd bb05 edbc
000001b0: 8e9e 093c 66f6 f33c 67b7 d33c b3b5 1a3d
000001c0: 2df1 16bd 0f0a f3bc db41 38bd eb1f 893c
000001d0: 5003 98bc d663 02bc 6759 3cbd bfcf 323d
000001e0: e620 0cbd 6695 21bd 3dd5 4c3d bd53 873c
000001f0: df4e b4ba 65a3 a33c 4469 fc3a a488 a9bc
00000200: 8254 d9ba 9d8c 533d f713 243d 9c2d 1b3d
00000210: 1fc4 70bd c73d 353d 4a99 48bd 7304 e6bc
00000220: 34fc 053d 6122 00bd cf13 1e3d 969e 053b
00000230: 44e3 30bd aa8d 4d3d 1086 cf3c caa6 1c3b
00000240: a900 6a3d bdf6 3b3d 0ed2 213d 63b0 603c
00000250: f72c 283b cbc3 3a3c 8292 8b3b dc4c d8bc
00000260: 3642 28bd c659 83bc 712f aa3a 03ea d53c
00000270: 8475 a63c 2443 27bd 4120 fc3c 36ed 023d
00000280: 55de 93bc 8901 2b3d c236 e9bb e127 ce3c
00000290: 1e89 42bd 3a87 71bd 2873 2a3d ea5d 77bd
000002a0: c0c3 d23c 2f64 a1bb 9eca 523d fec8 b63c
000002b0: 35be 5d3d 2df7 5bbc 3c53 f13c 945d 27bd
000002c0: 5f4c 6f3d fc21 6fbc ff67 413d 8a78 50ba
000002d0: 748b 733d f0e2 f9bc 5a2a 7ebc 6e1f 1cbd
000002e0: fb4e 813d 2fbe eebc 86dd 1f3d fbee 5dbd
000002f0: 85b8 7fbd b30c 563d 0ec2 73bd 47f4 69bd
00000300: b2e3 d03c f768 5bbd d2cd 09bc 835f d7bb
00000310: db05 323d 3964 e63c b33f 1dbd 8e90 6fba
00000320: 5ce2 5a3c df97 a43c 73d0 173d a04c 573c
00000330: 3cc7 33bd d6f7 203d bf42 83bd d87b 98bc
00000340: def3 3ebd 9098 10bd 9313 6a3d 5001 08bd
00000350: 2b76 2a3d 4c4d 48bd 14f6 f0bc 0f82 663d
00000360: 79e7 57bd ea97 11bb 52ee 08bd 3c4d 693c
00000370: a6f3 363d 7057 cd3c 62b6 4f3d 33ee 4abb
00000380: ac39 6a3d 4aff 98bc 001d 5f3c e133 083d
00000390: bb0d 823d d482 dc3b e237 33bd 228e 54bc
000003a0: 68aa 26bd ae53 773b f088 123d 18e3 443d
000003b0: 3239 79bc 33eb c33c 2335 4abd 4be4 383d
000003c0: 04a1 3cbd 1ee3 2ebb 9a4a 1fbd fe83 cabc
000003d0: 976e 4d3d 5c78 f0bc e572 c33c 6716 6e3c
000003e0: 1a89 d1bb 9112 d53b 7851 12bd ee48 65bd
000003f0: 27a9 08bd 06ba 3139 9404 44bd 0153 903c
-0.0546097 -0.02832372 -0.015810886 -0.016378669 0.030085599 -0.03045036 0.05106285 -0.008637685
0.04585643 0.021868004 0.049245697 -0.003447727 -0.03801194 0.010492529 0.023955865 -0.033455305
-0.0499184 -0.022543158 -0.05111183 0.011888182 0.032849487 0.046382092 0.041797042 0.03686843
0.012551796 0.009765851 -0.01386672 -0.045254108 0.025932772 0.045935605 0.046355277 -0.029480316
0.056440987 -0.008986406 -0.049048446 0.06104238 0.027512223 -0.061360978 -0.036133025 -0.058263503
0.043135848 -0.06326006 0.042830512 -0.021426396 -0.0053661424 -0.048573352 0.00046074035 0.03738646
0.019418674 0.0153157115 -0.061992303 0.013519415 -0.037192434 -0.05009544 0.057696484 0.045371085
0.03597916 -0.0059524705 0.020703949 -0.062144794 0.05846779 0.028850729 0.012294479 0.014266108
0.014493465 -0.032258857 0.011440615 0.060662918 0.016440256 0.045198552 -0.035936378 0.042132366
-0.034075335 -0.018537803 0.028841332 -0.03713665 0.028959764 0.054576006 -0.033980224 -0.057821285
0.033407547 -0.06265272 -0.009803527 0.002924153 0.057371505 0.06345853 -0.013508416 0.059891857
-0.005277808 -0.05119794 -0.004837837 -0.063513465 -0.049536593 0.06198096 -0.041866835 -0.01169237
0.05523781 0.05347403 0.00304473 0.042955898 -0.035499625 0.049082465 -0.029827515 -0.051137634
0.010750325 -0.027221836 -0.046200607 -0.028933397 0.008399619 0.029780578 0.025844289 0.037770938
-0.036851097 -0.029667882 -0.04498468 0.016738852 -0.018556267 -0.007958373 -0.0459837 0.043655153
-0.034211062 -0.039449118 0.050008047 0.016519422 -0.0013756416 0.019975374 0.0019257446 -0.020695038
-0.0016580971 0.05164777 0.040058102 0.037885293 -0.058780786 0.04424837 -0.048974313 -0.028078293
0.032711223 -0.031282786 0.03859311 0.0020388714 -0.043185487 0.05018393 0.02533248 0.0023903125
0.057129536 0.045889605 0.039506964 0.013713929 0.0025661567 0.01139922 0.0042594085 -0.026403837
-0.04107877 -0.016034018 0.0012984109 0.026112562 0.020319708 -0.040835515 0.030777099 0.031964503
-0.018050352 0.04174951 -0.0071171233 0.0251655 -0.047494046 -0.058966853 0.041613728 -0.060392298
0.025728106 -0.004925273 0.051462762 0.022312637 0.054136474 -0.0134256305 0.029458635 -0.040860727
0.058422443 -0.014595505 0.04721832 -0.0007952532 0.059459165 -0.03050372 -0.015513027 -0.03811591
0.063138925 -0.029143421 0.03902962 -0.054182988 -0.06243183 0.052258205 -0.059511237 -0.057117727
0.025499199 -0.0535669 -0.008410888 -0.006572665 0.043462615 0.028123962 -0.038390826 -0.0009138667
0.013359632 0.020091949 0.037064027 0.013140827 -0.043891177 0.039298855 -0.06409215 -0.01861374
-0.04661929 -0.035301745 0.057147574 -0.033204377 0.0416166 -0.04890184 -0.029414214 0.056276377
-0.052710984 -0.0022215792 -0.033430405 0.0142396055 0.044665955 0.025066108 0.050711043 -0.0030964732
0.057183906 -0.018676419 0.013617754 0.0332526 0.06350275 0.006729463 -0.043754466 -0.01297334
-0.040689856 0.0037739086 0.035775125 0.048068136 -0.01521139 0.023915863 -0.04936708 0.045139592
-0.046051994 -0.0026685665 -0.038889505 -0.024721142 0.050154295 -0.029354267 0.023858497 0.014531708
-0.0063945176 0.0065024574 -0.035722226 -0.055977754 -0.03336444 0.00016949335 -0.04785593 0.017617704

net.4.weight f4 [4, 256]
00000000: a803 f53c ee17 0abd 1f41 96bc 70a1 35bc
00000010: 5251 4a3c 25d9 c13b 35da 64bd 6211 2cbd
00000020: 06db 973c e04c 45bc e999 273d 118b 7cbc
00000030: c823 6cbd 5057 4a3d c91a 1b3d 2857 4ebd
00000040: fc3c 8c3c 8a9c 36bd e7aa 63bd 46d1 d63b
00000050: 2abe 653d a760 d13c 544c 72bc f472 e13c
00000060: 85fb 353c cb8c 9b3c eb11 663c da5d 65bd
00000070: 1cbe ffbc da49 6e3d ea2e 12bd b029 39bd
00000080: 8f81 85bc 005c 4ebc c642 01bd 6bb8 49bd
00000090: cb92 7bbd ff26 dabb 61c0 15bd 5fe1 983c
000000a0: 0370 2b3d ca30 073d 6a8c e4bc 2db0 9cbc
000000b0: 68d2 4ebc 9dc1 093d 5efe e6bc f7a8 65bd
000000c0: a75f 3dbd 80e5 f43b e23e 5fbd 89c6 4ebd
000000d0: 8ea7 e93c 0a99 8e3b 189c 303d 52ca 843b
000000e0: 1093 80bc 101f 38bc 3b90 9a3c 1d7e 693d
000000f0: 8e15 febc e57a f7bc d29c 103d 992f 4dbd
00000100: ac2e ddbc 4013 3bbd 5014 6cba 5f28 9bbc
00000110: f5d3 f7bc c7ca 843c 3e91 36bc 94f4 7fbd
00000120: f654 2a3d a9ba 2e3d 00e8 323d 23c0 c4bc
00000130: e615 10bd 265d a33c 7e86 ffbc 2b0d 6cbd
00000140: 0313 1abd d06b fbbb 3a83 74bd 0683 f4bc
00000150: a24e 7cbd 8979 a6bb f48e ad3b f39e 52bd
00000160: 3cd0 d43c 7842 70bc 4d33 6f3d 9766 edbc
00000170: 62c5 7c3d 1e7a 64bd de0b cb3b 62ac 533c
00000180: 5888 e23c 580b f9bc 2a9b 693c 2259 e9bc
00000190: c906 f53c c5bf 49bd 3d71 133d d130 3d3d
000001a0: 8d56 a53c 1cb9 a13c 4ca6 523b 259d 1abd
000001b0: e1e0 febc 5c4f c43b 743a 6c3d f26e ce3c
000001c0: 07b8 143c 1fa3 533c a7e5 5d3d efae 503d
000001d0: 90c3 283d d333 c7bc a4ba a13b 2b4e 1ebd
000001e0: 5ced 4a3d 7ee3 abbb 7c23 84bc 275f f33b
000001f0: a33d 2b3c 2e4f 16bd 8b98 3c3d 072e 613d
00000200: 5d05 3fbd a72a 443c 28e2 f63b ae40 8bbc
00000210: 6bc5 31bd b25d b43c 9157 43bd 5074 dcbc
00000220: a042 743d 5811 62bd 2b0b 1b3d 4a4e 9fbc
00000230: 400e c7bc 7406 313d 6717 693d 5d70 4cbb
00000240: 8981 71bd 84ef c4bb ed5f 8aba 9051 433b
00000250: ab12 353d 64d4 7fbd 39b5 89bc 8002 58bb
00000260: 9d5e 323c 191e 0bbc 5f29 d7b9 02d7 083d
00000270: 3e27 123c 523c 9cbc fe33 3a3d 557c 53bc
00000280: 3fe5 5f3d 17df 1dbd 4269 c3bc 059d 8dbb
00000290: 7db6 733c ce76 73bd 8e7a 0d3c a012 d83c
000002a0: 02c8 15bd fbfe 563d 501d dbbb 0091 e33c
000002b0: c08e 703c edf9 7abd 4851 b83c c8f6 663d
000002c0: b9b8 353c 52c3 c2bc b0ab 6b3c 3408 74bd
000002d0: 1ae3 28bc f8d5 6dbc 8a66 ec3c a4be 4dbd
000002e0: d476 4fbd 3646 53bd 15a3 64bd 8a91 21bb
000002f0: 322b 593d 4e6c e73c 7c13 6cbd cc1d 2c3d
00000300: 403c ae3a 21f5 6bbd e6c9 96bb 2127 5cbd
00000310: f504 663d ae33 71bd 3cdf f73c 6186 d4bb
00000320: 9d74 b43b 05be 9dbc 328a a5bc d10d f8bc
00000330: fe3f 58bd 7ec8 75bc e262 6d3d 73aa 5f3d
00000340: e635 c2bc 2f52 b13c 8ef0 923c 5dbd ba3c
00000350: d626 0f3d fa54 313d d0ce 7cbd 8afe 403c
00000360: 307e 763d a250 c53a 5989 eabc 365c 673d
00000370: 702b 7a3c 0849 1a3a 22d4 66bd 7a01 4d3d
00000380: 8501 bd3c 1445 1a3d 36dc 60bd fae1 47bd
00000390: f0e3 50bc 5db3 bfbc eef1 8abb e934 843b
000003a0: 90d5 33bd 216f ee3c ed4b c23c caad c2bb
000003b0: af7e 9fbc 30e5 72bd 79a7 53bd 4321 c53c
000003c0: fec4 543d 2ce1 2fbd 2ee2 80bc 32b7 a13b
000003d0: 5a7c 133d 4ab4 493d 2afa 51bd 1e78 82bd
000003e0: 14ba 97bb 2667 003d 22c2 5cbd 46e7 04b9
000003f0: 266a 6d3d 0f77 37bc bf85 3bbd 852e 1e3d
0.02990897 -0.033714227 -0.018341599 -0.011085853 0.01234849 0.005915778 -0.05587216 -0.042008765
0.018537056 -0.012042254 0.040918265 -0.015414015 -0.05765131 0.049399674 0.03786734 -0.050376087
0.017118923 -0.04458288 -0.055582907 0.006555709 0.056089558 0.025558783 -0.014788706 0.027520634
0.01110733 0.018988034 0.014042358 -0.055997707 -0.03121858 0.0581759 -0.035689272 -0.045205772
-0.01629713 -0.012595177 -0.03155782 -0.04924814 -0.06141929 -0.0066574807 -0.03656042 0.018662153
0.04185487 0.033005513 -0.027898986 -0.019126976 -0.012623407 0.03363191 -0.028197464 -0.05606934
-0.0462338 0.0074736476 -0.05450333 -0.050482307 0.02852228 0.00435174 0.043117613 0.004052439
-0.015695125 -0.011237875 0.018867603 0.057005037 -0.031016137 -0.030209968 0.035305806 -0.05009422
-0.026999794 -0.045672655 -0.00090057123 -0.018940149 -0.030252436 0.016209973 -0.011143027 -0.062489107
0.04158493 0.04265848 0.043678284 -0.0240174 -0.035177134 0.019941878 -0.03119206 -0.057629745
-0.037615787 -0.0076727644 -0.05969546 -0.029847633 -0.061598428 -0.005080406 0.0052965824 -0.051421117
0.0259782 -0.014664285 0.058398534 -0.028979583 0.061711676 -0.055780523 0.006196483 0.012919517
0.027652904 -0.030400917 0.014258185 -0.028484885 0.029910462 -0.04925515 0.035996664 0.046189133
0.020182872 0.019741587 0.0032142578 -0.03774752 -0.03111309 0.0059909057 0.057672933 0.025199387
0.009077079 0.012917309 0.05417409 0.05094808 0.041202128 -0.024316704 0.0049355794 -0.038648766
0.04954277 -0.005245625 -0.016130202 0.0074271145 0.010451707 -0.036696605 0.046043914 0.054975536
-0.046635974 0.01197306 0.007534284 -0.016998615 -0.043401163 0.022017334 -0.04769093 -0.02691093
0.05963385 -0.05519232 0.037852447 -0.01944651 -0.024298787 0.043219045 0.056907084 -0.0031194903
-0.058961425 -0.006009998 -0.0010557153 0.0029803254 0.044207256 -0.06245841 -0.016810047 -0.0032960474
0.010886815 -0.008491063 -0.0004103882 0.033408172 0.008920489 -0.019071732 0.04545974 -0.012908061
0.054661985 -0.038542833 -0.023853902 -0.0043216967 0.014875052 -0.059439473 0.008635176 0.026376069
-0.036567695 0.052489262 -0.006686844 0.027779102 0.014682472 -0.061273504 0.022499695 0.056387693
0.011091405 -0.023774777 0.014384195 -0.059578136 -0.0103080515 -0.014516346 0.028857488 -0.050230637
-0.050650433 -0.05158063 -0.05581959 -0.0024653398 0.05301971 0.028249886 -0.05763577 0.042020604
0.0013293102 -0.05760682 -0.004601705 -0.053748254 0.05615707 -0.058887176 0.030257814 -0.006485746
0.0055070654 -0.019255647 -0.020207498 -0.030280026 -0.052795403 -0.015001414 0.05795563 0.054605912
-0.023707341 0.021645634 0.017936971 0.022795374 0.034949146 0.04329393 -0.06172067 0.011779437
0.060178936 0.0015053938 -0.028629946 0.056484424 0.015269145 0.00058855163 -0.05635465 0.050050236
0.023072014 0.037663534 -0.05489751 -0.048799492 -0.012749657 -0.023400957 -0.004240266 0.0040346277
-0.04390484 0.029105725 0.023717845 -0.0059411274 -0.019469587 -0.0593006 -0.051673386 0.024063712
0.05194568 -0.04293935 -0.01573285 0.0049351687 0.036007263 0.049244203 -0.051263966 -0.06370567
-0.0046303365 0.03134837 -0.053896077 -0.00012674657 0.05796256 -0.011197819 -0.045781847 0.038618583

net.4.bias f4 [4]
00000000: 82de 13bc d1b4 2c3d 4d3c 0ebc 92d8 4dbc
-0.009025218 0.042164627 -0.008681369 -0.012563841
