dqn_learning/queue/models/model_1.pth (torch, 293015 bytes, 6 tensors)

weight f4 [256, 21]
000000 26 00 42 be 6d 54 bc 3d e8 f8 e8 3c c3 71 9f 3d
       -0.18945369 0.091957904 0.028439 0.0778537
000010 48 13 24 be 86 fb 4b 3e a9 29 18 be 51 97 75 3d
       -0.1602298 0.19920167 -0.14859642 0.05995876
000020 14 eb 09 3e 9e b3 7c 3d 5c 54 bc 3d 4f 96 65 bd
       0.13468581 0.061694734 0.09195778 -0.05605155
000030 52 f1 fa 3b cf d1 50 3e 07 e5 1d 3d bf 47 cf 3c
       0.007658162 0.20392536 0.038548496 0.025302766
000040 41 eb 49 be ba a5 cd 3b b4 c4 ef bd fb 7e 0f 3d
       -0.19718648 0.0062758597 -0.1170744 0.035033207
000050 d7 2a 39 be 00 79 50 3b 0f 3e 2d 3e 5a 7d 5b be
       -0.18082748 0.0031810403 0.16918205 -0.21434537
000060 97 c0 56 3e 3f 52 28 3c ba 71 e6 3d af 81 93 bd
       0.20971905 0.010273515 0.1125216 -0.072024696
000070 d4 b1 42 3e 26 5b 47 bc 12 f3 b0 bc 8a b7 57 3e
       0.19013149 -0.012167728 -0.02160028 0.21066108
000080 91 9e 52 be 34 31 b6 3d d3 30 f0 3d c6 38 5b 3e
       -0.20568301 0.088961035 0.117280625 0.21408376
000090 29 06 af bc 25 37 0b bc 27 41 fa bc 4d d7 44 bd
       -0.021365242 -0.008497034 -0.030548645 -0.04805689
0000a0 d4 bf 35 be 82 b2 83 bc f2 3c 16 3d d0 2f ef bd
       -0.17748958 -0.01607633 0.036679216 -0.116790414
0000b0 b0 1b d3 bb e0 01 0d bd ac 88 a6 3d 14 3c 92 3d
       -0.0064425096 -0.034425616 0.08131537 0.07140365
0000c0 3c b7 55 be 4e 6b 5e 3e 8e 49 55 3d 48 e2 86 bd
       -0.2087068 0.21720621 0.0520721 -0.065861285
0000d0 a7 bf b1 bc 7a 7d 78 3d 5e 84 1a 3d 1d 15 42 be
       -0.021697832 0.06066654 0.03772389 -0.18953367
0000e0 18 45 98 3d 78 e9 05 3e e8 3e 15 3e 7b 1b 45 be
       0.074350536 0.13077343 0.14574778 -0.19248764
0000f0 ce b6 8b bd e2 06 f1 bc 71 86 e4 3d 9c 73 d9 bc
       -0.068219766 -0.029422227 0.11158455 -0.026544385
000100 56 57 08 3d f2 fa 82 3b cf a2 2e be 90 4a c7 3d
       0.033286415 0.0039972 -0.17054294 0.097310185
000110 37 e5 22 3e 36 36 fc bd b5 d1 14 3e bd 11 cc 3d
       0.15907751 -0.123150274 0.14533122 0.09964321
000120 6c 10 39 3e 7a 5a 0b 3e 0f 69 4c 3e a5 c7 28 bd
       0.1807267 0.13608733 0.19961952 -0.04120602
000130 20 06 1c be 6f 5f 17 be 6f db 4a bd d3 43 df 3b
       -0.15236712 -0.14782499 -0.049525674 0.006813505
000140 74 d8 80 3d f9 c6 5d 3e 26 d7 d0 bc 2c 10 44 be
       0.06291285 0.21657933 -0.025493216 -0.19146794
000150 b6 64 04 be 9c db 27 3c 1e 15 95 3d 22 fd 92 bb
       -0.12929043 0.01024523 0.072794184 -0.004485742
000160 0d bf a9 bd 0e c3 51 3e ba 8b bf 3d a5 4a 37 be
       -0.08288393 0.20484564 0.093528226 -0.17899568
000170 e7 cd c9 bd 0b 49 9c bc 5e 61 f7 bd ba 03 5e 3e
       -0.09853726 -0.019077798 -0.12079118 0.21681109
000180 f1 c1 32 be 16 01 6b 3c 91 2f 51 bd 14 01 45 3d
       -0.17456795 0.014343521 -0.051070753 0.04809673
000190 de c6 dc bd 0c a7 d8 3c e5 8d 17 bd 11 93 00 3e
       -0.107801184 0.026446842 -0.037000556 0.12556101
0001a0 16 73 5c bd 8d 09 f0 bd e9 f5 89 bd 58 f9 ad 3d
       -0.053820692 -0.11720572 -0.06736357 0.08494824
0001b0 1c 90 96 3b d4 a9 57 bd fe 52 15 3e a8 99 af bd
       0.004594816 -0.052652195 0.1458244 -0.085742295
0001c0 a2 91 2b 3d 83 a8 1b be c7 36 a8 3d 97 0e 4e be
       0.041886933 -0.15201001 0.08213573 -0.20122753
0001d0 09 a8 34 be 97 e4 ba 3c 8a fe 24 be 6c 09 08 be
       -0.17642225 0.022814078 -0.16112724 -0.13284844
0001e0 c9 5e 58 be 2e 6b 00 3e a7 2b dc 3d 38 99 d0 3d
       -0.21129908 0.12540886 0.107505135 0.10185474
0001f0 bc f3 46 be 45 7e 38 3e 37 86 73 3d 81 be 47 3e
       -0.19428915 0.18016918 0.05945417 0.19506265
000200 ee 31 dc 3d 31 0b d2 bd 5d b8 a9 3d 77 ef 15 be
       0.10751711 -0.10256041 0.08287118 -0.1464213
000210 32 44 70 bd cd 8d 5b 3d 89 bc e8 3d f9 15 1e 3e
       -0.058658786 0.05360203 0.11364085 0.1543807
000220 bb ef 96 3d fc 41 18 3e 49 c2 d4 3d 2d 0d 34 3e
       0.07369944 0.14868921 0.103886195 0.17583151
000230 2a 0b 5f 3e fd 42 4a 3e 4b c0 4c 3e 0b 2d 4b 3e
       0.21781603 0.19752117 0.19995229 0.19841401
000240 45 03 1d be 46 dd aa 3d ad 35 80 3c f4 26 6d 3d
       -0.15333278 0.08342986 0.015650595 0.057898477
000250 49 7e 72 bd 71 58 77 3c 4e e4 1b be 27 3b b7 3d
       -0.059202466 0.01509677 -0.1522381 0.08946829
000260 a3 6b 0b 3e 4e 2f 5f be f2 14 c5 bd 67 ca 1c 3e
       0.13615279 -0.21795389 -0.096231356 0.15311585
000270 70 3d 96 bc 60 37 9b 3d 4b 54 8d bd 69 7b 59 3e
       -0.018339843 0.07578921 -0.06900843 0.21238483
000280 85 d7 d7 3c 7e 1b c0 bd 98 c5 a6 3d 14 75 29 be
       0.026347885 -0.09380244 0.08143157 -0.16548568
000290 13 b9 83 bc f4 c7 98 3d ca cd 51 3d 6c 83 8a 3d
       -0.016079461 0.07460013 0.051221646 0.06763348
0002a0 21 44 dc bc 5f 88 69 bd 81 08 5e 3e 5c 8d bf bd
       -0.026887955 -0.05701482 0.21682931 -0.09353134
0002b0 d2 48 d9 3d 25 96 58 be 97 ed 94 bd 3e 40 93 bc
       0.106095925 -0.21151026 -0.07271879 -0.017974969
0002c0 c7 bc 9e 3d 89 0f 0d 3e 0c 13 31 be b3 b4 04 be
       0.0775085 0.13775457 -0.17292422 -0.12959556
0002d0 54 64 ea 3c 20 d8 4c be cc 4c 14 3e d3 db 4a 3e
       0.028612293 -0.2000432 0.1448242 0.19810419
0002e0 68 25 a3 bd f0 9c 14 3e bb 3b 08 be 08 36 11 be
       -0.07966119 0.14512992 -0.13304035 -0.14180768
0002f0 2d f5 59 3e c0 5a b4 bd 8f 96 0e be f3 1e 97 3d
       0.21284933 -0.08806372 -0.13924621 0.0737895
000300 9f 20 2c be 75 a5 f8 3d 82 ca 0e be d2 11 9d 3d
       -0.16809319 0.121409334 -0.13944438 0.076694146
000310 e7 dc 59 3e d4 e2 42 3e c6 c6 26 be be 61 3e be
       0.21275674 0.1903184 -0.16286764 -0.18591973
000320 b9 cd 4f 3e 7f 5b 08 be 13 b3 c9 3d 8e 44 0b be
       0.2029332 -0.13316153 0.09848609 -0.1360037
000330 b0 7b 24 bc af 6b aa 3d 8b 02 80 3d 94 dd 4e be
       -0.010039255 0.0832132 0.06250485 -0.20201713
000340 47 9d 30 3e 3a 3a 52 be 84 7a fd bd c8 29 b2 3c
       0.17247497 -0.20530024 -0.123768836 0.021748438
000350 6c ab cd bd d2 36 95 3d 60 3e ed 3b e1 3f 50 3e
       -0.10042462 0.07285847 0.0072401017 0.20336868
000360 59 0e 19 3e 53 3d 28 be 30 67 5b 3c 8e d7 1c be
       0.1494688 -0.16429643 0.013391301 -0.15316603
000370 4c 09 bd bd c0 e2 0f 3c c0 32 d9 3b 3a 0c 49 be
       -0.09230289 0.008782089 0.0066283643 -0.1963357
000380 c8 6b 80 3c 9e c1 bb 3d d4 0c 97 bd 5b d2 03 3e
       0.015676394 0.09167789 -0.07375494 0.12873213
000390 48 af 9a bd ce dc ab bd 0b 59 0c 3e 16 68 d3 3d
       -0.075529635 -0.083917245 0.13705842 0.10322587
0003a0 ac 83 5d 3d f5 ff 4c be f0 71 96 bc 80 70 66 3c
       0.05408065 -0.20019515 -0.018364877 0.014064908
0003b0 87 56 04 3e 22 8b d3 3d 5c 72 3a 3d 50 82 2a bc
       0.12923633 0.10329272 0.045519218 -0.0104070455
0003c0 e0 b2 53 3c de 42 52 be be 27 86 bd 19 37 3c be
       0.012921065 -0.2053332 -0.06550549 -0.18380393
0003d0 ac a1 95 bd 24 22 06 be 50 ec 2c 3c 34 e8 24 3d
       -0.07306227 -0.13098961 0.010554388 0.04026051
0003e0 97 87 02 be 68 80 06 bd a0 e3 ce bc 43 6f e8 bd
       -0.12747036 -0.0328373 -0.025255024 -0.113493465
0003f0 1a 6a 4b be e7 1d cb bd af c8 0b 3e 3c 88 28 bd
       -0.19864693 -0.09917813 0.13650773 -0.04114555

bias f4 [256]
000000 15 91 dd 3c f9 2a fd 3d eb e3 10 be e2 bf b2 3d
       0.02704672 0.12361712 -0.14149444 0.08728005
000010 e9 f1 a0 3d a7 ee 14 3e 89 4a 57 be f8 06 82 bd
       0.07858641 0.14544164 -0.21024527 -0.063489854
000020 9f e0 1f 3d d2 91 18 3e 04 6a 38 be 21 14 ec bd
       0.039032575 0.14899376 -0.18009192 -0.11527277
000030 aa 68 25 be 8e 91 02 3e aa b5 c3 3d 4b 13 47 be
       -0.16153207 0.12750837 0.09556134 -0.19440953
000040 58 a2 a2 3d 1a ed a6 bd 26 d6 1a be 5a fd 58 be
       0.07941121 -0.08150692 -0.15120754 -0.21190396
000050 18 b1 92 3c 80 9b f5 3d 51 23 c8 3c 49 89 12 be
       0.01790671 0.1199255 0.024430903 -0.14310183
000060 8d ce d0 bc 04 3a 30 bd 49 34 aa 3d b9 2a 9d 3d
       -0.025489116 -0.043024078 0.08310754 0.07674164
000070 26 99 13 bd 0f cc d7 3d 5c be 2b be d0 2d 21 be
       -0.036034726 0.10536968 -0.16771835 -0.15740132
000080 90 10 09 be 92 f9 3f 3e a1 c4 fa 3d 85 20 37 3e
       -0.13385224 0.18747547 0.12244535 0.17883499
000090 b7 64 79 bd 02 6f 5a 3e bd 12 c5 bd c8 0d 9b bd
       -0.060887065 0.21331409 -0.09622715 -0.07570988
0000a0 1f 40 a2 bc 1d 62 43 3e 98 4c f8 3d ef 0d 04 3e
       -0.019805966 0.19080396 0.12123984 0.1289594
0000b0 49 43 16 be 24 fd 4e be eb 41 47 be 2b a2 34 3e
       -0.14674105 -0.20213753 -0.1945874 0.17639987
0000c0 a3 de 1b 3e f8 19 dd 3d f6 5d 52 be 2d 82 07 3e
       0.15221648 0.10795969 -0.20543656 0.13233252
0000d0 1c 51 5e 3c 75 51 2f be 79 a5 c8 bc 8c dd 82 bd
       0.013569143 -0.17120917 -0.024492966 -0.06389913
0000e0 9c d8 34 be cd bc 8b bd 8a 49 2a be 1c da 4c 3c
       -0.17660755 -0.0682312 -0.16629615 0.012503173
0000f0 26 1e c4 bc 8d 9c 74 bd 9c 65 20 be 42 f1 e7 3c
       -0.023940157 -0.05971961 -0.15663761 0.028313283
000100 5f a8 41 be cf 79 77 3d c8 1a 96 bd dd 1c d9 bd
       -0.18911885 0.0604189 -0.07329327 -0.10601208
000110 aa 02 e5 bd e5 ac 3c 3e a1 86 99 3d 9e 69 54 3e
       -0.11182149 0.18425329 0.074963816 0.20743415
000120 99 70 3c 3e 68 45 0c be 92 10 95 bb 57 21 48 3e
       0.18402328 -0.13698351 -0.0045490945 0.19543968
000130 e0 6e 19 be 31 26 4a 3c fb 39 d8 ba e9 e8 f0 3c
       -0.14983702 0.012338207 -0.0016496772 0.029407935
000140 69 86 65 3d 26 e2 92 3d 75 40 8f bd 48 5d 1f 3d
       0.056036387 0.07172041 -0.06994716 0.03890732
000150 f5 d4 14 bc d9 49 9e bc 0c 02 ba bd 2c 84 d9 bd
       -0.009083976 -0.019322323 -0.09082422 -0.10620913
000160 fc 40 16 3e 38 57 3e 3e 18 ad 39 be 1a 12 3d be
       0.14673227 0.18587959 -0.18132436 -0.18463936
000170 75 7a c4 3d ae 12 cd bd 96 d6 44 be 22 21 be bd
       0.09593669 -0.100133285 -0.19222483 -0.09283663
000180 eb a2 90 3c e9 00 a6 3d 30 b4 84 3d 40 bb 68 3d
       0.01765581 0.08105642 0.064796805 0.0568192
000190 9f f7 f7 3b b6 21 f4 3c 34 86 10 3e 0c 1a db 3d
       0.0075673605 0.02980123 0.14113694 0.106983274
0001a0 fd 74 1e be 38 90 4d be 4f 5e 35 bd c2 14 a2 3d
       -0.15474315 -0.20074546 -0.044279393 0.079141155
0001b0 1c 4c 51 3e 75 89 05 3e f0 8e 0d be a9 3e 05 be
       0.2043919 0.13040717 -0.13824058 -0.13012184
0001c0 19 fa 9e 3d da c4 8f bd b8 4e 20 3c f6 f9 ff bd
       0.07762546 -0.07019968 0.009784393 -0.12498848
0001d0 3c f3 27 be 45 d2 68 bd e9 ad db 3c 2f 0a 8d 3d
       -0.1640138 -0.056841154 0.026816325 0.06886708
0001e0 ee 2e c9 bd ac 41 78 bd 41 11 bf 3c 5a 8e 2b 3d
       -0.09823404 -0.060609505 0.023323657 0.041883804
0001f0 91 59 26 3e e1 23 29 bd 64 69 95 3c 05 3e 7c bd
       0.16245104 -0.041293982 0.01823873 -0.061582584
000200 d4 91 a2 bd 36 50 4d be 11 3c 24 be c6 73 f4 bd
       -0.07937971 -0.2005013 -0.16038539 -0.119361445
000210 44 c1 ee 3d db de 97 bd ac 58 01 3e d4 29 1a bd
       0.11657956 -0.07415553 0.12631482 -0.037637547
000220 45 35 a8 bc 0c fc 50 be ab ef 34 3e cb 82 d2 3d
       -0.020533213 -0.20408648 0.17669551 0.10278853
000230 9f 11 47 bd c8 d1 be 3c 58 31 cb bd fe f1 b2 bc
       -0.04860079 0.02329339 -0.09921521 -0.021843906
000240 6c c8 b9 bd e5 f8 51 bd 77 9d bd bd fb 73 26 bc
       -0.090714306 -0.051262755 -0.0925855 -0.010159488
000250 87 5f 10 be 4d bf 4f be 9c 6d 21 be ae 92 bc bc
       -0.14098941 -0.20287819 -0.15764469 -0.023019161
000260 c2 95 eb 3d 8a 34 ad bd 9e 9c 11 be 0c 32 ba 3c
       0.115031734 -0.08457287 -0.14219901 0.022728942
000270 c5 e3 31 3e 14 96 1b be f0 8f 3b be 3c 1c be 3d
       0.17372043 -0.15193969 -0.18316627 0.09282729
000280 ad b1 4b 3d 7f 3d 3e 3e 15 b5 17 3e 79 4c ef 3d
       0.04972999 0.18578146 0.14815171 0.11684508
000290 69 99 2c bd 41 79 19 3d 1c 62 ca 3d 39 a0 05 be
       -0.04213849 0.037469152 0.09881994 -0.13049401
0002a0 13 f9 fa bd 72 49 41 3e 9b 3d 09 be 19 1c 1d be
       -0.122545384 0.18875673 -0.13402407 -0.1534275
0002b0 8f c5 b3 3d b6 af b2 bd 85 45 25 3d 15 2f eb bd
       0.08777916 -0.087249205 0.040349502 -0.114835896
0002c0 d7 b0 01 3e 62 d4 be bd e4 fe ac 3d 11 d1 c0 bd
       0.12665115 -0.093178526 0.08447054 -0.09414876
0002d0 74 cd 15 bd 92 91 0e 3d 5d 33 ea 3d bc 4c 0d 3d
       -0.03657289 0.034806795 0.11435578 0.034497008
0002e0 75 49 5d be 8c e7 42 be bb fc 46 be b1 e1 9a bc
       -0.21610053 -0.1903364 -0.19432347 -0.018906446
0002f0 b6 c7 04 3e 6d 84 62 bd 95 dc e2 3d 2c 44 db bb
       0.12966809 -0.055302072 0.11077229 -0.0066914763
000300 46 01 22 bd 70 9d 48 3e 5a e7 ed bd da fb 24 be
       -0.039551996 0.19591308 -0.116163924 -0.16111699
000310 3a 8b 4c be 56 3f 1a 3c 05 29 fc 3d 0e f0 03 3e
       -0.19974986 0.0094145145 0.12312511 0.12884542
000320 d4 ec 1c bd 4a ae 19 3e db 6f 26 3d 8f 1f 93 3c
       -0.038311794 0.15007892 0.040634017 0.017959384
000330 90 90 8b bc db 71 3b 3e 49 e9 1e be 41 a1 2d 3e
       -0.017036706 0.18305151 -0.15518679 0.16956045
000340 09 39 eb bd 34 78 20 be 00 ca 87 3d a7 67 2b 3e
       -0.11485488 -0.15670854 0.06630325 0.16738759
000350 9a 55 2c 3e 11 d1 4f be 40 da 55 3c 6a 68 fd 3d
       0.1682953 -0.20294596 0.013052523 0.12373431
000360 86 56 05 be 9d 11 53 3e 67 77 0b 3e 1a b0 20 3e
       -0.13021287 0.20612188 0.13619767 0.15692177
000370 2b 87 a3 bd 73 9e 2b bd 79 a8 de bd ff a9 2b be
       -0.079847656 -0.041899156 -0.10871977 -0.16764067
000380 66 d9 df bd ed 29 0c be f0 d9 2b 3e 08 71 a8 bd
       -0.10930137 -0.13687868 0.16782355 -0.08224684
000390 20 45 3e bd 25 4a d8 bd ba b2 09 3e 6a 16 28 be
       -0.04645264 -0.10561017 0.13447085 -0.164148
0003a0 69 ce d4 bd 16 57 55 3c 40 71 0f be 7b bd 4f be
       -0.10390932 0.013021251 -0.14008045 -0.20287125
0003b0 cf e2 16 3e bf 2b 0e bd 95 5c 0f be f1 f7 4b bd
       0.14734958 -0.03470969 -0.14000161 -0.049797002
0003c0 3d fe 91 bc b0 3e c3 bd fd b4 d8 bd a3 75 8f bd
       -0.017821426 -0.09533441 -0.10581396 -0.07004859
0003d0 71 79 f1 3d 93 9c 22 be ae 83 d1 3d dc e0 2f be
       0.11790741 -0.15880041 0.10230194 -0.17175621
0003e0 54 b8 3e 3d f0 49 d5 bd 44 eb 9d 3d c2 c3 7a 3d
       0.046562508 -0.10414493 0.07710889 0.061221845
0003f0 ea c6 e4 3c 8c ac d7 bc 06 19 95 bd 11 74 53 3d
       0.02792688 -0.026327394 -0.072801635 0.05162436

weight f4 [256, 256]
000000 98 20 03 bc 90 ec f0 3b 16 1b 7c bd fe 34 29 bd
       -0.008003376 0.007352419 -0.06154927 -0.041310303
000010 60 8f 90 3b a0 fe 7e bd 22 89 79 bd 1e 40 4c bd
       0.004411623 -0.062254548 -0.060921796 -0.049865834
000020 90 9f 91 bb 94 e7 53 3d c8 85 68 bd dc dc 30 3d
       -0.00444407 0.051734522 -0.05676821 0.043179378
000030 f8 e1 66 3c c0 94 56 3b f2 78 41 3d 2a 71 73 bd
       0.014091961 0.003274247 0.047234483 -0.059434094
000040 50 ca 52 bd f8 61 82 bc f8 d5 3a 3c 6a 97 29 3d
       -0.05146247 -0.015915856 0.011403553 0.041404165
000050 d8 48 92 3c c4 35 5f bd 00 0c ce ba 40 ae 1e 3b
       0.017857 -0.054494634 -0.0015720129 0.0024212748
000060 b4 87 9f bc 78 0d 61 3d d4 92 d9 3c 00 e2 6c 3d
       -0.019473888 0.054944485 0.02655927 0.057832718
000070 b2 23 68 3d a4 b8 f8 bc c0 6a 5b bb b8 bc 0d 3c
       0.056674667 -0.030361481 -0.0033480376 0.008650951
000080 28 e2 4a 3d 6e b9 75 3d 30 de 23 3d 18 c1 06 3c
       0.049532086 0.059991293 0.040006816 0.008224748
000090 a4 04 80 bc 4c 7b 68 bd 0c 90 e2 bc 1a a1 6f 3d
       -0.015627213 -0.05675821 -0.027656578 0.058503248
0000a0 d0 e0 d6 3b 3e ba 24 bd 62 45 71 bd c2 0f 2f bd
       0.0065575615 -0.040216677 -0.05890406 -0.042739637
0000b0 24 4a f1 3c c4 35 f5 3c 20 6a 3a bc 98 41 51 3d
       0.029454298 0.029932864 -0.011377841 0.051087946
0000c0 44 b5 47 3d 0e 48 5c bd 00 ee 7b bc e6 b8 27 3d
       0.048756853 -0.053779654 -0.015376568 0.040947817
0000d0 48 5e 4d bc 80 86 25 bb 36 f4 79 bd 84 c5 8b 3c
       -0.012534685 -0.002525717 -0.061023913 0.017061956
0000e0 ee 3a 00 bd b4 d3 cc bc 58 88 25 3d 10 fb 16 bd
       -0.0313062 -0.025003292 0.04041323 -0.036860526
0000f0 74 c1 55 3d e0 b2 12 bb 0c 01 1e 3d 12 3a 22 bd
       0.052186444 -0.002238445 0.038575217 -0.03960616
000100 b4 2f de bc f8 73 72 bc 4e bb 62 bd 4e 75 2f bd
       -0.027122356 -0.014798157 -0.05535441 -0.04283648
000110 10 ac ec 3c 78 05 04 3c cc b4 3c 3d ce aa 50 3d
       0.02889064 0.0080579445 0.04607086 0.050944142
000120 c0 21 ee bc a8 34 26 3c 48 64 42 3c f8 ec 77 3d
       -0.029068828 0.01014439 0.011864729 0.060528725
000130 86 7f 77 bd f0 fb 76 bc 14 93 50 bd ea b6 6b bd
       -0.06042435 -0.015074715 -0.050921515 -0.057547487
000140 18 4a 9d 3c a6 29 09 bd 00 c7 69 bc 10 89 75 3d
       0.01920037 -0.033486985 -0.014268637 0.059945166
000150 5e 84 0e 3d a0 84 eb 3c 00 ab 51 3c a0 80 44 3d
       0.034794204 0.028749764 0.012797117 0.04797423
000160 56 13 5d 3d 40 5b 3e bc 3c 72 1c 3d 00 67 a7 39
       0.05397352 -0.011618435 0.03819488 0.00031929463
000170 38 10 6d bc 52 c9 0d bd a4 c3 79 bd d4 eb 62 bd
       -0.014469199 -0.034615822 -0.060977593 -0.055400684
000180 ba 2c 63 3d 90 d7 d9 bc ba 93 1b 3d 0a 8d 09 3d
       0.055462576 -0.026592046 0.03798268 0.03358177
000190 4c 42 5c bd fe c0 51 3d ae 46 7e bd 86 1b 22 3d
       -0.053774163 0.051209442 -0.062079124 0.03957703
0001a0 90 af e4 3c 80 61 70 3a b4 48 f9 3c 60 3a 37 3d
       0.027915746 0.0009169802 0.030430175 0.044733405
0001b0 1c 27 66 3d 8a 1c 68 3d d8 2e 52 3c 4c 38 e9 3c
       0.05618964 0.056667842 0.012828551 0.028469227
0001c0 8c 8a 74 bd b8 0c 57 3c ae 96 3d bd 00 fc 76 bd
       -0.05970244 0.013125591 -0.046286277 -0.06029892
0001d0 90 30 13 bc 9a d7 08 bd e0 20 0d bd c0 6d 8f 3c
       -0.008983746 -0.03340874 -0.03445518 0.017508388
0001e0 ce 28 7e 3d 82 9c 00 bd 7c d4 41 3d c0 42 88 3b
       0.062050633 -0.031399257 0.04732178 0.004158348
0001f0 5e da 22 3d 40 c8 91 bb d0 db 97 3b 70 49 07 3d
       0.039759032 -0.0044489205 0.004634358 0.03302902
000200 00 b4 43 3b 74 07 b4 bc de c4 1c bd b0 1a b4 3c
       0.0029861927 -0.02197621 -0.038273685 0.021985382
000210 30 c9 56 bc 34 71 37 3d 80 58 09 bd 10 2a 11 3c
       -0.01310949 0.044785693 -0.033531666 0.008860126
000220 00 0d 07 bb 18 44 6e 3c c0 07 32 bd 24 03 87 bc
       -0.0020607114 0.014542602 -0.043464422 -0.01648099
000230 7e 52 2e 3d a0 13 87 bb d2 ae 53 3d 52 ac 3e bd
       0.04255914 -0.0041222125 0.051680394 -0.046551056
000240 e6 7c 2b 3d b0 19 28 3d c0 5d cb ba f8 54 92 3c
       0.04186716 0.041040123 -0.001551561 0.017862782
000250 08 56 96 bc 6c 3d 92 3c 8c 93 c5 bc e0 99 17 3b
       -0.01835157 0.017851554 -0.024118207 0.0023132488
000260 5c e4 45 bd 36 4f 45 bd c8 1f f5 bc 8e 0d 28 bd
       -0.048313484 -0.048171245 -0.029922381 -0.04102855
000270 6c 81 a3 bc 74 a4 ed bc 0a 45 7a 3d 20 c3 47 bb
       -0.019959174 -0.029009081 0.061100997 -0.0030481294
000280 74 73 7b 3d 20 1d f6 bb 40 0a c6 3a b4 ec a0 bc
       0.0613894 -0.007510796 0.0015109256 -0.019644119
000290 4c 79 cd 3c 7a e9 19 3d 90 71 d9 bc 1a 76 41 bd
       0.025082253 0.037576176 -0.026543409 -0.04723177
0002a0 30 77 b2 bb bc 23 45 3d 0a ac 64 3d e8 b8 78 bd
       -0.005446337 0.048129782 0.05582813 -0.060723215
0002b0 f8 59 1a bc 4c fb c4 3c 4c dd cb bc 4a 01 6d bd
       -0.009420864 0.024045609 -0.024885796 -0.057862557
0002c0 f0 1c c2 3c 48 0b 9a bc e8 e7 f2 3c de 2b 08 bd
       0.02369544 -0.018804207 0.029651597 -0.03324496
0002d0 1c 4c 0a 3d fa ef 52 3d ac 52 1a 3d d4 b9 38 3d
       0.03376399 0.05149839 0.0376765 0.045099095
0002e0 60 a2 ab 3b 70 70 6e 3d 90 a2 26 3d 1c ce 1e bd
       0.0052378625 0.058212698 0.040682375 -0.03877078
0002f0 f0 a4 38 3c f0 48 9a 3c 00 d1 7a 3b 80 62 17 bb
       0.011269793 0.018833607 0.0038271546 -0.0023099482
000300 00 9e 5e bc a8 8d 71 3c e0 8e 47 3b c4 b3 a0 bc
       -0.013587475 0.014743246 0.003045015 -0.019616969
000310 d8 75 34 bd d0 0f ff bc d4 86 50 bd ec fe 6a bd
       -0.044057697 -0.03113547 -0.050909832 -0.05737202
000320 00 82 40 bc fe 7b 3b 3d 9a f7 1b 3d 04 e1 c7 3c
       -0.011749744 0.045772545 0.038077928 0.024399288
000330 56 ee 7c 3d c0 96 b2 3a ca 69 4d 3d 1a a9 02 bd
       0.061750732 0.0013625249 0.050149716 -0.03189955
000340 52 d2 08 bd c6 87 68 bd c8 f4 f0 bc 88 92 6e 3c
       -0.033403702 -0.05677011 -0.029413596 0.014561303
000350 e0 15 60 3b 2a e4 14 3d 58 91 24 bd f8 b0 2c bd
       0.0034192726 0.036350407 -0.040177673 -0.042160958
000360 40 29 99 ba 90 12 24 3c 34 b2 55 3d 80 3c 48 bd
       -0.0011685267 0.010014191 0.0521719 -0.048885822
000370 26 35 14 3d 8c 3c bc 3c 18 2f 76 bd 04 b3 f3 3c
       0.0361835 0.02297809 -0.060103506 0.029748447
000380 24 6a 3a 3d e0 e7 66 bc 2c dd 42 bd b8 eb 87 bc
       0.04551138 -0.014093369 -0.047574207 -0.016591892
000390 ba ec 78 3d 00 bb 11 bc 42 0f 16 bd 34 77 25 3d
       0.060772635 -0.008894682 -0.036635645 0.040396884
0003a0 10 45 a7 3b 44 28 6a 3d 7c 2c 72 bd 00 3f 94 bb
       0.0051046684 0.057167307 -0.059124455 -0.0045241117
0003b0 8e 22 19 bd dc 83 ab bc 78 79 79 3c 00 08 da 3a
       -0.03738647 -0.020936899 0.015226714 0.0016634464
0003c0 dc ae 8a 3c aa 2f 24 bd ac 09 27 3d c0 cd 9d 3b
       0.016929083 -0.04008452 0.04078071 0.004815787
0003d0 56 f1 77 3d 9c bf fa 3c 68 e1 32 3c 80 85 54 3d
       0.06053289 0.030608945 0.010917999 0.051885128
0003e0 80 f8 63 bc e0 8b 27 3b 30 b3 60 bc 06 e3 6d bd
       -0.0139142275 0.002556555 -0.013714597 -0.058077835
0003f0 92 3d 76 3d 8c f5 66 bd 60 e6 55 bc 94 46 09 bd
       0.06011731 -0.056386515 -0.013055414 -0.033514574

bias f4 [256]
000000 6c ae 5f bd 50 ba e7 bc c8 8a 92 bc 63 a0 8e bc
       -0.0546097 -0.028287083 -0.017888442 -0.017410463
000010 10 a0 ea 3c 38 56 f6 bc a2 73 48 3d 5c 0e 1f bc
       0.028640777 -0.03007041 0.0489384 -0.009708013
000020 58 f8 3d 3d 35 4d b8 3c 75 1e 4a 3d 2f e4 54 bb
       0.046379417 0.022497753 0.049345452 -0.003248464
000030 68 b2 1b bd 7a 8c 34 3c 72 3b c8 3c 6e 08 09 bd
       -0.03801194 0.01101982 0.024442408 -0.033455305
000040 9c 2f 4b bd 9a eb bf bc 39 65 53 bd 30 2c 25 3c
       -0.04960595 -0.023427773 -0.051610205 0.010081336
000050 5e 7b 0a 3d 3c c4 44 3d 60 4f 22 3d 5a 03 17 3d
       0.03380906 0.048038706 0.03962648 0.03686843
000060 40 96 58 3c a2 1a 0b 3c a3 ce 68 bc e2 d5 35 bd
       0.013219416 0.0084902365 -0.014209422 -0.044393428
000070 a0 e5 cb 3c d3 40 3c 3d 08 df 3d 3d b4 80 f1 bc
       0.024889767 0.04596026 0.046355277 -0.029480316
000080 54 8c 5e 3d b8 3b 13 bc 61 30 43 bd 95 bb 76 3d
       0.054333046 -0.008986406 -0.04765356 0.060237486
000090 24 19 df 3c 60 29 7e bd 36 32 20 bd b0 06 6d bd
       0.027233668 -0.062051177 -0.039110385 -0.057867706
0000a0 3a c1 35 3d 4a 4e 80 bd 15 ae 2c 3d a9 9e b6 bc
       0.04437373 -0.062649325 0.042158205 -0.022292452
0000b0 78 db a7 bb 72 9d 49 bd 07 f7 c0 39 52 5b 0d 3d
       -0.0051225983 -0.049222417 0.00036805143 0.034510918
0000c0 c8 95 93 3c c0 ee 7a 3c a4 eb 7d bd 70 ec 42 3c
       0.018015757 0.0153157115 -0.061992303 0.011897191
0000d0 99 f0 14 bd 41 35 4b bd fa 75 6f 3d cc 52 37 3d
       -0.036362264 -0.049611334 0.05846212 0.044756696
0000e0 8e 21 16 3d e1 22 ce bb 99 be ac 3c 34 81 7e bd
       0.036653094 -0.006290779 0.021086978 -0.062134936
0000f0 42 d2 69 3d 6c e7 df 3c 0a c9 74 3c 85 4e 56 3c
       0.057085283 0.02733203 0.01494051 0.013080244
000100 00 76 6d 3c a8 c1 09 bd bd c9 40 3c b7 9a 6e 3d
       0.014493465 -0.03363195 0.011766848 0.058253016
000110 55 29 7b 3c c6 24 3a 3d d6 ca 10 bd 54 e6 26 3d
       0.015329679 0.045445226 -0.03534969 0.040747
000120 64 63 07 bd af 1f 8e bc 43 14 f0 3c 04 fc 1a bd
       -0.03305377 -0.017349092 0.029306537 -0.037837997
000130 d0 c5 ee 3c 4f fb 60 3d d6 57 0d bd aa ee 76 bd
       0.029147059 0.054927167 -0.034507595 -0.0602862
000140 fe 84 07 3d 7e 5b 80 bd a9 fd 3b bc 67 29 7c 3a
       0.033085816 -0.06267451 -0.0114740515 0.00096192065
000150 1f 64 6b 3d 28 83 7d 3d 22 5e 59 bc 07 8c 76 3d
       0.05746853 0.06189266 -0.013267072 0.060192134
000160 6b 85 95 bb e4 d4 50 bd b8 20 80 bb 9a ab 7f bd
       -0.004563024 -0.05098428 -0.0039101504 -0.06241951
000170 e2 e6 4a bd 9a b0 75 3d c4 09 27 bd be ad 36 bc
       -0.049536593 0.059982873 -0.040780798 -0.011149822
000180 3a 3b 63 3d 96 07 5b 3d a8 47 86 3b 24 d1 26 3d
       0.055476405 0.05347403 0.0040978976 0.040726796
000190 cb 4e 11 bd fb ca 3e 3d 1f 69 f3 bc 41 23 4e bd
       -0.035475533 0.046580296 -0.029713212 -0.05032659
0001a0 01 d2 1e 3c 54 00 df bc 1b e9 3c bd 5d bf f1 bc
       0.0096936235 -0.027221836 -0.046120744 -0.029510194
0001b0 0c 98 c9 3b 29 b2 f6 3c c3 96 db 3c 74 d0 1d 3d
       0.0061521586 0.03011425 0.026805287 0.038528875
0001c0 f6 c1 16 bd 93 a5 f7 bc 1f 9d 34 bd a2 e7 90 3c
       -0.03680607 -0.03023032 -0.044095155 0.017688576
0001d0 be 54 88 bc 8f a3 f0 bb 21 6e 43 bd 72 4c 30 3d
       -0.01664197 -0.0073437165 -0.04771245 0.043041654
0001e0 5b 50 09 bd 4c 2b 21 bd 13 1b 4c 3d bf 54 92 3c
       -0.0335239 -0.03934793 0.049830507 0.017862676
0001f0 af 89 fd ba b0 10 8f 3c d0 72 00 3b f7 78 a2 bc
       -0.0019343401 0.017464012 0.0019599684 -0.019833071
000200 c9 35 04 bb 59 28 54 3d 2a e2 26 3d d1 78 13 3d
       -0.002017366 0.05179629 0.04074303 0.03600389
000210 26 0e 75 bd ca 4b 36 3d 41 53 4e bd 60 3a e1 bc
       -0.059827946 0.04450587 -0.050372366 -0.027493656
000220 e9 ab 06 3d 3e 11 07 bd cc 51 20 3d 26 1b ec 3a
       0.03287879 -0.032975428 0.039140508 0.0018013462
000230 2c f7 32 bd 22 ad 52 3d b7 e1 cc 3c 30 75 07 39
       -0.043692753 0.051434644 0.025009973 0.00012918259
000240 c3 eb 60 3d ee ec 34 3d 44 cb 25 3d 1e ea 71 3c
       0.05491234 0.044171266 0.040477052 0.014765291
000250 eb d5 84 3b 36 3c 12 3c 4a d0 8b 3b dc 4c d8 bc
       0.0040538213 0.008925488 0.0042667734 -0.026403837
000260 7d 86 25 bd be cb 8b bc 9a 31 ce 3a f5 ef d5 3c
       -0.04041146 -0.017064925 0.0015731335 0.026115397
000270 48 88 ae 3c 7e 2e 2a bd 85 3a 04 3d 82 8c 02 3d
       0.021305218 -0.041548245 0.03228237 0.03187228
000280 e0 3a 91 bc 4d d5 27 3d 16 58 ec bb 04 dd d0 3c
       -0.01772827 0.040974904 -0.007212649 0.025496013
000290 9d a1 46 bd 3a 87 71 bd e1 d5 30 3d ab f1 75 bd
       -0.04849397 -0.058966853 0.04317272 -0.060044926
0002a0 30 60 b9 3c 43 49 97 bb 9e ca 52 3d 14 95 be 3c
       0.022628874 -0.004616888 0.051462762 0.023264445
0002b0 eb f5 60 3d dc 20 70 bc 3c 53 f1 3c 94 5d 27 bd
       0.054922026 -0.014656272 0.029458635 -0.040860727
0002c0 9c 34 6a 3d 26 51 8d bc 8c 04 46 3d db 3f 40 ba
       0.05717908 -0.017250609 0.04834418 -0.0007333734
0002d0 f7 32 6d 3d 9c 70 f8 bc a0 39 71 bc 6e 1f 1c bd
       0.057909932 -0.030327134 -0.0147232115 -0.03811591
0002e0 e0 93 77 3d 02 61 fa bc 86 91 17 3d 7b 53 5f bd
       0.06044376 -0.030563835 0.037004016 -0.054522973
0002f0 5e 3f 7c bd e9 04 5d 3d 0e c2 73 bd c4 fd 6f bd
       -0.06158387 0.05395976 -0.059511237 -0.05859162
000300 e7 14 d2 3c 74 08 5b bd e9 e6 f3 bb 89 20 d7 bb
       0.025644733 -0.05347486 -0.007443298 -0.006565158
000310 53 5b 33 3d 4c e1 df 3c a6 76 1a bd 91 53 3d bb
       0.043788265 0.02732911 -0.03771081 -0.002888892
000320 84 d3 63 3c 3e 52 a9 3c 3a 92 1a 3d b9 8e 56 3c
       0.01390541 0.020669099 0.03773711 0.013095551
000330 3c c7 33 bd e3 0a 20 3d d4 32 81 bd 54 7f 9c bc
       -0.043891177 0.039072882 -0.06308523 -0.019103684
000340 9d 69 3d bd 7c e9 0c bd ee 2e 6c 3d 02 f0 07 bd
       -0.0462433 -0.034402356 0.057661943 -0.033187874
000350 99 21 2e 3d 4c 4d 48 bd 0c 67 fb bc fb 84 66 3d
       0.04251251 -0.04890184 -0.030688785 0.056279164
000360 c9 99 56 bd 23 ec f0 ba 9f d0 09 bd 07 f1 77 3c
       -0.052392755 -0.0018380921 -0.033646222 0.015133149
000370 7b 43 36 3d 6f 85 ce 3c fe 86 43 3d ea f3 2d bb
       0.04449795 0.02521011 0.04773616 -0.002654309
000380 82 00 6f 3d 77 4a 93 bc 9d cd 54 3c 15 38 06 3d
       0.058350094 -0.017979844 0.012988475 0.032768328
000390 73 68 7f 3d 87 af 92 3b 3d ee 2f bd f1 f9 6d bc
       0.06235547 0.004476491 -0.04295181 -0.014524923
0003a0 7f 91 32 bd 7c 94 21 3b 91 f2 15 3d 84 36 47 3d
       -0.043595787 0.0024655154 0.036608282 0.048635975
0003b0 af 75 80 bc 8e c7 bb 3c d2 10 4e bd 92 3f 36 3d
       -0.015681116 0.022922304 -0.05030901 0.04449422
0003c0 04 a1 3c bd d7 c8 90 bb 51 b4 1c bd f7 7c da bc
       -0.046051994 -0.004418473 -0.0382579 -0.026670916
0003d0 f6 f3 57 3d cb 30 f1 bc 19 ec b0 3c 70 fb 51 3c
       0.052722894 -0.029442212 0.021596955 0.012816295
0003e0 96 35 a9 bb d0 3a e8 3b b0 b1 15 bd cf e5 64 bd
       -0.0051638586 0.007087089 -0.03654641 -0.055883225
0003f0 35 ba 02 bd 48 66 67 ba 70 09 4a bd 45 a6 94 3c
       -0.031915862 -0.0008827192 -0.049325407 0.01814569

weight f4 [4, 256]
000000 a8 03 f5 3c ee 17 0a bd 00 9a 8a bc 8c b8 1e bc
       0.02990897 -0.033714227 -0.016919136 -0.009687554
000010 c4 ad 69 3c 55 a8 c2 3b 50 b2 5c bd 7d 9e 25 bd
       0.01426262 0.005940477 -0.05388099 -0.04043435
000020 c5 83 9c 3c fc 5d 34 bc 7f 53 28 3d 3b 2c 67 bc
       0.019105801 -0.011008736 0.041095253 -0.014109666
000030 c8 23 6c bd dd 74 4c 3d 81 15 20 3d 28 57 4e bd
       -0.05765131 0.049916137 0.039083008 -0.050376087
000040 06 37 8d 3c 35 3b 33 bd 0b d6 61 bd 7b 6f 0a 3c
       0.017238151 -0.043757636 -0.055135768 0.008449431
000050 94 e6 68 3d 33 d8 dd 3c 70 96 4d bc f4 72 e1 3c
       0.05686052 0.02708063 -0.012548074 0.027520634
000060 12 5a 57 3c f5 13 a5 3c 39 0a 81 3c da 5d 65 bd
       0.013144033 0.020151118 0.015751945 -0.055997707
000070 51 b3 f4 bc da 49 6e 3d ea 2e 12 bd b0 29 39 bd
       -0.029870661 0.0581759 -0.035689272 -0.045205772
000080 84 ea 6d bc 00 5c 4e bc 2a 45 00 bd 9d 69 41 bd
       -0.014521245 -0.012595177 -0.03131596 -0.04721986
000090 5e 83 73 bd 70 17 c3 bb fd ee 0c bd 2c 06 9e 3c
       -0.059451453 -0.0059537217 -0.034407604 0.019290052
0000a0 73 4d 2f 3d 9a 8b 0b 3d b6 45 dc bc 12 38 91 bc
       0.04279847 0.03406868 -0.02688871 -0.017726932
0000b0 81 9f 40 bc 50 71 0c 3d bb e5 d6 bc c3 9f 5c bd
       -0.011756779 0.03428775 -0.02623259 -0.0538633
0000c0 86 44 36 bd 80 e5 f4 3b e2 3e 5f bd ff 23 46 bd
       -0.044498943 0.0074736476 -0.05450333 -0.048374172
0000d0 dc 38 f8 3c fe 77 ba 3b 5f ee 36 3d c4 63 b5 3b
       0.03030055 0.0056905737 0.044660922 0.0055355746
0000e0 6e b1 67 bc 89 fc 1f bc cc e7 a6 3c b2 2f 6c 3d
       -0.014141424 -0.009764799 0.020374201 0.057662673
0000f0 ef e9 ee bc 92 3f e9 bc eb 0b 16 3d e1 ed 48 bd
       -0.029164283 -0.028472695 0.03663246 -0.049054984
000100 ac 2e dd bc f1 e2 34 bd c8 0f 17 ba 7b bf 8a bc
       -0.026999794 -0.04416174 -0.00057625445 -0.016937008
000110 08 3d f1 bc 52 82 88 3c ca 9a 32 bc 0c e9 79 bd
       -0.029448047 0.016663704 -0.010901162 -0.061013266
000120 62 4d 2f 3d 0d f3 35 3d 4d ad 37 3d 5c 58 c0 bc
       0.042798407 0.044421244 0.044843007 -0.023479633
000130 1c dd 0e bd f9 d9 b3 3c 84 d2 f9 bc 06 29 64 bd
       -0.034878835 0.021954523 -0.03049589 -0.055703185
000140 14 f2 15 bd ef 7e f3 bb 78 a0 6b bd 66 72 e4 bc
       -0.036607817 -0.007430903 -0.05752608 -0.02788658
000150 35 98 74 bd 54 71 47 bb be 08 d9 3b dc cd 4a bd
       -0.05971547 -0.003043254 0.0066233566 -0.04951273
000160 c2 5f db 3c 78 42 70 bc de a8 76 3d 55 14 e1 bc
       0.02677906 -0.014664285 0.060219638 -0.027475515
000170 62 c5 7c 3d 32 5d 5c bd c7 f8 d2 3b c7 a0 63 3c
       0.061711676 -0.053799815 0.006438348 0.013893313
000180 cf 0c e8 3c 58 0b f9 bc 55 15 80 3c 93 92 d9 bc
       0.02832642 -0.030400917 0.015635172 -0.02655915
000190 48 39 f5 3c ea 9b 41 bd 5e 90 1b 3d 1b 73 3f 3d
       0.02993454 -0.04726783 0.037979476 0.046740633
0001a0 a5 a8 af 3c 1c b9 a1 3c c9 6a a9 3b 70 30 16 bd
       0.02144272 0.019741587 0.0051702005 -0.036667287
0001b0 d2 c7 f1 bc 46 3c cc 3b 21 67 71 3d 24 a0 dc 3c
       -0.029514227 0.006232771 0.058936242 0.02693183
0001c0 5a e4 2c 3c 12 45 6d 3c 18 ff 61 3d 2d 2b 57 3d
       0.01055249 0.0144818 0.055174917 0.05253141
0001d0 e4 ee 2e 3d c8 ac c1 bc 54 37 e9 3b d3 74 16 bd
       0.042708293 -0.023641959 0.0071171913 -0.036732506
0001e0 1b a1 4d 3d 31 f4 93 bb 9d cb 74 bc 84 05 11 3c
       0.05020247 -0.004515194 -0.014941123 0.008851413
0001f0 d2 ef 4a 3c df 15 10 bd fa ff 44 3d 36 f0 63 3d
       0.012386279 -0.035177108 0.04809568 0.055649005
000200 a3 f8 36 bd 19 d6 59 3c 23 b5 13 3c 38 17 7e bc
       -0.044670712 0.013295674 0.009015354 -0.0155084655
000210 6a 4a 2f bd d9 9c b6 3c 7d 7f 3e bd 50 74 dc bc
       -0.042795576 0.022291588 -0.0465083 -0.02691093
000220 ac 61 7b 3d c5 4a 59 bd a9 12 23 3d af 5f 99 bc
       0.061372444 -0.05304982 0.039812718 -0.018722383
000230 40 0e c7 bc 8f 60 37 3d d6 42 6f 3d 20 7e 73 ba
       -0.024298787 0.04476982 0.05841335 -0.00092885084
000240 df 31 6a bd 5b 1d 8a bb 9d 18 1d ba 93 e5 44 3b
       -0.057176467 -0.004214925 -0.00059927424 0.0030044063
000250 a0 07 39 3d e2 4f 77 bd bc 42 8e bc 80 02 58 bb
       0.045173287 -0.060378917 -0.017365806 -0.0032960474
000260 f3 4d 3c 3c f9 90 d3 bb 5c 11 64 3a b8 c4 09 3d
       0.011493194 -0.006456491 0.00087000965 0.03363487
000270 a8 fe 1e 3c 53 fe 92 bc f2 01 3f 3d ab 76 47 bc
       0.0097042695 -0.017943537 0.046632715 -0.012174289
000280 66 96 68 3d 17 36 18 bd 2f 20 b9 bc d2 8a 62 bb
       0.056784056 -0.03716096 -0.022598354 -0.0034567607
000290 c9 7f 89 3c ce 76 73 bd c3 fb 29 3c 85 1f dd 3c
       0.016784566 -0.059439473 0.010374966 0.026992569
0002a0 97 70 0e bd d7 99 57 3d 50 1d db bb f2 51 ec 3c
       -0.034775343 0.052636947 -0.006686844 0.028847668
0002b0 ad 2c 78 3c bd 6a 76 bd 48 51 b8 3c c8 f6 66 3d
       0.01514737 -0.060160387 0.022499695 0.056387693
0002c0 a4 e1 59 3c 6b 8f b7 bc 8d 73 7d 3c 34 08 74 bd
       0.013298426 -0.022407254 0.015469444 -0.059578136
0002d0 11 bd 07 bc f8 d5 6d bc f1 f8 f5 3c a4 be 4d bd
       -0.008284823 -0.014516346 0.030025931 -0.050230637
0002e0 f3 86 46 bd 7f 31 50 bd 03 d1 5b bd 56 38 94 ba
       -0.04846854 -0.050828453 -0.053666126 -0.0011308293
0002f0 f5 76 5a 3d 9e f1 f6 3c 7c 13 6c bd 7a 70 2c 3d
       0.053336103 0.030144509 -0.05763577 0.042099454
000300 40 3c ae 3a 83 3d 67 bd 73 04 5b bb 4d 5b 58 bd
       0.0013293102 -0.056455147 -0.00334194 -0.052821446
000310 c2 43 6b 3d ce bd 68 bd 8e 42 fc 3c da 85 8d bb
       0.057437666 -0.056821637 0.030793454 -0.004318935
000320 5e e4 d2 3b 7c c5 8e bc 82 09 9e bc 04 0a f0 bc
       0.006435915 -0.017428152 -0.019291643 -0.02930165
000330 fe 3f 58 bd 38 bd 5d bc e2 62 6d 3d eb f7 63 3d
       -0.052795403 -0.013533883 0.05795563 0.055656355
000340 18 1e ba bc 1a 78 b9 3c cb 68 a3 3c b9 5f c9 3c
       -0.022719428 0.022640277 0.01994743 0.024581777
000350 d0 2e 12 3d fa 54 31 3d a9 4d 79 bd 36 da 61 3c
       0.035689175 0.04329393 -0.060865078 0.013784936
000360 80 2d 7b 3d 28 d0 f5 3a 5d 7a e0 bc 36 5c 67 3d
       0.06132269 0.0018754052 -0.027402097 0.056484424
000370 d5 8f 83 3c de 5f 24 3b 2b 20 5e bd 0c 55 4e 3d
       0.016059795 0.0025081555 -0.054229897 0.050374076
000380 f4 da c0 3c a5 bc 1c 3d 1a dd 5c bd a0 14 43 bd
       0.023541905 0.038265843 -0.053921796 -0.04762709
000390 c9 c3 39 bc 77 7e b0 bc 21 5b 32 bb 83 70 bd 3b
       -0.011338183 -0.021544678 -0.0027214962 0.0057812347
0003a0 65 66 2c bd cc b9 ef 3c ac 6e c8 3c 0b 02 ac bb
       -0.04208984 0.0292634 0.024466835 -0.005249267
0003b0 77 62 93 bc db d1 6c bd 7f be 4f bd 8d c2 c7 3c
       -0.017991288 -0.05781732 -0.05071878 0.024384761
0003c0 fe c4 54 3d d9 cf 28 bd cf ae 65 bc 5a c2 e9 3b
       0.05194568 -0.041213844 -0.014018728 0.007133764
0003d0 25 e6 18 3d 15 a4 4f 3d 60 4b 49 bd 6e c0 7e bd
       0.037328858 0.05069359 -0.04914415 -0.062195234
0003e0 ff 64 5b bb 26 67 00 3d e7 21 54 bd 85 68 7b 3a
       -0.0033476946 0.03134837 -0.051790144 0.0009590465
0003f0 11 8a 70 3d a3 f4 1b bc 13 1b 35 bd 94 76 1e 3d
       0.05872542 -0.009518775 -0.044215273 0.038687304

bias f4 [4]
000000 83 50 e7 bb 35 b6 2f 3d 8e 20 e0 bb f4 bd 3f bc
       -0.0070591583 0.042898376 -0.0068398183 -0.011703003
