dqn_learning/queue/models/modelstatedict_3.pth (torch, 292191 bytes, 6 tensors)

net.0.weight f4 [256, 21]
-0.18945369 0.09091476 0.028110337 0.07817959 -0.16034934 0.19907103 -0.14830865 0.059297588
0.13416256 0.061564095 0.092055276 -0.05671272 0.00715655 0.20292662 0.039244276 0.024722103
-0.1975919 0.005305967 -0.11632963 0.03445971 -0.1812574 0.00024984658 0.16685621 -0.21552487
0.20733182 0.0065337284 0.10833532 -0.07630687 0.18531825 -0.016890476 -0.025675897 0.20632657
-0.21049625 0.0842485 0.11432565 0.21054308 -0.025634779 -0.012555967 -0.03369389 -0.051660933
-0.18176785 -0.020188078 0.039218444 -0.116400726 -0.0050246334 -0.033739988 0.083553106 0.07296668
-0.20494285 0.21981084 0.055870224 -0.06457151 -0.017947227 0.06327122 0.041525856 -0.1904796
0.07795765 0.13277462 0.14962982 -0.19338287 -0.06460474 -0.027307756 0.115424156 -0.024211643
0.03496572 0.005626606 -0.16916241 0.09982473 0.16241497 -0.1198281 0.14816612 0.10297147
0.1839985 0.1394356 0.20245442 -0.037876382 -0.1498492 -0.14480886 -0.04728312 0.009903712
0.06554441 0.21975799 -0.023206778 -0.18836021 -0.13007785 0.009775594 0.072429575 -0.004944648
-0.08276407 0.20385914 0.092961155 -0.17995507 -0.09952288 -0.020064285 -0.12148909 0.21585171
-0.17555358 0.013148066 -0.05123243 0.04727056 -0.10823764 0.025251376 -0.037162233 0.12473259
-0.054153997 -0.115791515 -0.066308536 0.084566645 0.0041894405 -0.052108664 0.14668337 -0.08549873
0.04254104 -0.15172932 0.08299465 -0.20098393 -0.17576812 0.023094686 -0.15988061 -0.1329207
-0.2113212 0.12548932 0.10871651 0.10170115 -0.19474536 0.18023646 0.062290397 0.19672969
0.10838659 -0.09982099 0.0861456 -0.14325859 -0.055749875 0.05719762 0.116945006 0.15750144
0.07661319 0.15228479 0.10718374 0.1775674 0.22015615 0.2008147 0.20277493 0.2003883
-0.15099433 0.08693323 0.018529927 0.058909755 -0.060836215 0.016193895 -0.1522381 0.090609424
0.13547315 -0.21599002 -0.09586786 0.15438753 -0.019196527 0.07772861 -0.06864493 0.21365651
0.025073443 -0.091469295 0.081361465 -0.16410941 -0.017594252 0.07700927 0.05122638 0.06893165
-0.023524115 -0.054513786 0.2194024 -0.091507636 0.11034847 -0.20742872 -0.06821373 -0.013332504
0.08253562 0.1418361 -0.16837293 -0.124953024 0.033639427 -0.19782554 0.14858355 0.20205852
-0.0749173 0.14768766 -0.12914796 -0.13779247 0.21763581 -0.08606048 -0.13957506 0.07463053
-0.1675388 0.12272929 -0.13799483 0.079526775 0.21570364 0.19336931 -0.16143064 -0.18310493
0.2058801 -0.13012245 0.09913435 -0.1329248 -0.0074061076 0.086304285 0.063417174 -0.19901599
0.17519331 -0.20215368 -0.123768836 0.021748438 -0.10042462 0.07285847 0.0072401017 0.20336868
0.1494688 -0.16429643 0.013391301 -0.15316603 -0.09230289 0.008782089 0.0066283643 -0.1963357
0.015676394 0.09167789 -0.07375494 0.12873213 -0.075529635 -0.083917245 0.13705842 0.10322587
0.05408065 -0.20019515 -0.018364877 0.014064908 0.12923633 0.10329272 0.045519218 -0.0104070455
0.012921065 -0.2053332 -0.06550549 -0.18380393 -0.07306227 -0.13098961 0.010554388 0.04026051
-0.12747036 -0.0328373 -0.025255024 -0.113493465 -0.19864693 -0.09917813 0.13580443 -0.04114555
00000000: 2600 42be 8531 ba3d a647 e63c 9f1c a03d
00000010: 9e32 24be 47d9 4b3e 39de 17be 07e2 723d
00000020: e961 093e a22a 7c3d 7a87 bc3d 994b 68bd
00000030: 7e81 ea3b ffcb 4f3e 9bbe 203d 0286 ca3c
00000040: 8855 4abe addd ad3b 3b3e eebd a025 0d3d
00000050: 8a9b 39be d7fd 8239 5bdc 2a3e 8db2 5cbe
00000060: cb4e 543e e318 d63b e9de dd3d c746 9cbd
00000070: 11c4 3d3e e55d 8abc 4256 d2bc 4647 533e
00000080: 548c 57be 7a8a ac3d 9123 ea3d 9b98 573e
00000090: 0700 d2bc 8bb7 4dbc 9b02 0abd 6a9a 53bd
000000a0: 5a21 3abe 7861 a5bc 85a3 203d 8163 eebd
000000b0: aea5 a4bb f132 0abd e41d ab3d 8e6f 953d
000000c0: 8adc 51be 1816 613e 2dd8 643d 113e 84bd
000000d0: 1006 93bc 5794 813d 0417 2a3d 160d 43be
000000e0: 43a8 9f3d 12f6 073e 8f38 193e 2906 46be
000000f0: 7d4f 84bd 84b4 dfbc 8063 ec3d 7f57 c6bc
00000100: 3738 0f3d 645f b83b e938 2dbe e870 cc3d
00000110: 1c50 263e 6f68 f5bd dcb8 173e b5e2 d23d
00000120: 1a6a 3c3e 35c8 0e3e 3650 4f3e 4424 1bbd
00000130: 1272 19be c648 14be f2ab 41bd 2e43 223c
00000140: 263c 863d 3d08 613e 241c bebc 80e1 40be
00000150: 2133 05be d029 203c f555 943d b706 a2bb
00000160: 3580 a9bd 73c0 503e 6b62 be3d 2446 38be
00000170: a7d2 cbbd db5d a4bc 46cf f8bd 3b08 5d3e
00000180: 51c4 33be fc6a 573c 19d9 51bd c69e 413d
00000190: b2ab ddbd f9db ce3c 6d37 18bd cd73 ff3d
000001a0: 95d0 5dbd 1a24 edbd c5cc 87bd 4731 ad3d
000001b0: 9347 893b e56f 55bd 2a34 163e f519 afbd
000001c0: 833f 2e3d ee5e 1bbe 19f9 a93d bbce 4dbe
000001d0: 8ffc 33be 1131 bd3c beb7 23be 5d1c 08be
000001e0: 9664 58be 4680 003e c3a6 de3d b148 d03d
000001f0: 546b 47be e88f 383e 3724 7f3d 8273 493e
00000200: caf9 dd3d f26e ccbd 1b6d b03d 61b2 12be
00000210: fb59 64bd 0d48 6a3d dd80 ef3d 0f48 213e
00000220: 60e7 9c3d 8bf0 1b3e 2683 db3d 3ad4 353e
00000230: 9d70 613e 5ea2 4d3e 3ba4 4f3e 9732 4d3e
00000240: 429e 1abe 0d0a b23d 13cc 973c 5b4b 713d
00000250: 652f 79bd 0fa9 843c 4ee4 1bbe 6f91 b93d
00000260: 79b9 0a3e 7d2c 5dbe 5e56 c4bd c417 1e3e
00000270: 0942 9dbc 2d30 9f3d b795 8cbd c6c8 5a3e
00000280: d266 cd3c 4154 bbbd d7a0 a63d 4c0c 28be
00000290: d221 90bc 09b7 9d3d c1d2 513d 092c 8d3d
000002a0: a5b5 c0bc d949 5fbd 06ab 603e 5b68 bbbd
000002b0: 61fe e13d 3268 54be a4b3 8bbd 9370 5abc
000002c0: 6f08 a93d 7c3d 113e f469 2cbe 5fe7 ffbd
000002d0: 7fc9 093d c792 4abe 4926 183e 6ee8 4e3e
000002e0: 3e6e 99bd 6f3b 173e 5d3f 04be 7819 0dbe
000002f0: ecdb 5e3e 7a40 b0bd c4ec 0ebe e4d7 983d
00000300: 4b8f 2bbe 7e59 fb3d 844e 0dbe efde a23d
00000310: 6ae1 5c3e 9b02 463e 134e 25be dc7f 3bbe
00000320: 3cd2 523e d23e 05be f306 cb3d 701d 08be
00000330: efae f2bb 4dc0 b03d dde0 813d d9ca 4bbe
00000340: e065 333e 6001 4fbe 847a fdbd c829 b23c
00000350: 6cab cdbd d236 953d 603e ed3b e13f 503e
00000360: 590e 193e 533d 28be 3067 5b3c 8ed7 1cbe
00000370: 4c09 bdbd c0e2 0f3c c032 d93b 3a0c 49be
00000380: c86b 803c 9ec1 bb3d d40c 97bd 5bd2 033e
00000390: 48af 9abd cedc abbd 0b59 0c3e 1668 d33d
000003a0: ac83 5d3d f5ff 4cbe f071 96bc 8070 663c
000003b0: 8756 043e 228b d33d 5c72 3a3d 5082 2abc
000003c0: e0b2 533c de42 52be be27 86bd 1937 3cbe
000003d0: aca1 95bd 2422 06be 50ec 2c3c 34e8 243d
000003e0: 9787 02be 6880 06bd a0e3 cebc 436f e8bd
000003f0: 1a6a 4bbe e71d cbbd 5110 0b3e 3c88 28bd

net.0.bias f4 [256]
0.026772536 0.118977964 -0.13834666 0.09069738 0.0777191 0.14639884 -0.20643674 -0.06272554
0.044251353 0.1510687 -0.18009192 -0.11527277 -0.16223538 0.1327971 0.09785526 -0.1974809
0.08022543 -0.08155424 -0.1481686 -0.2074018 0.021436902 0.11929458 0.026321555 -0.14075734
-0.023673031 -0.042707413 0.08294495 0.0750578 -0.034520954 0.10673354 -0.16771835 -0.15527226
-0.13463365 0.19090651 0.11980265 0.17763351 -0.060189415 0.2159512 -0.097804055 -0.07737571
-0.018651776 0.19032997 0.12718835 0.12518844 -0.14798401 -0.20028557 -0.19345604 0.17820348
0.15405549 0.10933971 -0.2033221 0.1317315 0.012391138 -0.17088085 -0.025291625 -0.062141858
-0.17660755 -0.06803688 -0.1676219 0.013909942 -0.02354313 -0.058157932 -0.15671562 0.02674783
-0.19039212 0.066153735 -0.067409046 -0.10601208 -0.11364588 0.18174094 0.075903945 0.20441921
0.18588592 -0.13649644 -0.00025651057 0.19827068 -0.14983702 0.011799847 -0.00033207863 0.035407428
0.057613466 0.07526576 -0.06620803 0.042787723 -0.006616761 -0.022293814 -0.09082422 -0.10648686
0.15112978 0.18919004 -0.18132436 -0.18463936 0.0940734 -0.10020474 -0.18998556 -0.09207518
0.021061823 0.08434165 0.06596414 0.057050966 0.008168636 0.03140364 0.14055914 0.111658245
-0.15082975 -0.19864535 -0.0424195 0.08195188 0.20413412 0.12913494 -0.13914558 -0.12639423
0.0783743 -0.07019968 0.012481236 -0.12645447 -0.16542633 -0.05438897 0.024967069 0.067449674
-0.09568049 -0.05650459 0.026537536 0.044258468 0.16239354 -0.040948596 0.020695735 -0.06142891
-0.078139745 -0.20264886 -0.15923418 -0.1172494 0.114251 -0.07370558 0.12691149 -0.036369223
-0.023808923 -0.20088091 0.17703016 0.107001446 -0.047531083 0.023871334 -0.096835725 -0.020954119
-0.09187224 -0.049953632 -0.08814986 -0.008253331 -0.13987899 -0.20128086 -0.15678851 -0.022445168
0.11812976 -0.08457287 -0.13767125 0.023663007 0.17288862 -0.15471564 -0.18373004 0.095595926
0.05151613 0.18800633 0.1524671 0.119860455 -0.039417125 0.035970103 0.10131279 -0.12936819
-0.12161919 0.19156624 -0.13402407 -0.15377481 0.091316536 -0.084319435 0.04011773 -0.113336064
0.12804544 -0.09346073 0.0880289 -0.09459554 -0.035778243 0.034662385 0.11657394 0.03523074
-0.21473435 -0.1903364 -0.19215003 -0.017046131 0.12846836 -0.05725751 0.11380733 -0.007179621
-0.03494981 0.19724105 -0.115117036 -0.15999871 -0.19907399 0.010460959 0.11976175 0.13073845
-0.0381416 0.14969513 0.044735596 0.019888578 -0.017186789 0.18338943 -0.15191598 0.17464828
-0.11167711 -0.15545301 0.067993164 0.16595575 0.1715663 -0.20294596 0.014862885 0.1292735
-0.13021287 0.2113016 0.13913837 0.15926927 -0.07960427 -0.042396285 -0.106051266 -0.16764067
-0.10930137 -0.13353394 0.17162731 -0.084304765 -0.044357896 -0.10678961 0.13847099 -0.16313635
-0.104361154 0.014644251 -0.13931623 -0.1996347 0.14963299 -0.03268092 -0.13748306 -0.046134025
-0.018091938 -0.09533441 -0.10712938 -0.0726692 0.11557004 -0.15822665 0.10146177 -0.17100434
0.047683455 -0.105431765 0.07686262 0.06318792 0.027727744 -0.02486251 -0.072271615 0.050636556
00000000: 1452 db3c b8aa f33d bfaa 0dbe 8cbf b93d
00000010: 312b 9f3d 94e9 153e 2764 53be 3f76 80bd
00000020: e840 353d c1b1 1a3e 046a 38be 2114 ecbd
00000030: 0821 26be f7fb 073e 5768 c83d 6f38 4abe
00000040: 3b4d a43d e905 a7bd 82b9 17be 2361 54be
00000050: 719c af3c b750 f43d 4da0 d73c b122 10be
00000060: f2ed c1bc f8ed 2ebd 0bdf a93d e7b7 993d
00000070: d865 0dbd 1d97 da3d 5cbe 2bbe b1ff 1ebe
00000080: 67dd 09be ff7c 433e 175b f53d 8fe5 353e
00000090: 2d89 76bd 5022 5d3e 7e4d c8bd 2877 9ebd
000000a0: 9ccb 98bc dce5 423e aa3d 023e 6631 003e
000000b0: 1f89 17be a917 4dbe 5719 46be f97a 363e
000000c0: b9c0 1d3e 7fed df3d ab33 50be 9fe4 063e
000000d0: 3304 4b3c 64fb 2ebe 6230 cfbc 7688 7ebd
000000e0: 9cd8 34be eb56 8bbd 13a5 2bbe 86e6 633c
000000f0: 86dd c0bc 0337 6ebd 0f7a 20be 441e db3c
00000100: 27f6 42be 9c7b 873d c10d 8abd dd1c d9bd
00000110: 2cbf e8bd 4c1a 3a3e 8773 9b3d 4553 513e
00000120: e158 3e3e b9c5 0bbe 447c 86b9 7807 4b3e
00000130: e06e 19be 2554 413c d71a aeb9 6107 113d
00000140: 19fc 6b3d ef24 9a3d 1398 87bd 2e42 2f3d
00000150: 6ad1 d8bb 84a1 b6bc 0c02 babd c815 dabd
00000160: c4c1 1a3e 09bb 413e 18ad 39be 1a12 3dbe
00000170: 8ea9 c03d 2538 cdbd 938b 42be e991 bcbd
00000180: d889 ac3c 51bb ac3d 3518 873d 46ae 693d
00000190: bed5 053c 1aa1 003d bcee 0f3e 14ad e43d
000001a0: 1d73 1abe b069 4bbe 12c0 2dbd 63d6 a73d
000001b0: 8908 513e f33b 043e 2e7c 0ebe 7d6d 01be
000001c0: b482 a03d dac4 8fbd 197e 4c3c 487d 01be
000001d0: 8565 29be f8c6 5ebd bd87 cc3c 0e23 8a3d
000001e0: 22f4 c3bd 5b71 67bd 3f65 d93c 5e48 353d
000001f0: 7e4a 263e b7b9 27bd 1a8a a93c e19c 7bbd
00000200: bb07 a0bd 2f83 4fbe 490e 23be 7420 f0bd
00000210: 6efc e93d f3f2 96bd 16f5 013e e5f7 14bd
00000220: ee0a c3bc bab3 4dbe 6547 353e 9323 db3d
00000230: f4af 42bd d18d c33c cf51 c6bd f9a7 abbc
00000240: 8327 bcbd 2e9c 4cbd ea87 b4bd fb38 07bc
00000250: 703c 0fbe 921c 4ebe 2b8d 20be eede b7bc
00000260: 04ee f13d 8a34 adbd b1f9 0cbe ecd8 c13c
00000270: b709 313e c76d 1ebe ba23 3cbe ccc7 c33d
00000280: 9402 533d bb84 403e 5620 1c3e 6679 f53d
00000290: da73 21bd 6355 133d 147d cf3d 1879 04be
000002a0: 7b13 f9bd f129 443e 9b3d 09be 2577 1dbe
000002b0: 2a04 bb3d abaf acbd 7d52 243d bd1c e8bd
000002c0: 581e 033e 5768 bfbd 7f48 b43d 4ebb c1bd
000002d0: 358c 12bd 25fa 0d3d 51be ee3d 1c4e 103d
000002e0: 52e3 5bbe 8ce7 42be fac2 44be 54a4 8bbc
000002f0: 368d 033e da86 6abd d113 e93d 0743 ebbb
00000300: 8827 0fbd 8ff9 493e 7bc2 ebbd b4d6 23be
00000310: 0dda 4bbe 7164 2b3c a645 f53d 4de0 053e
00000320: 5e3a 1cbd ae49 193e ac3c 373d 5fed a23c
00000330: 4fcb 8cbc 70ca 3b3e dd8f 1bbe 00d7 323e
00000340: f8b6 e4bd 132f 1fbe 0040 8b3d 4ef0 293e
00000350: 13af 2f3e 11d1 4fbe 7583 733c 4660 043e
00000360: 8656 05be 725f 583e 4a7a 0e3e 7c17 233e
00000370: 9007 a3bd baa7 2dbd 6831 d9bd ffa9 2bbe
00000380: 66d9 dfbd 1fbd 08be 12bf 2f3e faa7 acbd
00000390: a0b0 35bd 83b4 dabd 57cb 0d3e 370d 27be
000003a0: 4dbb d5bd 71ee 6f3c eaa8 0ebe 0a6d 4cbe
000003b0: 6439 193e 6edc 05bd 5cc8 0cbe 08f7 3cbd
000003c0: 8b35 94bc b03e c3bd a666 dbbd 97d3 94bd
000003d0: fcaf ec3d 2b06 22be 30cb cf3d c31b 2fbe
000003e0: ba4f 433d 9cec d7bd 266a 9d3d ab68 813d
000003f0: 4b25 e33c 76ac cbbc 2403 94bd 4768 4f3d

net.2.weight f4 [256, 256]
-0.008003376 0.007352419 -0.06154927 -0.041310303 0.004411623 -0.062254548 -0.060921796 -0.049865834
-0.00444407 0.051734522 -0.05676821 0.043179378 0.014091961 0.003274247 0.047234483 -0.059434094
-0.05146247 -0.015915856 0.011403553 0.041404165 0.017857 -0.054494634 -0.0015720129 0.0024212748
-0.019473888 0.054944485 0.02655927 0.057832718 0.056674667 -0.030361481 -0.0033480376 0.008650951
0.049532086 0.059991293 0.040006816 0.008224748 -0.015627213 -0.05675821 -0.027656578 0.058503248
0.0065575615 -0.040216677 -0.05890406 -0.042739637 0.029454298 0.029932864 -0.011377841 0.051087946
0.048756853 -0.053779654 -0.015376568 0.040947817 -0.012534685 -0.002525717 -0.061023913 0.017061956
-0.0313062 -0.025003292 0.04041323 -0.036860526 0.052186444 -0.002238445 0.038575217 -0.03960616
-0.027122356 -0.014798157 -0.05535441 -0.04283648 0.02889064 0.0080579445 0.04607086 0.050944142
-0.029068828 0.01014439 0.011864729 0.060528725 -0.06042435 -0.015074715 -0.050921515 -0.057547487
0.01920037 -0.033486985 -0.014268637 0.059945166 0.034794204 0.028749764 0.012797117 0.04797423
0.05397352 -0.011618435 0.03819488 0.00031929463 -0.014469199 -0.034615822 -0.060977593 -0.055400684
0.055462576 -0.026592046 0.03798268 0.03358177 -0.053774163 0.051209442 -0.062079124 0.03957703
0.027915746 0.0009169802 0.030430175 0.044733405 0.05618964 0.056667842 0.012828551 0.028469227
-0.05970244 0.013125591 -0.046286277 -0.06029892 -0.008983746 -0.03340874 -0.03445518 0.017508388
0.062050633 -0.031399257 0.04732178 0.004158348 0.039759032 -0.0044489205 0.004634358 0.03302902
0.0029861927 -0.02197621 -0.038273685 0.021985382 -0.01310949 0.044785693 -0.033531666 0.008860126
-0.0020607114 0.014542602 -0.043464422 -0.01648099 0.04255914 -0.0041222125 0.051680394 -0.046551056
0.04186716 0.041040123 -0.001551561 0.017862782 -0.01835157 0.017851554 -0.024118207 0.0023132488
-0.048313484 -0.048171245 -0.029922381 -0.04102855 -0.019959174 -0.029009081 0.061100997 -0.0030481294
0.0613894 -0.007510796 0.0015109256 -0.019644119 0.025082253 0.037576176 -0.026543409 -0.04723177
-0.005446337 0.048129782 0.05582813 -0.060723215 -0.009420864 0.024045609 -0.024885796 -0.057862557
0.02369544 -0.018804207 0.029651597 -0.03324496 0.03376399 0.05149839 0.0376765 0.045099095
0.0052378625 0.058212698 0.040682375 -0.03877078 0.011269793 0.018833607 0.0038271546 -0.0023099482
-0.013587475 0.014743246 0.003045015 -0.019616969 -0.044057697 -0.03113547 -0.050909832 -0.05737202
-0.011749744 0.045772545 0.038077928 0.024399288 0.061750732 0.0013625249 0.050149716 -0.03189955
-0.033403702 -0.05677011 -0.029413596 0.014561303 0.0034192726 0.036350407 -0.040177673 -0.042160958
-0.0011685267 0.010014191 0.0521719 -0.048885822 0.0361835 0.02297809 -0.060103506 0.029748447
0.04551138 -0.014093369 -0.047574207 -0.016591892 0.060772635 -0.008894682 -0.036635645 0.040396884
0.0051046684 0.057167307 -0.059124455 -0.0045241117 -0.03738647 -0.020936899 0.015226714 0.0016634464
0.016929083 -0.04008452 0.04078071 0.004815787 0.06053289 0.030608945 0.010917999 0.051885128
-0.0139142275 0.002556555 -0.013714597 -0.058077835 0.06011731 -0.056386515 -0.013055414 -0.033514574
00000000: 9820 03bc 90ec f03b 161b 7cbd fe34 29bd
00000010: 608f 903b a0fe 7ebd 2289 79bd 1e40 4cbd
00000020: 909f 91bb 94e7 533d c885 68bd dcdc 303d
00000030: f8e1 663c c094 563b f278 413d 2a71 73bd
00000040: 50ca 52bd f861 82bc f8d5 3a3c 6a97 293d
00000050: d848 923c c435 5fbd 000c ceba 40ae 1e3b
00000060: b487 9fbc 780d 613d d492 d93c 00e2 6c3d
00000070: b223 683d a4b8 f8bc c06a 5bbb b8bc 0d3c
00000080: 28e2 4a3d 6eb9 753d 30de 233d 18c1 063c
00000090: a404 80bc 4c7b 68bd 0c90 e2bc 1aa1 6f3d
000000a0: d0e0 d63b 3eba 24bd 6245 71bd c20f 2fbd
000000b0: 244a f13c c435 f53c 206a 3abc 9841 513d
000000c0: 44b5 473d 0e48 5cbd 00ee 7bbc e6b8 273d
000000d0: 485e 4dbc 8086 25bb 36f4 79bd 84c5 8b3c
000000e0: ee3a 00bd b4d3 ccbc 5888 253d 10fb 16bd
000000f0: 74c1 553d e0b2 12bb 0c01 1e3d 123a 22bd
00000100: b42f debc f873 72bc 4ebb 62bd 4e75 2fbd
00000110: 10ac ec3c 7805 043c ccb4 3c3d ceaa 503d
00000120: c021 eebc a834 263c 4864 423c f8ec 773d
00000130: 867f 77bd f0fb 76bc 1493 50bd eab6 6bbd
00000140: 184a 9d3c a629 09bd 00c7 69bc 1089 753d
00000150: 5e84 0e3d a084 eb3c 00ab 513c a080 443d
00000160: 5613 5d3d 405b 3ebc 3c72 1c3d 0067 a739
00000170: 3810 6dbc 52c9 0dbd a4c3 79bd d4eb 62bd
00000180: ba2c 633d 90d7 d9bc ba93 1b3d 0a8d 093d
00000190: 4c42 5cbd fec0 513d ae46 7ebd 861b 223d
000001a0: 90af e43c 8061 703a b448 f93c 603a 373d
000001b0: 1c27 663d 8a1c 683d d82e 523c 4c38 e93c
000001c0: 8c8a 74bd b80c 573c ae96 3dbd 00fc 76bd
000001d0: 9030 13bc 9ad7 08bd e020 0dbd c06d 8f3c
000001e0: ce28 7e3d 829c 00bd 7cd4 413d c042 883b
000001f0: 5eda 223d 40c8 91bb d0db 973b 7049 073d
00000200: 00b4 433b 7407 b4bc dec4 1cbd b01a b43c
00000210: 30c9 56bc 3471 373d 8058 09bd 102a 113c
00000220: 000d 07bb 1844 6e3c c007 32bd 2403 87bc
00000230: 7e52 2e3d a013 87bb d2ae 533d 52ac 3ebd
00000240: e67c 2b3d b019 283d c05d cbba f854 923c
00000250: 0856 96bc 6c3d 923c 8c93 c5bc e099 173b
00000260: 5ce4 45bd 364f 45bd c81f f5bc 8e0d 28bd
00000270: 6c81 a3bc 74a4 edbc 0a45 7a3d 20c3 47bb
00000280: 7473 7b3d 201d f6bb 400a c63a b4ec a0bc
00000290: 4c79 cd3c 7ae9 193d 9071 d9bc 1a76 41bd
000002a0: 3077 b2bb bc23 453d 0aac 643d e8b8 78bd
000002b0: f859 1abc 4cfb c43c 4cdd cbbc 4a01 6dbd
000002c0: f01c c23c 480b 9abc e8e7 f23c de2b 08bd
000002d0: 1c4c 0a3d faef 523d ac52 1a3d d4b9 383d
000002e0: 60a2 ab3b 7070 6e3d 90a2 263d 1cce 1ebd
000002f0: f0a4 383c f048 9a3c 00d1 7a3b 8062 17bb
00000300: 009e 5ebc a88d 713c e08e 473b c4b3 a0bc
00000310: d875 34bd d00f ffbc d486 50bd ecfe 6abd
00000320: 0082 40bc fe7b 3b3d 9af7 1b3d 04e1 c73c
00000330: 56ee 7c3d c096 b23a ca69 4d3d 1aa9 02bd
00000340: 52d2 08bd c687 68bd c8f4 f0bc 8892 6e3c
00000350: e015 603b 2ae4 143d 5891 24bd f8b0 2cbd
00000360: 4029 99ba 9012 243c 34b2 553d 803c 48bd
00000370: 2635 143d 8c3c bc3c 182f 76bd 04b3 f33c
00000380: 246a 3a3d e0e7 66bc 2cdd 42bd b8eb 87bc
00000390: baec 783d 00bb 11bc 420f 16bd 3477 253d
000003a0: 1045 a73b 4428 6a3d 7c2c 72bd 003f 94bb
000003b0: 8e22 19bd dc83 abbc 7879 793c 0008 da3a
000003c0: dcae 8a3c aa2f 24bd ac09 273d c0cd 9d3b
000003d0: 56f1 773d 9cbf fa3c 68e1 323c 8085 543d
000003e0: 80f8 63bc e08b 273b 30b3 60bc 06e3 6dbd
000003f0: 923d 763d 8cf5 66bd 60e6 55bc 9446 09bd

net.2.bias f4 [256]
-0.0546097 -0.028325388 -0.0137153575 -0.0153570585 0.031380765 -0.030467687 0.05287135 -0.006920865
0.045668628 0.021953046 0.04827497 -0.0044609965 -0.03801194 0.010086111 0.025016803 -0.033455305
-0.05017183 -0.021131018 -0.050763696 0.013987565 0.03286661 0.045274556 0.044767216 0.03686843
0.013169935 0.011181467 -0.011563513 -0.04564231 0.027891677 0.045934483 0.046355277 -0.029480316
0.058020648 -0.008986406 -0.04922697 0.06133295 0.027148975 -0.06035912 -0.0328375 -0.05890687
0.04284763 -0.0635388 0.043400545 -0.02189596 -0.005089006 -0.047834557 0.0013965638 0.040078472
0.018991925 0.0153157115 -0.061992303 0.014467396 -0.037244428 -0.04848766 0.057400383 0.04730138
0.036190998 -0.006476069 0.020971142 -0.06208823 0.05927619 0.02962643 0.010395396 0.014945666
0.014493465 -0.032104615 0.011894612 0.06318223 0.016592627 0.045187294 -0.035987947 0.042166132
-0.034814335 -0.019152591 0.027887503 -0.036121376 0.028951226 0.053373672 -0.033430222 -0.056127418
0.03350791 -0.06265172 -0.008791712 0.00341949 0.05676441 0.06386794 -0.013535475 0.05911418
-0.005580771 -0.05120769 -0.0053935274 -0.06371429 -0.049536593 0.062578075 -0.0420373 -0.012092596
0.05553293 0.05347403 0.0028652328 0.044039268 -0.035500724 0.051332463 -0.029277857 -0.051566802
0.010845977 -0.027221836 -0.04466033 -0.028672744 0.010207016 0.029687472 0.026008263 0.03791701
-0.036121882 -0.028476642 -0.045157693 0.015748173 -0.019235345 -0.008293469 -0.04413422 0.045071382
-0.03519331 -0.03929214 0.049575347 0.015311319 -0.0017373114 0.023100328 0.0018474654 -0.020798346
-0.0023075985 0.05172849 0.040092703 0.039166905 -0.058443405 0.04422611 -0.04896748 -0.028759168
0.033559296 -0.029043427 0.038579185 0.0012094048 -0.04279816 0.050080556 0.025818635 0.0051805247
0.058640838 0.048178498 0.039242096 0.013465603 0.0015642301 0.013323157 0.0037251813 -0.026403837
-0.04127316 -0.014450398 0.00015011244 0.026216175 0.01960437 -0.04001846 0.030349933 0.031663783
-0.017478203 0.041955244 -0.007822437 0.024979528 -0.045542527 -0.057720706 0.041248832 -0.059865758
0.028342439 -0.005545429 0.052781694 0.021715071 0.053455938 -0.011268946 0.029458635 -0.040860727
0.060257662 -0.010877786 0.046540596 -0.00079807575 0.060872782 -0.030511774 -0.015793014 -0.03811591
0.06533709 -0.026787046 0.039599247 -0.054482725 -0.062766284 0.051362433 -0.059511237 -0.05738256
0.02549256 -0.05422258 -0.00960339 -0.00671927 0.04436877 0.028296432 -0.038251113 0.0008338011
0.013054732 0.02038382 0.036043756 0.013172221 -0.043891177 0.038499355 -0.06443443 -0.018464118
-0.04653472 -0.035530347 0.05676407 -0.033979643 0.04163811 -0.04890184 -0.027929317 0.05803311
-0.053453 -0.0019357307 -0.033426117 0.014193513 0.04524723 0.024373978 0.053582493 -0.003511257
0.05666933 -0.018244667 0.0133507475 0.033817902 0.065391086 0.010087827 -0.045039177 -0.010792714
-0.037417926 0.005571904 0.035597596 0.047513857 -0.01411833 0.02427055 -0.048109215 0.04623951
-0.046051994 -0.0014901188 -0.039051905 -0.022212517 0.048681524 -0.029398525 0.026262162 0.016724782
-0.007987251 0.006333923 -0.03467906 -0.054223534 -0.03379418 -0.0002567181 -0.04673836 0.017483389
00000000: 6cae 5fbd a50a e8bc 61b6 60bc 2c9c 7bbc
00000010: 1e89 003d 5f97 f9bc a18f 583d 6cc8 e2bb
00000020: 070f 3b3d e0d6 b33c fabb 453d 8d2d 92bb
00000030: 68b2 1bbd 3740 253c 0af0 cc3c 6e08 09bd
00000040: fa80 4dbd f51a adbc 98ed 4fbd 1a2c 653c
00000050: 239f 063d d071 393d d45d 373d 5a03 173d
00000060: b6c6 573c 7932 373c e474 3dbc 6ef3 3abd
00000070: 167d e43c cc25 3c3d 08df 3d3d b480 f1bc
00000080: 0fa7 6d3d b83b 13bc 38a2 49bd 4238 7b3d
00000090: 8767 de3c 203b 77bd 9d80 06bd 5548 71bd
000000a0: ff80 2f3d a120 82bd c5c4 313d 285f b3bc
000000b0: adc1 a6bb 2bee 43bd e80c b73a 5329 243d
000000c0: f494 9b3c c0ee 7a3c a4eb 7dbd a808 6d3c
000000d0: 9d8d 18bd ff9a 46bd aa1c 6b3d 18bf 413d
000000e0: 033d 143d 3435 d4bb accb ab3c 3a50 7ebd
000000f0: 97cb 723d 20b3 f23c 7351 2a3c abde 743c
00000100: 0076 6d3c 2180 03bd 9ee1 423c af65 813d
00000110: 43ed 873c 5016 393d 1968 13bd 65b6 2c3d
00000120: 7a99 0ebd e5e5 9cbc 5574 e43c 02f4 13bd
00000130: 1f2b ed3c 5a9e 5a3d 21ee 08bd dde5 65bd
00000140: 973f 093d 8c4f 80bd 1d0b 10bc 8619 603b
00000150: cc81 683d 32cd 823d e6c3 5dbc b621 723d
00000160: e6de b6bb 28bf 51bd 30bc b0bb a37c 82bd
00000170: e2e6 4abd ef28 803d 4e2f 2cbd 0620 46bc
00000180: 7f76 633d 9607 5b3d a1c6 3b3b 8562 343d
00000190: 3569 11bd fd41 523d 1ed8 efbc b637 53bd
000001a0: 53b3 313c 5400 dfbc c0ed 36bd 1ae3 eabc
000001b0: 543b 273c 2433 f33c 480f d53c de4e 1b3d
000001c0: 8af4 13bd d947 e9bc 46f7 38bd 5002 813c
000001d0: 7193 9dbc 55e1 07bc 15c6 34bd c59c 383d
000001e0: dc26 10bd ccf0 20bd 850f 4b3d 54dc 7a3c
000001f0: 7fb6 e3ba e63c bd3c a726 f23a 4b61 aabc
00000200: 143b 17bb 41e1 533d 3f38 243d 7a6d 203d
00000210: 5a62 6fbd 7026 353d 2092 48bd 5998 ebbc
00000220: 7975 093d 7bec edbc 3505 1e3d e484 9e3a
00000230: 204d 2fbd 4521 4d3d 9a81 d33c 64c1 a93b
00000240: 6031 703d d156 453d 52bc 203d d59e 5c3c
00000250: da06 cd3a 5f49 5a3c 2c22 743b dc4c d8bc
00000260: 0c0e 29bd 5dc1 6cbc 8067 1d39 4ec3 d63c
00000270: 5899 a03c 66ea 23bd 6ca0 f83c e2b1 013d
00000280: 732e 8fbc 43d9 2b3d ae29 00bc dea1 cc3c
00000290: cd8a 3abd 8c6c 6cbd 89f4 283d cc35 75bd
000002a0: 672e e83c 6eb6 b5bb 9e31 583d cee3 b13c
000002b0: 9df4 5a3d 63a1 38bc 3c53 f13c 945d 27bd
000002c0: bdd0 763d be38 32bc 5aa1 3e3d f535 51ba
000002d0: bd55 793d d4f3 f9bc 5a60 81bc 6e1f 1cbd
000002e0: 74cf 853d 8270 dbbc d232 223d 4729 5fbd
000002f0: 9c8b 80bd 6a61 523d 0ec2 73bd fa09 6bbd
00000300: c6d5 d03c 7f18 5ebd 8957 1dbc 522d dcbb
00000310: 07bc 353d ebcd e73c 33ad 1cbd 7293 5a3a
00000320: 84e3 553c f8fb a63c 9ea2 133d 4dd0 573c
00000330: 3cc7 33bd 80b1 1d3d 33f6 83bd 1042 97bc
00000340: 319b 3ebd 4588 11bd 7181 683d 3d2e 0bbd
00000350: b98c 2a3d 4c4d 48bd 06cc e4bc 20b4 6d3d
00000360: 88f1 5abd 58b8 fdba d3e9 08bd e98b 683c
00000370: 2955 393d f0ab c73c 5179 5b3d 1e1d 66bb
00000380: 191e 683d d775 95bc 18bd 5a3c a484 0a3d
00000390: c3eb 853d 6a47 253c 007b 38bd ecd3 30bc
000003a0: 8a43 19bd 8594 b63b c9ce 113d e49d 423d
000003b0: 9150 67bc 08d3 c63c 2b0e 45bd a465 3d3d
000003c0: 04a1 3cbd 1750 c3ba e4f4 1fbd 06f7 b5bc
000003d0: 4766 473d 2dd5 f0bc bf23 d73c 6902 893c
000003e0: f5dc 02bc cc8c cf3b a10b 0ebd 7f19 5ebd
000003f0: c46b 0abd 1f98 86b9 b970 3fbd 5339 8f3c

net.4.weight f4 [4, 256]
0.02990897 -0.033714227 -0.020445475 -0.012655208 0.010910532 0.0059146523 -0.05725161 -0.043413814
0.018500064 -0.012727145 0.04003546 -0.016152676 -0.05765131 0.049268823 0.037235536 -0.050376087
0.017113484 -0.045982424 -0.055630658 0.005144232 0.056037724 0.025029117 -0.01624671 0.027520634
0.009781031 0.017221091 0.012565297 -0.055997707 -0.032388113 0.0581759 -0.035689272 -0.045205772
-0.018168518 -0.012595177 -0.031568855 -0.05039793 -0.062543996 -0.007897982 -0.038190182 0.018627193
0.041405186 0.03266209 -0.028329285 -0.02001449 -0.013082416 0.03338378 -0.02953452 -0.0577423
-0.046983924 0.0074736476 -0.05450333 -0.052145284 0.028256306 0.003611726 0.042412378 0.0034243015
-0.01703994 -0.01140576 0.018735062 0.056740273 -0.03263475 -0.031764627 0.03440641 -0.050595444
-0.026999794 -0.04584723 -0.0009137189 -0.021068703 -0.030251198 0.016189279 -0.01115406 -0.06373101
0.041456725 0.042243868 0.043008506 -0.02536427 -0.035190735 0.018831227 -0.03230163 -0.059457608
-0.037751902 -0.007683796 -0.061074045 -0.031505525 -0.06256879 -0.0067104576 0.0051495833 -0.05241286
0.025312597 -0.014664285 0.057417367 -0.030030975 0.061711676 -0.057406843 0.006185451 0.012357831
0.027620291 -0.030400917 0.013289244 -0.029926848 0.029909363 -0.050743654 0.034589544 0.046097066
0.0189017 0.019741587 0.0020382898 -0.03820032 -0.03291693 0.0059798737 0.057553202 0.024088841
0.008522752 0.011610943 0.05411075 0.049937468 0.040767483 -0.02556556 0.0032972924 -0.039975878
0.048804924 -0.0055513866 -0.017222239 0.006718284 0.009227435 -0.03920855 0.044741478 0.054481618
-0.0478726 0.011216032 0.007081696 -0.017582389 -0.044959854 0.021984989 -0.04866952 -0.02691093
0.05846326 -0.056699812 0.037025582 -0.019986289 -0.024298787 0.042481128 0.056555446 -0.0046751923
-0.060611762 -0.0079154335 -0.0013324987 0.002979227 0.04377499 -0.06422413 -0.016602186 -0.0032960474
0.010762763 -0.009972088 -0.0013624714 0.033276293 0.008485115 -0.02033853 0.045094695 -0.013134088
0.053289205 -0.03937528 -0.025188796 -0.004393581 0.013148325 -0.05988207 0.0077201184 0.026092324
-0.038609013 0.051287744 -0.006686844 0.026920768 0.014628567 -0.062759735 0.022499695 0.056387693
0.009338934 -0.025744306 0.014235439 -0.059578136 -0.011902191 -0.014516346 0.02856733 -0.050230637
-0.052334525 -0.053506073 -0.057357464 -0.0035487085 0.052999623 0.02744515 -0.05763577 0.039754577
0.0013293102 -0.058408022 -0.004800943 -0.054839708 0.055837534 -0.060310684 0.030001443 -0.008010764
0.0054156906 -0.020425443 -0.020312827 -0.030355232 -0.052795403 -0.015471754 0.05795563 0.05434247
-0.023783647 0.021553766 0.01681312 0.021541998 0.034899365 0.04329393 -0.06267472 0.010356718
0.059407797 0.0014747441 -0.02972315 0.056484424 0.014878146 -0.0007066229 -0.057981633 0.050021462
0.023013642 0.03741288 -0.056120805 -0.04950102 -0.014020066 -0.02503047 -0.0046589538 0.0026954338
-0.045519512 0.026854137 0.02366896 -0.0061691697 -0.020875324 -0.05972927 -0.052977126 0.023067767
0.05194568 -0.04485692 -0.01660326 0.003231892 0.035837844 0.047953423 -0.053073153 -0.064792365
-0.005179625 0.03134837 -0.05510779 -0.00066749554 0.057677187 -0.012467813 -0.046267748 0.03861545
00000000: a803 f53c ee17 0abd 457d a7bc ca57 4fbc
00000010: 17c2 323c b3cf c13b aa80 6abd afd2 31bd
00000020: 728d 973c 8485 50bc 39fc 233d 9e52 84bc
00000030: c823 6cbd 1bce 493d 4a84 183d 2857 4ebd
00000040: 9431 8c3c 1158 3cbd f9dc 63bd f290 a83b
00000050: d087 653d dd09 cd3c d217 85bc f472 e13c
00000060: 9e40 203c 3f13 8d3c adde 4d3c da5d 65bd
00000070: 66a9 04bd da49 6e3d ea2e 12bd b029 39bd
00000080: 25d6 94bc 005c 4ebc 584e 01bd 0f6e 4ebd
00000090: 1117 80bd 8a66 01bc 4f6d 1cbd 0e98 983c
000000a0: 7c98 293d afc8 053d d112 e8bc 6df5 a3bc
000000b0: a157 56bc 6ebd 083d 61f2 f1bc 3183 6cbd
000000c0: 3772 40bd 80e5 f43b e23e 5fbd 4b96 55bd
000000d0: c579 e73c b5b2 6c3b 9ab8 2d3d 3f6a 603b
000000e0: 5897 8bbc 3adf 3abc 467a 993c 7d68 683d
000000f0: 04ac 05bd a01b 02bd bced 0c3d 2b3d 4fbd
00000100: ac2e ddbc 4eca 3bbd a386 6fba 4698 acbc
00000110: 5cd1 f7bc 619f 843c 85bf 36bc 6785 82bd
00000120: 87ce 293d e807 2d3d b029 303d bbc8 cfbc
00000130: 2924 10bd f243 9a3c b74e 04bd d289 73bd
00000140: bda1 1abd 5ac8 fbbb c728 7abd f00b 01bd
00000150: 1124 80bd 66e3 dbbb d6bd a83b deae 56bd
00000160: 5d5c cf3c 7842 70bc 792e 6b3d 8503 f6bc
00000170: 62c5 7c3d 7023 6bbd 53af ca3b 8078 4a3c
00000180: f343 e23c 580b f9bc 21bb 593c 2629 f5bc
00000190: 7b04 f53c 94d8 4fbd c4ad 0d3d 47d0 3c3d
000001a0: bdd7 9a3c 1cb9 a13c d494 053b f077 1cbd
000001b0: e7d3 06bd d1f2 c33b e8bc 6b3d f655 c53c
000001c0: 03a3 0b3c d33b 3e3c 3ca3 5d3d 3b8b 4c3d
000001d0: cefb 263d de6e d1bc 6317 583b bfbd 23bd
000001e0: ace7 473d 68e8 b5bb a715 8dbc 0d25 dc3b
000001f0: ab2e 173c 2599 20bd d742 373d 1e28 5f3d
00000200: 0f16 44bd 73c3 373c 920d e83b f108 90bc
00000210: d327 38bd dd19 b43c b159 47bd 5074 dcbc
00000220: 2c77 6f3d 103e 68bd 23a8 173d 49ba a3bc
00000230: 400e c7bc b100 2e3d afa6 673d 5b32 99bb
00000240: 0a44 78bd bcaf 01bc 3da7 aeba 233f 433b
00000250: 674d 333d f187 83bd 4f01 88bc 8002 58bb
00000260: 4d56 303c f861 23bc f494 b2ba b94c 083d
00000270: 2705 0b3c fd9c a6bc 37b5 383d 5c30 57bc
00000280: c845 5a3d f947 21bd bc58 cebc 07f8 8fbb
00000290: 126c 573c e746 75bd 0cf9 fc3b 92bf d53c
000002a0: 7c24 1ebd 1913 523d 501d dbbb f188 dc3c
000002b0: a8ac 6f3c 2d88 80bd 4851 b83c c8f6 663d
000002c0: 5402 193c b9e5 d2bc c23b 693c 3408 74bd
000002d0: 6801 43bc f8d5 6dbc 0906 ea3c a4be 4dbd
000002e0: ba5c 56bd 2f29 5bbd a9ef 6abd 7391 68bb
000002f0: 2216 593d a7d4 e03c 7c13 6cbd b2d5 223d
00000300: 403c ae3a 403d 6fbd 3b51 9dbb 9a9f 60bd
00000310: e6b5 643d 5608 77bd 96c5 f53c 943f 03bc
00000320: 1b76 b13b 4253 a7bc 1667 a6bc 89ab f8bc
00000330: fe3f 58bd 3d7d 7dbc e262 6d3d 3696 5e3d
00000340: ecd5 c2bc 8691 b03c abbb 893c d878 b03c
00000350: a3f2 0e3d fa54 313d 9b5b 80bd 39af 293c
00000360: 9755 733d 334c c13a f77d f3bc 365c 673d
00000370: 78c3 733c a93c 39ba 267e 6dbd 4ee3 4c3d
00000380: 1b87 bc3c 403e 193d eede 65bd 95c1 4abd
00000390: 6bb4 65bc b30c cdbc 23aa 98bb e0a5 303b
000003a0: ab72 3abd 35fd db3c 68e5 c13c bf26 cabb
000003b0: ba02 abbc aea6 74bd 8bfe 58bd 9df8 bc3c
000003c0: fec4 543d e4bb 37bd 8f03 88bc 26ce 533b
000003d0: b4ca 123d cf6a 443d 3c63 59bd dcb1 84bd
000003e0: d8b9 a9bb 2667 003d b5b8 61bd defa 2eba
000003f0: ea3e 6c3d cc45 4cbc 4083 3dbd 3c2b 1e3d

net.4.bias f4 [4]
-0.010269407 0.040298205 -0.010017805 -0.01402675
00000000: 0441 28bc bb0f 253d b821 24bc 74d0 65bc
